Actor-Critic/PyTorch-ActorCriticRL/Models/0_actor.pt (torch_old, 170218 bytes, 7 tensors)

fc1.weight f4 [256, 3]
-0.023878329 -0.0402608 0.0020145178 -0.055871315 0.03902346 -0.02530627 -0.030922376 0.03880187
-0.043977745 -0.017516479 0.032543078 0.0123080015 -0.041735783 0.04133997 0.05611805 0.02382432
0.04455357 0.044325218 0.057524726 0.011949092 -0.062327728 0.023170032 -0.06001126 -0.018731527
-0.01004754 0.05669239 -0.027449936 0.00059987605 0.010087788 -0.007378742 -0.0619632 0.022387348
0.011749484 0.028625213 -0.05446688 -0.019514456 0.0045748428 0.033224404 0.019042656 0.025703393
0.029324234 -0.029870227 -0.0010221526 -0.049710542 0.025349565 -0.033365138 0.030616224 0.02166488
-0.054373443 0.06237132 -0.00616543 0.0068885013 -0.012178451 -0.015886322 -0.05163694 0.0005091727
-0.062211588 -0.022644065 0.03370729 -0.05676961 0.03794679 -0.016249456 0.042050228 0.05439107
0.0020221993 -0.038726784 -0.045149483 0.033760495 0.0035370216 0.059693083 0.056337267 -0.049134538
-0.047285445 -0.03693507 -0.053858176 -0.051970325 -0.026484326 0.052880213 0.06163623 0.009609759
-0.022328869 0.009076759 -0.032211885 -0.039784133 0.018973194 0.004911445 -0.02404219 0.00716801
0.020588055 0.030594558 -3.4935772e-05 -0.009295143 -0.010189034 -0.041360013 0.021961361 0.050234787
0.01707235 -0.037206106 0.016152754 0.05185967 0.049282633 0.02457904 -0.050837763 -0.04500459
-0.049045138 0.020383827 0.058108583 -0.052551664 0.057509534 -0.004742831 -0.02233097 -0.04823129
0.06123407 0.028355494 0.029281594 -0.026201114 -0.014778525 -0.049254052 0.020388171 -0.02809649
-0.039623015 -0.05851663 0.049118273 -0.033199914 0.0032384768 0.05865588 0.03623318 -0.03891714
-0.046765007 0.031710662 0.042605735 -0.044472747 -0.025946625 -0.0028780177 -0.048371285 -0.046803385
-0.021559738 -0.044997804 0.05763696 0.042820588 -0.038876966 0.03679233 0.054393187 -0.031502374
0.02235087 0.060462087 -0.060774356 -0.018664151 -0.0070147663 0.057953097 0.025944486 0.038177587
-0.060144484 0.0088184625 0.048434347 0.027207755 0.0030562133 0.03856358 -0.033003643 -0.057227783
0.05154094 0.007219568 -0.02318766 0.0006474182 0.010830201 0.06185291 0.021634713 -0.037146434
-0.02819468 -0.027391039 0.060025096 0.059836067 -0.03796266 0.018106103 -0.045098275 0.031299964
0.03212908 -0.04964658 -0.0085529685 0.03879288 -0.0117954165 0.028550453 -0.03669101 -0.05480256
0.027111247 -0.02514556 -0.04661759 -0.02593577 0.0010217354 -0.006452419 0.013121255 0.0057500526
0.035647392 0.053400956 0.024330407 0.053759493 -0.012385927 0.008686401 0.049276672 -0.011010498
-0.013298206 0.016726576 0.013135053 -0.041243874 -0.022768855 0.029066727 -0.048636355 -0.040577263
-0.005598679 0.029402599 -0.026724443 -0.033340454 0.042119972 -0.03526526 -0.010912873 -0.042434387
0.049364313 0.019737534 -0.010423645 0.050190583 0.0055379197 0.010356799 -0.0037269518 0.056148686
-0.014545694 -0.027967334 0.038521856 0.059432387 0.020703822 -0.03256929 -0.040092655 -0.039066754
-0.032145835 0.015653543 0.025170766 0.017891586 -0.007935479 0.014245443 0.0037692115 -0.027986176
-0.041439176 0.057408698 -0.021597013 0.038663156 -0.056877755 0.00962913 -0.02731996 0.05987612
-0.004029073 -0.06015493 0.038307585 0.010089427 -0.0023216382 0.014073737 0.0003876537 0.02123414
00000000: 7c9c c3bc 82e8 24bd 0006 043b 52d9 64bd
00000010: 10d7 1f3d 184f cfbc ec50 fdbc b6ee 1e3d
00000020: 0222 34bd b87e 8fbc e44b 053d 80a7 493c
00000030: 24f3 2abd 1a54 293d 0adc 653d 382b c33c
00000040: ce7d 363d 5c8e 353d 0c9f 6b3d 20c6 433c
00000050: 5c4b 7fbd 14cf bd3c 5ece 75bd dc72 99bc
00000060: 709e 24bc 4836 683d b0de e0bc 0041 1d3a
00000070: 4047 253c 60c9 f1bb 20cd 7dbd ac65 b73c
00000080: e880 403c 6c7f ea3c aa18 5fbd c8dc 9fbc
00000090: 90e8 953b 5016 083d 58ff 9b3c ec8f d23c
000000a0: 6039 f03c 68b2 f4bc c0f9 85ba 489d 4bbd
000000b0: e4a9 cf3c e2a9 08bd e0ce fa3c 8c7a b13c
000000c0: b0b6 5ebd 1279 7f3d 6007 cabb f0b8 e13b
000000d0: 2088 47bc 0824 82bc 4281 53bd 007a 053a
000000e0: 94d1 7ebd 0c80 b9bc a810 0a3d 4087 68bd
000000f0: 186e 1b3d 941d 85bc dc3c 2c3d 2cc9 5e3d
00000100: e086 043b fa9f 1ebd aaee 38bd 7248 0a3d
00000110: 60cd 673b bc80 743d e8c1 663d 4c41 49bd
00000120: 62ae 41bd 3a49 17bd 649a 5cbd d6de 54bd
00000130: a8f5 d8bc ec98 583d 4676 7c3d 4072 1d3c
00000140: 08eb b6bc b0b6 143c 9cf0 03bd b0f4 22bd
00000150: ac6d 9b3c 30f0 a03b 20f4 c4bc a0e1 ea3b
00000160: 48a8 a83c 70a1 fa3c 0088 12b8 a84a 18bc
00000170: e8ef 26bc 1e69 29bd 50e8 b33c fec2 4d3d
00000180: 50db 8b3c 6e65 18bd c852 843c ce6a 543d
00000190: 96dc 493d fc59 c93c 423b 50bd bc56 38bd
000001a0: 8ee3 48bd fcfb a63c 4403 6e3d 6a40 57bd
000001b0: 1e8f 6b3d c069 9bbb 70ef b6bc 2c8e 45bd
000001c0: 94d0 7a3d c849 e83c f4df ef3c b8a3 d6bc
000001d0: a021 72bc 9ebe 49bd 1805 a73c 9c2a e6bc
000001e0: be4b 22bd 22af 6fbd 3e30 493d a2fc 07bd
000001f0: a03c 543b 2641 703d 3e69 143d 9467 1fbd
00000200: aa8c 3fbd 0ae3 013d 5a83 2e3d 0e29 36bd
00000210: 048e d4bc 209d 3cbb f820 46bd e8b4 3fbd
00000220: 0c9e b0bc 9e4f 38bd bc14 6c3d a464 2f3d
00000230: 743d 1fbd 8eb3 163d 64cb 5e3d a208 01bd
00000240: 2c19 b73c 18a7 773d 88ee 78bd 90e5 98bc
00000250: 20dc e5bb 3a60 6d3d 8889 d43c 1a60 1c3d
00000260: 105a 76bd 507b 103c 1863 463d cce2 de3c
00000270: c04a 483b d8f4 1d3d d42e 07bd ae67 6abd
00000280: 981c 533d 2092 ec3b 0cf4 bdbc 80b7 293a
00000290: 2871 313c 7a59 7d3d 483b b13c dc26 18bd
000002a0: 88f8 e6bc 2c63 e0bc e0dc 753d aa16 753d
000002b0: bc7e 1bbd 4053 943c f8b8 38bd 6434 003d
000002c0: c899 033d 365a 4bbd c021 0cbc 48e5 1e3d
000002d0: 9041 41bc a4e2 e93c 5049 16bd a678 60bd
000002e0: 6818 de3c 10fe cdbc 16f2 3ebd 4077 d4bc
000002f0: c0eb 853a d06e d3bb 88fa 563c f06a bc3b
00000300: 0003 123d f6ba 5a3d 9050 c73c ea32 5c3d
00000310: 58ee 4abc 6851 0e3c 56d6 493d 6065 34bc
00000320: b8e0 59bc 2c06 893c 6834 573c 56ef 28bd
00000330: c085 babc 581d ee3c ea36 47bd 5834 26bd
00000340: 2075 b7bb b8dd f03c 38ed dabc 0090 08bd
00000350: fe85 2c3d 4e72 10bd e8cb 32bc aecf 2dbd
00000360: 3c32 4a3d 9cb0 a13c f0c7 2abc a494 4d3d
00000370: 7077 b53b 90af 293c e03f 74bb 2afc 653d
00000380: 1051 6ebc c01b e5bc 18c9 1d3d 606f 733d
00000390: 109b a93c 6067 05bd 3238 24bd 7604 20bd
000003a0: 5aab 03bd dc3b 803c ec32 ce3c 6091 923c
000003b0: d003 02bc b865 693c e004 773b 4443 e5bc
000003c0: 20bc 29bd 6225 6b3d 38ec b0bc 425d 1e3d
000003d0: a6f8 68bd 80c3 1d3c 1cce dfbc aa40 753d
000003e0: 5006 84bb 0465 76bd 6ae8 1c3d 204e 253c
000003f0: a026 18bb 8895 663c 003e cb39 38f3 ad3c

fc1.bias f4 [256]
0.12580156 -0.069358766 -0.099943876 0.29602468 -0.15575722 0.04882461 -0.21774244 -0.27531493
0.51826036 0.33819032 -0.109398365 0.16272843 0.065411985 0.23392761 -0.32045504 0.5635042
-0.28019893 0.37415427 0.03941548 0.42969036 0.06518698 0.4314158 -0.56676966 -0.230061
-0.118326396 -0.5293517 -0.2854837 -0.14568084 0.5121964 0.040521324 0.39139485 0.16359699
0.050189197 0.23042184 -0.08758798 -0.5737742 -0.37881377 -0.16635725 0.5253391 0.48088384
-0.025642991 0.28829205 0.07179445 0.5245111 0.21311647 -0.012664735 0.20132202 0.53792894
-0.10206637 0.23346359 -0.3808611 -0.2576552 -0.098264515 0.17070222 -0.45091337 0.32860965
0.4343717 -0.4137525 0.2797929 -0.16385463 0.045634806 -0.38329333 -0.0037176013 0.08142972
0.27403104 -0.0382604 0.102167785 0.023435652 -0.3894928 -0.12024918 0.050115585 -0.012657285
-0.22591424 -0.2353366 -0.09805614 -0.14794353 0.35927004 0.5261004 -0.47771204 -0.08632171
-0.48562658 -0.20431906 0.42817175 -0.021707714 -0.5203649 0.30486578 -0.061642945 0.14912081
0.06575787 0.55393624 -0.27081746 -0.12850335 0.39822555 -0.53525245 0.06800699 -0.115807384
-0.36267358 -0.49826816 0.097806334 -0.27182218 -0.27309793 0.35267597 -0.016585171 0.42631185
0.4122455 0.4473189 0.341743 0.5170208 0.3161546 0.5124526 -0.08935195 -0.32607242
-0.3638807 0.54387844 -0.5553893 0.1989603 -0.017893136 0.26852643 0.576434 0.19609392
-0.15134364 0.16904056 -0.5605785 -0.31056955 0.5375428 -0.35091138 0.24230808 -0.068800986
-0.1707232 -0.06279534 -0.097729266 0.11605078 0.312046 0.17368627 -0.3622434 -0.46236333
-0.16721159 0.47441077 0.42696214 -0.5120319 -0.44948614 -0.36949527 0.54954934 -0.34097397
0.0023892522 0.010172427 0.408579 -0.5241692 -0.55077547 0.0937497 0.12675607 -0.3525174
-0.48017842 -0.30823562 0.009920776 -0.46261126 -0.37500814 -0.22259721 0.03032422 0.12339091
0.12784106 0.3412152 -0.17682087 -0.5152806 0.39796948 0.5199106 0.43543887 0.5045848
0.3429237 0.06466031 0.03561127 -0.45189318 0.43020272 0.18723893 0.12578338 0.5383631
0.4771359 0.47142315 0.054257452 -0.20671102 0.06382334 0.4292668 0.457376 0.44066978
0.15679991 0.01476258 -0.06759888 -0.51208913 -0.25015935 0.05863762 0.447263 -0.30202982
-0.15201423 0.06940597 0.43070757 -0.31978834 0.5673648 0.47408652 0.47743428 0.13878047
0.4273311 0.41465282 -0.34089622 -0.28743082 -0.46058273 0.010845184 0.523438 -0.4521535
-0.051453352 0.18561357 0.3930112 0.035103083 -0.5346775 0.42432916 -0.2843191 0.21068442
-0.43439335 0.5198127 0.033164203 -0.07802096 -0.33569688 0.23028988 -0.40276772 0.16987514
-0.2562636 -0.05549431 -0.44057745 -0.26583642 0.5053861 -0.38759303 0.39349794 0.0066035986
-0.31462187 -0.13457397 0.5048754 -0.3098789 0.25820333 0.5470078 0.4855883 0.0765959
0.1986056 0.45842195 0.2411114 0.2898897 -0.09480226 -0.14984754 -0.07762781 0.3581714
-0.36487538 -0.3599972 0.1081866 -0.35188958 0.3018936 0.36451417 -0.23195058 0.43656623
00000000: 20d2 003e f80b 8ebd 60af ccbd 8c90 973e
00000010: d27e 1fbe 50fc 473d e0f7 5ebe 14f6 8cbe
00000020: b6ac 043f 4827 ad3e 400c e0bd 48a2 263e
00000030: b8f6 853d b88a 6f3e af12 a4be d041 103f
00000040: 3c76 8fbe 2691 bf3e 2072 213d 6000 dc3e
00000050: c080 853d 88e2 dc3e d117 11bf 1c95 6bbe
00000060: 1c55 f2bd 9883 07bf eb2a 92be 5c2d 15be
00000070: 4e1f 033f b0f9 253d e864 c83e f885 273e
00000080: 3093 4d3d b4f3 6b3e 5461 b3bd dee2 12bf
00000090: e1f3 c1be 8e59 2abe a07c 063f 6836 f63e
000000a0: 4011 d2bc 049b 933e f808 933d 5c46 063f
000000b0: 343b 5a3e c07f 4fbc 5c27 4e3e b6b5 093f
000000c0: 2c08 d1bd 1411 6f3e 3a00 c3be 62eb 83be
000000d0: e83e c9bd 90cc 2e3e 1ede e6be 863f a83e
000000e0: f865 de3e 5ed7 d3be 0441 8f3e 82c9 27be
000000f0: 90eb 3a3d 063f c4be 00a3 73bb a0c4 a63d
00000100: cc4d 8c3e f0b6 1cbd 583d d13d 20fc bf3c
00000110: 9a6b c7be 3445 f6bd 0046 4d3d 8060 4fbc
00000120: 1056 67be 14fc 70be a8d1 c8bd 827e 17be
00000130: 3ef2 b73e 84ae 063f ac96 f4be 70c9 b0bd
00000140: 0ca4 f8be 0439 51be 5439 db3e 60d4 b1bc
00000150: a236 05bf 5e17 9c3e 507d 7cbd 20b3 183e
00000160: 10ac 863d c4ce 0d3f 96a8 8abe 6296 03be
00000170: 38e4 cb3e 4e06 09bf 4047 8b3d 6c2c edbd
00000180: 5ab0 b9be 011d ffbe b04e c83d 472c 8bbe
00000190: 7ed3 8bbe f291 b43e a0dd 87bc 8c45 da3e
000001a0: d811 d33e fc06 e53e f0f8 ae3e 7a5b 043f
000001b0: 04df a13e 1830 033f 28fe b6bd f7f2 a6be
000001c0: 924e babe 9e3b 0b3f fe2d 0ebf 40bc 4b3e
000001d0: a094 92bc 4c7c 893e 2e91 133f d8cc 483e
000001e0: d4f9 1abe f818 2d3e 1382 0fbf f902 9fbe
000001f0: 689c 093f a8aa b3be 9c1f 783e 88e7 8cbd
00000200: 10d2 2ebe d89a 80bd 4826 c8bd 08ac ed3d
00000210: 7ec4 9f3e d0da 313e f877 b9be e3ba ecbe
00000220: 8439 2bbe f8e5 f23e c89a da3e 8614 03bf
00000230: 0c23 e6be 7c2e bdbe 44af 0c3f 2494 aebe
00000240: 0095 1c3b 40aa 263c 4431 d13e f42f 06bf
00000250: 9fff 0cbf d8ff bf3d 58cc 013e 297d b4be
00000260: f2d9 f5be 0fd1 9dbe c08a 223c 62db ecbe
00000270: 1101 c0be 86f0 63be 806a f83c 60b4 fc3d
00000280: c4e8 023e c2b3 ae3e 8810 35be 6ee9 03bf
00000290: a8c2 cb3e dc18 053f d8f1 de3e 782c 013f
000002a0: b293 af3e a06c 843d 20dd 113d 8b5e e7be
000002b0: 8843 dc3e 90bb 3f3e 5ccd 003e 2ad2 093f
000002c0: 284b f43e 605e f13e 103d 5e3d 0eac 53be
000002d0: d0b5 823d dcc8 db3e 302d ea3e 789f e13e
000002e0: 2890 203e c0de 713c 4871 8abd 4618 03bf
000002f0: e314 80be 002e 703d a8ff e43e a7a3 9abe
00000300: 9ea9 1bbe b824 8e3d b485 dc3e 4cbb a3be
00000310: d23e 113f 78bb f23e 4472 f43e 781c 0e3e
00000320: 24cb da3e 604d d43e f389 aebe 222a 93be
00000330: 80d1 ebbe 00b0 313c 0800 063f aa80 e7be
00000340: c0c0 52bd 7c11 3e3e c438 c93e 40c8 0f3d
00000350: a0e0 08bf ac41 d93e 4692 91be a8bd 573e
00000360: ce68 debe 7212 053f 30d7 073d 74c9 9fbd
00000370: 76e0 abbe 1cd1 6b3e 9237 cebe c0f3 2d3e
00000380: fc34 83be 004e 63bd 5e93 e1be b61b 88be
00000390: fc60 013f 9872 c6be 9078 c93e 0063 d83b
000003a0: 1e16 a1be c2cd 09be 843f 013f 72a8 9ebe
000003b0: 3a33 843e b408 0c3f 089f f83e 50de 9c3d
000003c0: 445f 4b3e 48b6 ea3e e8e5 763e 6c6c 943e
000003d0: b027 c2bd a271 19be 54fb 9ebd 3e62 b73e
000003e0: f2d0 babe 8e51 b8be f090 dd3d df2a b4be
000003f0: cc91 9a3e 9aa1 ba3e 7484 6dbe 9c85 df3e

fc2.weight f4 [128, 256]
-0.045572985 0.032990962 0.013670623 0.045964368 0.026846036 -0.037831705 0.04716613 0.020688146
-0.022768453 0.06529727 0.037791915 -0.03369121 -0.04575874 0.066205926 0.006218724 0.07719196
-0.059037723 -0.06403175 0.08817921 -0.038048036 -0.0636363 0.057532854 -0.024865575 -0.07833378
-0.054939777 0.041323684 -0.019489236 0.05451467 0.06747965 -0.02398438 0.02706854 -0.0070562437
0.06493359 0.011692569 -0.065996125 -0.052141983 0.047585107 0.069324546 0.078133084 0.023563862
-0.077863865 0.038416497 -0.06370781 0.077491514 -0.03212537 -0.010291301 -0.028021723 -0.033447456
0.086232685 -0.00035300106 0.070513375 -0.0033398196 0.04336784 -0.007765144 0.019294254 0.028267913
0.040994145 0.05667054 0.07651604 -0.04128722 0.000304617 0.03185471 0.014039934 0.06865237
-0.0020890832 0.01690153 0.03140582 0.082868285 0.024717376 0.07603846 -0.07701054 0.010843173
-0.04963434 0.058846943 -0.02482783 -0.06488047 0.030109689 -0.027784236 0.0132085085 -0.025232114
0.03691887 -0.08769682 0.03331911 -0.046217043 0.07278206 0.0276713 0.059143998 -0.035863534
-0.032222044 -0.04320823 0.0821585 0.08560837 -0.025814071 -0.035403647 0.025612168 -0.033768497
0.0777368 -0.04298124 0.0032696798 -0.013825186 0.05638092 -0.007044226 -0.044307876 0.05607962
0.02836705 0.056172974 -0.08731484 -0.026792362 0.030917607 -0.04022672 0.043918587 -0.010644905
-0.027530741 0.07409037 0.021124907 0.009598114 0.07533156 0.046000995 -0.05736042 -0.02314537
0.015855305 -0.007797137 0.08055159 0.0669441 0.028947689 -0.059740007 -0.047637064 -0.082736075
0.018187895 0.06283588 0.055666424 -0.07182511 0.06628772 -0.03444544 -0.058282506 0.008256644
-0.07259385 -0.076479204 0.02411037 0.016337685 -0.0375852 0.07975157 0.031313464 -0.0367599
0.05042713 0.07548619 0.056626327 0.0353546 0.052514218 0.0022129193 0.042215712 -0.021654375
-0.027738001 -0.006243624 0.05517707 -0.019613646 -0.077423885 0.031092428 -0.051751807 -0.032296833
-0.0044150725 0.0413452 -0.07539133 -0.056499146 0.027906306 0.07761773 0.052292503 0.07679101
0.048766278 0.033760563 0.0071818233 -0.008407272 -0.060782984 0.077112384 -0.08440804 0.059248127
0.060775496 -0.011379451 -0.023913816 0.0047455207 0.070328034 0.01172325 0.032367118 0.013776079
0.0043817163 -0.02785997 -0.011654079 -0.05416501 -0.048318736 -0.0021774843 0.0759789 -0.072063036
0.023687385 0.08370405 0.043643765 0.04801113 0.05576936 -0.029797085 -0.05875494 -0.06567288
-0.02976755 -0.08355905 0.07086564 -0.057234555 -0.06256871 0.054258145 -0.050773993 -0.063495986
-0.00021906942 0.08774545 -0.0858429 -0.037484996 0.03191211 -0.012331799 -0.010748416 -0.036021266
-0.08394745 0.0020396784 -0.01486785 -0.05207872 -0.08502801 -0.032319266 -0.033200916 0.063230135
0.018066414 0.047403313 0.0054330453 -0.074475184 0.07350298 -0.03282504 0.01781483 -0.06927659
-0.05820649 -0.044831593 0.07979625 -0.023541935 -0.060741402 -0.004039161 -0.062429383 0.07128034
-0.0093477145 -0.03741125 -0.02434367 0.047323056 0.021165356 0.06629094 -0.047817074 -0.05107886
-0.024932496 0.012622803 -0.046248715 -0.08318531 -0.043989677 -0.041657314 0.039897896 -0.05616606
00000000: bdaa 3abd 8821 073d c0fa 5f3c 2245 3c3d
00000010: 38ec db3c 6bf5 1abd 4631 413d 307a a93c
00000020: e884 babc 93ba 853d b2cb 1a3d cbff 09bd
00000030: 846d 3bbd f996 873d 70c6 cb3b d116 9e3d
00000040: 8ad1 71bd 1423 83bd 4d97 b43d 42d8 1bbd
00000050: c053 82bd 92a7 6b3d e4b2 cbbc 766d a0bd
00000060: 8808 61bd 0643 293d e4a7 9fbc c64a 5f3d
00000070: c532 8a3d e47a c4bc d8be dd3c 1038 e7bb
00000080: e7fb 843d 3092 3f3c fa28 87bd d592 55bd
00000090: 9ae8 423d 07fa 8d3d 3d04 a03d 0009 c13c
000000a0: 1777 9fbd 9e5a 1d3d 3e79 82bd dfb3 9e3d
000000b0: e495 03bd d89c 28bc d08d e5bc 3300 09bd
000000c0: c39a b03d 0013 b9b9 5169 903d e0e0 5abb
000000d0: 7aa2 313d c072 febb fc0e 9e3c 1c92 e73c
000000e0: 7ae9 273d 5e1f 683d 71b4 9c3d ca1c 29bd
000000f0: 00b5 9f39 167a 023d c007 663c 9d99 8c3d
00000100: 00e9 08bb 1475 8a3c 64a3 003d d9b6 a93d
00000110: 187c ca3c 0dba 9b3d b4b7 9dbd 90a7 313c
00000120: 614d 4bbd 7e09 713d bc63 cbbc 0de0 84bd
00000130: 98a8 f63c c49b e3bc 8068 583c 94b3 cebc
00000140: 3e38 173d 649a b3bd 9e79 083d 154e 3dbd
00000150: c30e 953d ecae e23c fa40 723d a4e5 12bd
00000160: 43fb 03bd 1dfb 30bd b742 a83d 7153 af3d
00000170: 0878 d3bc 6a03 11bd 9cd0 d13c d650 0abd
00000180: 7934 9f3d 190d 30bd 2048 563b 0883 62bc
00000190: aeef 663d 40d3 e6bb 2d7c 35bd beb3 653d
000001a0: 0462 e83c a215 663d 1fd2 b2bd a87b dbbc
000001b0: ec46 fd3c c6c4 24bd fae3 333d f867 2ebc
000001c0: 2688 e1bc b1bc 973d 240e ad3c 6841 1d3c
000001d0: 6f47 9a3d 8a6b 3c3d c2f2 6abd 5c9b bdbc
000001e0: fce2 813c 207f ffbb 3bf8 a43d fd19 893d
000001f0: b423 ed3c f0b1 74bd 151f 43bd 8871 a9bd
00000200: c8fe 943c 19b0 803d 7a02 643d 0b19 93bd
00000210: dbc1 873d a916 0dbd a3b9 6ebd e046 073c
00000220: 16ac 94bd 21a1 9cbd 1c83 c53c 9cd6 853c
00000230: f0f2 19bd cb54 a33d 8c42 003d 8d91 16bd
00000240: ae8c 4e3d 8198 9a3d 02f1 673d fccf 103d
00000250: 2619 573d a006 113b 62ea 2c3d 8464 b1bc
00000260: ce3a e3bc 5097 ccbb 5a01 623d ccac a0bc
00000270: 6a90 9ebd 8cb5 fe3c b4f9 53bd af49 04bd
00000280: 50ac 90bb 9659 293d c566 9abd a66b 67bd
00000290: c49b e43c 0bf6 9e3d aa30 563d 9b44 9d3d
000002a0: 26bf 473d 8448 0a3d 8055 eb3b a8be 09bc
000002b0: 94f7 78bd 19ed 9d3d 1fde acbd 2aae 723d
000002c0: baef 783d e070 3abc e8e6 c3bc 5080 9b3b
000002d0: 2508 903d e012 403c 6293 043d 10b5 613c
000002e0: 8094 8f3b 983a e4bc c0f0 3ebc 21dc 5dbd
000002f0: dee9 45bd 20b4 0ebb d39a 9b3d c995 93bd
00000300: 0c0c c23c 076d ab3d cec3 323d 52a7 443d
00000310: 6a6e 643d 0419 f4bc 05a9 70bd 817f 86bd
00000320: 14db f3bc 0221 abbd 0122 913d c86e 6abd
00000330: 0624 80bd ca3d 5e3d 64f8 4fbd 2f0a 82bd
00000340: 00b6 65b9 e3b3 b33d 67ce afbd de89 19bd
00000350: 46b6 023d 500b 4abc 201a 30bc 098b 13bd
00000360: a4ec abbd 20ac 053b 4898 73bc 7f50 55bd
00000370: 2a23 aebd 3561 04bd affd 07bd cd7e 813d
00000380: 0400 943c fa29 423d b007 b23b 7286 98bd
00000390: bb88 963d 8d73 06bd 68f0 913c e3e0 8dbd
000003a0: ee69 6ebd 55a1 37bd 376c a33d 04db c0bc
000003b0: facb 78bd f05a 84bb f4b5 7fbd 6dfb 913d
000003c0: 2827 19bc 8a3c 19bd 606c c7bc d2d5 413d
000003d0: f862 ad3c 8bc3 873d d6db 43bd 1138 51bd
000003e0: 3c3f ccbc e0cf 4e3c 4b6f 3dbd 0f5d aabd
000003f0: 852e 34bd dca0 2abd fa6b 233d 620e 66bd

fc2.bias f4 [128]
-0.060307376 -0.048501283 0.04545676 0.04568927 0.034929022 0.054051384 -0.04061658 0.022917189
0.014865629 0.02248849 -0.02549234 -0.057463415 -0.050161377 0.059609674 0.038766555 -0.04979466
-0.015366405 -0.05895158 -0.06092248 -0.030400246 -0.038881972 0.008427203 -0.05017084 -0.060546033
-0.0017125905 -0.04314577 -0.053929105 -0.018138088 0.03483443 -0.003614165 0.053178668 -0.048463076
-0.053639174 -0.016327254 -0.047836117 0.028514132 -0.007448882 -0.032398462 -0.007963538 -0.0007419735
0.027501844 -0.055430055 -0.06032306 -0.019743428 -0.0380921 -0.003053151 -0.017920613 -0.03592498
-0.0018266216 -0.01152803 0.039595135 0.012249209 0.03841488 0.03377016 -0.01715573 -0.0046987534
0.053984255 -0.01693049 -0.020799965 -0.041453525 0.019043028 0.025853708 0.0032046735 0.042434208
0.017078169 -0.04455597 0.06214468 0.047652975 0.041628525 0.05810719 -0.06090749 -0.03359168
0.01222983 0.03474754 -0.010812804 0.03839866 0.049327374 0.003328815 -0.04523021 0.03589294
0.042633064 -0.013904661 -0.03221514 -0.006408997 -0.038024068 -0.04998465 -0.009584889 0.045753524
-0.009627856 0.016305335 0.013677597 -0.056797877 0.04285702 -0.04238736 0.011311211 0.061579734
-0.010135032 0.036083467 0.0142364055 -0.0011731312 -0.017849594 -0.01877185 -0.022304155 0.041373983
-0.02294667 -0.050195493 0.031398475 0.016306974 -0.00031011552 0.06037391 0.003964141 -0.028815798
0.028816171 0.049766935 -0.050638802 0.027091332 -0.042309552 0.05504086 0.058437087 -0.0049473196
0.027291328 -0.05135318 0.047892615 -0.021602027 -0.0013807192 -0.034257963 -0.04638391 0.05909747
00000000: de04 77bd 48a9 46bd de30 3a3d ac24 3b3d
00000010: bc11 0f3d fc64 5d3d 925d 26bd d4bc bb3c
00000020: f88e 733c c839 b83c 50d5 d0bc c25e 6bbd
00000030: 0476 4dbd 4629 743d aec9 1e3d 7cf5 4bbd
00000040: 60c3 7bbc 3677 71bd da89 79bd f009 f9bc
00000050: b442 1fbd 4012 0a3c f07f 4dbd 1eff 77bd
00000060: 0079 e0ba 9eb9 30bd c4e4 5cbd 5496 94bc
00000070: 8cae 0e3d a0db 6cbb e0d1 593d 3881 46bd
00000080: c0b4 5bbd bcc0 85bc ceef 43bd 7896 e93c
00000090: c015 f4bb 40b4 04bd 8079 02bc 0081 42ba
000000a0: 8c4b e13c a00a 63bd 5015 77bd f8bc a1bc
000000b0: 7606 1cbd 6017 48bb 40ce 92bc 1226 13bd
000000c0: 406b efba 10e0 3cbc 822e 223d e8b0 483c
000000d0: ec58 1d3d 9452 0a3d 2c8a 8cbc 00f8 99bb
000000e0: 981e 5d3d d0b1 8abc b064 aabc 2ccb 29bd
000000f0: 2000 9c3c 28cb d33c 8005 523b 7ecf 2d3d
00000100: 84e7 8b3c 5280 36bd 6c8b 7e3d c42f 433d
00000110: ac82 2a3d ce01 6e3d 227a 79bd 6e97 09bd
00000120: a05f 483c 7053 0e3d 3028 31bc ea47 1d3d
00000130: 800b 4a3d 4028 5a3b 5043 39bd 7a04 133d
00000140: 02a0 2e3d 60d0 63bc 06f4 03bd 9002 d2bb
00000150: 20bf 1bbd b4bc 4cbd f009 1dbc 0c68 3b3d
00000160: 28be 1dbc c492 853c 0018 603c e4a4 68bd
00000170: d88a 2f3d 5e9e 2dbd a852 393c 083b 7c3d
00000180: 680d 26bc 42cc 133d d03f 693c c0c3 99ba
00000190: 5039 92bc 6cc7 99bc 34b7 b6bc c477 293d
000001a0: a8fa bbbc ca99 4dbd b09b 003d 3496 853c
000001b0: 0097 a2b9 a24a 773d a0e5 813b 1c0f ecbc
000001c0: e40f ec3c 6ad8 4b3d a26a 4fbd a4ee dd3c
000001d0: c84c 2dbd 8672 613d ba5b 6f3d 201d a2bb
000001e0: 1092 df3c b657 52bd 0c2b 443d bcf6 b0bc
000001f0: 40f9 b4ba 1452 0cbd 0efd 3dbd 3010 723d

fc3.weight f4 [64, 128]
0.0072339773 -0.058081076 -0.110809684 -0.11614813 0.010846004 0.064826205 -0.015832976 -0.07388565
-0.02014181 -0.08458419 0.0066549927 0.0661089 -0.08823198 -0.051646605 -0.0042788386 0.030864641
0.06346117 0.0030774176 0.08436607 -0.10241036 0.09565121 -0.093908 0.042873576 -0.03734392
-0.106888264 -0.082230225 0.0825834 -0.120317295 0.11381668 -0.03955576 -0.095461026 0.019041628
-0.0722938 0.059772357 -0.0105225 0.09329972 0.07397276 0.037555397 -0.02816914 -0.0007226616
0.08492896 -0.039136797 0.0129957795 0.014037505 0.060434908 0.12328467 -0.018396676 0.008560032
-0.014923885 -0.029238418 0.09219171 0.006721258 0.010312274 -0.11220528 0.11736739 0.02494523
-0.05471666 -0.003512159 0.04830739 0.010292128 -0.10292679 -0.025951162 -0.03288223 0.0499835
-0.067797646 0.009352967 0.09087439 0.051153585 0.05324596 0.038783416 -0.08861673 0.028547123
0.007402256 -0.091453776 0.09921302 -0.027997643 0.05336003 -0.07956767 0.014398903 0.10543871
0.10914989 0.105140194 0.08829644 -0.07337296 -0.06450793 -0.060617253 -0.09161033 -0.04160358
-0.021799177 0.038533315 0.03757906 -0.122568354 -0.07392074 0.00016151369 -0.109888256 0.033123717
-0.0057952255 0.087861046 0.009565175 -0.02765426 0.11563799 -0.057445377 0.11903381 0.12299289
0.10338588 -0.02687125 0.057701692 0.0637556 -0.08047719 0.0016275495 -0.10666931 0.0809159
0.1095666 -0.04022424 -0.030816957 -0.014969379 -0.11475505 -0.10345885 0.022404596 -0.10194987
-0.12205416 -0.12151781 0.0014511049 0.12389916 -0.11003134 0.10735984 -0.09915011 -0.10100481
0.051009923 -0.05306153 0.11378449 0.058347896 0.09842974 0.10358684 -0.06658831 0.026396647
-0.009738147 -0.12111427 0.08236453 -0.07588631 -0.0044903606 0.124935865 -0.020626009 0.008425668
-0.11001249 0.07359254 -0.050979465 0.08045174 -0.03035368 -0.069199756 0.019112244 0.02670142
-0.020963088 0.012102023 -0.04960695 0.06696078 0.00781697 -0.022439957 0.06295383 0.05408667
-0.06583686 0.10693787 0.074000716 -0.026429921 0.02386932 0.10319491 0.041887566 -0.036031023
0.012546271 0.0050566643 0.059883952 -0.04024057 -0.021101117 0.07596539 0.10526714 0.10842554
-0.049789146 0.11668651 0.028804392 0.09955679 -0.123138845 -0.015561625 -0.07169846 0.014459312
-0.09175317 -0.1207367 -0.04725367 -0.09690644 -0.033196926 -0.09168315 0.025739953 -0.07753664
0.019076988 0.011638448 0.040811792 0.040060565 -0.037342772 -0.02595149 0.08578725 -0.11630471
-0.02799213 0.0010666847 0.08368842 0.046477094 -0.043576404 0.008596107 0.11197688 -0.050466508
0.036057055 -0.04188931 -0.123178795 0.08877988 -0.045316473 0.02289474 0.012349024 -0.052312642
0.1013934 0.013597563 0.045181707 0.016465306 0.09053689 0.04495342 0.10306549 -0.09557037
0.01355353 0.032426372 -0.0008019507 -0.024538666 0.07455529 -0.06590399 -0.019326821 0.09647402
-0.11234082 -0.013341442 -0.056637228 -0.011683285 -0.038204312 -0.08746317 0.056008384 0.09009467
0.03099452 0.06824054 0.09887372 -0.028337643 0.0951512 0.056348756 -0.11720319 0.10561484
0.07160401 -0.041818127 -0.020532161 -0.0014100075 0.10322574 0.012660891 0.014038235 -0.0936061
00000000: 000b ed3b 6ce6 6dbd 30f0 e2bd 12df edbd
00000010: 70b3 313c 9ac3 843d 28b4 81bc 5c51 97bd
00000020: 7000 a5bc 7a3a adbd 2012 da3b 1a64 873d
00000030: f8b2 b4bd 648b 53bd 8035 8cbb d8d7 fc3c
00000040: eef7 813d 80ae 493b 1ec8 ac3d 86bc d1bd
00000050: c8e4 c33d d652 c0bd 349c 2f3d f0f5 18bd
00000060: 3ce8 dabd 5268 a8bd 7c21 a93d ea68 f6bd
00000070: b818 e93d 3805 22bd 1281 c3bd 30fd 9b3c
00000080: c60e 94bd dcd3 743d 9066 2cbc ec13 bf3d
00000090: 087f 973d b0d3 193d f8c2 e6bc 0071 3dba
000000a0: 3cef ad3d e84d 20bd 40ec 543c 90fd 653c
000000b0: 988a 773d ac7c fc3d a0b4 96bc 603f 0c3c
000000c0: 5083 74bc 6885 efbc 02cf bc3d 003e dc3b
000000d0: d0f4 283c e2cb e5bd 505e f03d f059 cc3c
000000e0: 941e 60bd 402c 66bb f8dd 453d 50a0 283c
000000f0: 48cb d2bd 8897 d4bc 84af 06bd 80bb 4c3d
00000100: 7ed9 8abd 303d 193c 5a1c ba3d 6c86 513d
00000110: 7018 5a3d 5cdb 1e3d b07c b5bd a8db e93c
00000120: a08e f23b 1e4c bbbd 3230 cb3d 505b e5bc
00000130: 0c90 5a3d 60f4 a2bd 60e9 6b3c 40f0 d73d
00000140: fa89 df3d be53 d73d c4d4 b43d 9044 96bd
00000150: bc1c 84bd cc49 78bd 329e bbbd 8468 2abd
00000160: 3094 b2bc 1cd5 1d3d 80ec 193d 1e05 fbbd
00000170: c263 97bd 005c 2939 180d e1bd bcac 073d
00000180: e0e5 bdbb 7ef0 b33d 40b7 1c3c 308b e2bc
00000190: 9cd3 ec3d d84b 6bbd 00c8 f33d b2e3 fb3d
000001a0: fabb d33d 1821 dcbc 9c58 6c3d 4c92 823d
000001b0: 3ad1 a4bd 8053 d53a 7075 dabd 3cb7 a53d
000001c0: 7464 e03d 2cc2 24bd d873 fcbc 2042 75bc
000001d0: b204 ebbd 3ce2 d3bd d889 b73c 18cb d0bd
000001e0: 88f7 f9bd 54de f8bd 0033 be3a d8be fd3d
000001f0: 1c58 e1bd 7adf db3d 360f cbbd 9cdb cebd
00000200: c8ef 503d 0c57 59bd d807 e93d 34fe 6e3d
00000210: 8895 c93d 5625 d43d 745f 88bd c83d d83c
00000220: c08c 1fbc c20a f8bd bcae a83d 486a 9bbd
00000230: e023 93bb 60de ff3d e0f7 a8bc d00b 0a3c
00000240: 3a4e e1bd b0b7 963d d8cf 50bd e2c3 a43d
00000250: 48a8 f8bc 9ab8 8dbd 4891 9c3c f0bc da3c
00000260: c8ba abbc 9047 463c a830 4bbd bc22 893d
00000270: c012 003c 00d4 b7bc f0ed 803d fc89 5d3d
00000280: 7ad5 86bd 3e02 db3d b08d 973d 9083 d8bc
00000290: 9889 c33c da57 d33d 4c92 2b3d 4495 13bd
000002a0: e08e 4d3c 60b2 a53b e048 753d 4cd3 24bd
000002b0: 40dc acbc be93 9b3d 4c96 d73d 360e de3d
000002c0: b4ef 4bbd 56f9 ee3d 30f7 eb3c 6ee4 cb3d
000002d0: 3830 fcbd 30f6 7ebc a4d6 92bd c0e6 6c3c
000002e0: 16e9 bbbd ce44 f7bd 108d 41bd e276 c6bd
000002f0: 80f9 07bd 60c4 bbbd 98dc d23c 88cb 9ebd
00000300: 5847 9c3c 30af 3e3c 442a 273d 8c16 243d
00000310: bcf4 18bd 3898 d4bc 3ab1 af3d 2a31 eebd
00000320: c04f e5bc 00d0 8b3a d664 ab3d c45e 3e3d
00000330: 2c7d 32bd b0d6 0c3c 2254 e53d f8b5 4ebd
00000340: 90b0 133d 2094 2bbd 2a45 fcbd 3ad2 b53d
00000350: c49d 39bd c08d bb3c 9053 4a3c c845 56bd
00000360: 58a7 cf3d 50c8 5e3c 7410 393d 40e2 863c
00000370: 686b b93d 1421 383d 0014 d33d 66ba c3bd
00000380: a00f 5e3c 84d1 043d 003a 52ba 5005 c9bc
00000390: 72b0 983d acf8 86bd 4853 9ebc 2c94 c53d
000003a0: f212 e6bd 1096 5abc 70fc 67bd 406b 3fbc
000003b0: 207c 1cbd e41f b3bd 0c69 653d 8e83 b83d
000003c0: 38e8 fd3c b2c1 8b3d 4e7e ca3d 5824 e8bc
000003d0: a2de c23d f4cd 663d 3a08 f0bd 984c d83d
000003e0: 20a5 923d 7c49 2bbd 1033 a8bc 00d0 b8ba
000003f0: 0468 d33d a06f 4f3c a000 663c 8eb4 bfbd

fc3.bias f4 [64]
-0.00801219 0.070087336 -0.07418017 0.041232698 0.032503583 0.019821748 0.01664219 -0.0057275593
0.033428885 0.02772247 -0.019178353 0.04277212 0.08403622 -0.00087733567 -0.041792307 0.04147286
0.01818546 0.02958832 0.006466411 0.051157735 -0.069081075 -0.011151642 0.009133525 0.0030934736
-0.037808567 -0.08126434 0.059664704 -0.030029565 -0.04467574 -0.0403592 -0.042402953 -0.035873406
0.080582015 0.041990213 -0.01161997 0.088292055 0.038707055 0.02592662 -0.037955448 0.074770145
0.029486924 -0.017761156 0.032529794 0.079096414 0.026762076 -0.014570005 0.083021514 0.014803059
-0.07657033 0.08253742 -0.025951046 -0.005835466 -0.029549725 0.03184302 0.008965395 0.061848395
0.03302238 0.06515955 0.077695526 0.03694544 0.01638174 -0.0123728365 -0.03395978 -0.034015574
00000000: 9045 03bc f389 8f3d c6eb 97bd 9ee3 283d
00000010: 7a22 053d 3861 a23c 3455 883c 40ae bbbb
00000020: baec 083d 3c1a e33c ec1b 9dbc d231 2f3d
00000030: 2f1b ac3d 00fd 65ba 692e 2bbd 72df 293d
00000040: acf9 943c 3463 f23c 30e4 d33b c68a 513d
00000050: 617a 8dbd 60b5 36bc c8a4 153c e0bb 4a3b
00000060: 28dd 1abd eb6d a6bd fa62 743d 9000 f6bc
00000070: e9fd 36bd b04f 25bd b8ae 2dbd feef 12bd
00000080: 2f08 a53d eefd 2b3d b061 3ebc 77d2 b43d
00000090: 4a8b 1e3d 1064 d43c 2c77 1bbd 1721 993d
000000a0: 908e f13c d87f 91bc f63d 053d 4dfd a13d
000000b0: 243c db3c 08b7 6ebc 2f07 aa3d 8888 723c
000000c0: e8d0 9cbd 6109 a93d 4a97 d4bc 7037 bfbb
000000d0: 4412 f2bc d46d 023d 98e3 123c be54 7d3d
000000e0: 7a42 073d 5f72 853d d51e 9f3d 1a54 173d
000000f0: 0033 863c 70b7 4abc 6919 0bbd ea53 0bbd

fc4.weight f4 [1, 64]
-0.00035706628 0.001792091 -0.0019092775 -0.00039194874 0.002631024 0.0003200001 0.0028364747 2.3524743e-05
0.002388625 -0.00021873368 -0.0014277399 -0.0020652823 -0.000674258 -0.0006324977 -0.0025370582 0.0015303125
-0.0023913747 -0.00208931 -0.002078431 -0.0011224677 -0.0012063818 0.0014387215 -0.001578142 0.0019933335
-0.001235344 -0.0002840464 0.001324988 -0.0027257062 -0.0020749962 0.00079808454 -0.0008864447 -0.00222834
-0.0024214033 -0.00095702335 0.0024897377 -0.0005219958 0.0028968723 0.000119958306 0.0025823396 0.00022998871
0.0021101064 -0.000777144 -0.0015335606 0.002117449 0.00023663556 0.0017575822 -0.00096328044 0.00084329187
0.0016905828 -0.0017126251 -0.0010165765 0.0013254471 -0.0023285295 0.0005583011 -0.0011657041 0.00077165617
-0.0025709188 -0.0014429247 0.0007315038 0.001962596 -0.0016126768 0.0014845887 0.0013985401 0.002260835
00000000: a034 bbb9 98e4 ea3a b940 faba 787e cdb9
00000010: 426d 2c3b b0c5 a739 26e4 393b 0057 c537
00000020: 7a8a 1c3b e05b 65b9 0023 bbba b059 07bb
00000030: b0c0 30ba 34ce 25ba c644 26bb c494 c83a
00000040: 9cb8 1cbb ceec 08bb 4936 08bb c41f 93ba
00000050: 751f 9eba 7c93 bc3a a9d9 ceba 96a2 023b
00000060: 44eb a1ba 10ec 94b9 38ab ad3a c3a1 32bb
00000070: a9fc 07bb 8c36 513a 4c60 68ba 5709 12bb
00000080: 68b0 1ebb c0e0 7aba de2a 233b 8cd6 08ba
00000090: 74d9 3d3b 2092 fb38 783c 293b 2029 7139
000000a0: b649 0a3b 40b9 4bba c101 c9ba e6c4 0a3b
000000b0: 6021 7839 ac5e e63a a884 7cba 5c10 5d3a
000000c0: 8c96 dd3a 2a7a e0ba a63e 85ba a0ba ad3a
000000d0: 3e9a 18bb f45a 123a 8aca 98ba f848 4a3a
000000e0: dc7c 28bb 8520 bdba 64c2 3f3a e69e 003b
000000f0: 7460 d3ba 8896 c23a 384f b73a 842a 143b
