Actor-Critic/PyTorch-ActorCriticRL/Models/0_critic.pt (torch_old, 270303 bytes, 9 tensors)

fcs1.weight f4 [256, 3]
-0.015668072 -0.022680707 -0.0038202405 -0.03825189 0.017837211 -0.00646729 0.04476963 0.04786498
-0.050983973 -0.019426882 0.04332401 0.021734864 0.049663477 0.05729869 -0.005497344 -0.01837223
0.0007571131 0.008617513 0.025386333 0.0008186996 -0.0065316185 -0.011221223 0.054928258 0.010092817
0.035328276 0.030940473 0.034776315 0.046635717 -0.045918465 -0.04000759 -0.061309054 0.023122482
-0.024686389 -0.050743885 -0.02731315 0.031485334 -0.056963086 -0.0155056715 0.047245897 -0.04669687
-0.031274535 0.031001188 0.05493906 -0.044316657 0.049875878 -0.029317014 0.017517336 -0.033282794
-0.052871853 -0.007334538 -0.030708112 0.013203695 0.03627917 0.005073987 -0.059181243 0.04690244
0.010423891 -0.03395012 0.046170764 -0.020805158 0.038426816 -0.0013412088 0.057010345 -0.042395167
-0.03565076 0.054164566 0.022761919 -0.06111276 -0.037912995 -0.05468458 -0.017165944 0.05523941
-0.031140938 -0.02296631 -0.035633422 0.047239706 -0.046735264 0.05605524 -0.005253613 -0.024008505
0.058979757 0.03225465 -0.055537663 -0.059568368 0.056072004 0.029252224 -0.042105384 -0.048869096
0.05382032 -0.024013229 0.05796524 -0.055252835 -0.0052192956 0.04765612 0.041262962 -0.015947595
-0.03910593 0.017578967 0.046347268 -0.034878626 0.0064850748 0.0036327317 -0.06031937 -0.051299512
0.027237803 0.056462035 -0.04186648 -0.051483355 0.0037510619 0.04056564 -0.03584496 0.05591885
0.056229018 -0.039942898 -0.016434751 -0.045139946 0.0011919066 -0.00021851063 0.05633206 0.042245924
-0.027419128 -0.031297088 -0.03574039 0.028802149 -0.046495527 0.00880117 0.010819547 0.034293473
0.035896942 5.4694712e-05 -0.05905717 0.022213444 0.004079841 -0.035070293 0.01215636 -0.05651071
-0.06228012 0.02789215 -0.02836223 0.049420908 0.04980451 0.055862017 0.01580616 -0.038152866
-0.008930273 0.049468145 0.008771442 0.048505366 0.009782374 -0.019915886 -0.060105167 -0.026788108
0.005062133 -0.05463939 -0.021152481 0.015136883 0.0068360493 -0.035487607 0.036017068 0.026953638
-0.027614355 -0.042634897 0.016398437 0.044543542 0.056870952 0.00916481 0.058072597 0.015683204
0.025123604 0.026550159 -0.030338034 -0.04103183 0.05901245 -0.0046341494 0.050298713 0.027871877
-0.0139896795 -0.033348076 -0.054766566 0.011071704 8.054078e-06 0.018005192 -0.042762063 -0.059257492
0.05770915 -0.018099964 -0.060082987 0.0020065308 -0.012819111 0.0076981112 0.02618593 0.010670073
0.02270151 -0.052370235 0.020708017 -0.05563432 0.019554839 -0.04664591 0.052248202 -0.027763799
-0.03315033 0.0348584 -0.006532073 -0.033235706 -0.04839854 0.032153033 0.043668866 0.020276457
0.011977434 -0.060805745 0.007427819 0.0014223233 0.0021884665 -0.05860196 -0.0118360445 -0.045521885
-0.0622262 0.017689258 0.012847543 -0.022066168 -0.028837152 0.0397344 0.004273638 -0.057002813
0.049232185 -0.04762052 0.023846865 -0.014416598 0.04569125 0.03655289 0.036252998 0.04556512
0.0044088885 -0.0077566355 0.008002013 0.01374682 -0.0273555 -0.060248062 -0.048725843 -0.043603152
-0.031514272 -0.0024877116 0.058985054 -0.056416415 0.041472584 0.018046513 0.020820111 0.05356057
-0.043777168 0.034955353 -0.02767773 -0.046489358 0.030539326 0.018690392 0.030469164 0.0040338933
00000000: 545a 80bc e4cc b9bc 005d 7abb 04ae 1cbd
00000010: 581f 923c 90eb d3bb 5c60 373d 120e 443d
00000020: 92d4 50bd 2025 9fbc 8474 313d 500d b23c
00000030: ee6b 4b3d 08b2 6a3d 1023 b4bb 5c81 96bc
00000040: 0079 463a 7830 0d3c 00f7 cf3c 009e 563a
00000050: 3007 d6bb 38d9 37bc 74fc 603d 585c 253c
00000060: 62b4 103d e076 fd3c 9c71 0e3d 1805 3f3d
00000070: 0015 3cbd 00df 23bd 341f 7bbd 5c6b bd3c
00000080: 1c3b cabc d2d8 4fbd d4bf dfbc c4f6 003d
00000090: 2052 69bd 800b 7ebc ea84 413d 3845 3fbd
000000a0: ba19 00bd 34f6 fd3c c807 613d 6285 35bd
000000b0: a64a 4c3d 3c2a f0bc 8480 8f3c 8a53 08bd
000000c0: 2890 58bd 9056 f0bb 948f fbbc 5054 583c
000000d0: 7899 143d b043 a63b 0868 72bd c61c 403d
000000e0: f8c8 2a3c 480f 0bbd 8e1d 3d3d 946f aabc
000000f0: 7065 1d3d 80cb afba ae83 693d 8ea6 2dbd
00000100: 8806 12bd aadb 5d3d 3477 ba3c 6051 7abd
00000110: a84a 1bbd f0fc 5fbd 989f 8cbc b842 623d
00000120: 481b ffbc d823 bcbc 5af4 11bd 6c7e 413d
00000130: 7a6d 3fbd 2e9a 653d 8026 acbb 7cad c4bc
00000140: c294 713d 741d 043d 767b 63bd f6fd 73bd
00000150: c2ab 653d 5ca2 ef3c b276 2cbd f62a 48bd
00000160: b272 5c3d 64b7 c4bc f66c 6d3d cc50 62bd
00000170: a006 abbb 1033 433d 5a03 293d 88a4 82bc
00000180: 8a2d 20bd c401 903c a2d6 3d3d e4dc 0ebd
00000190: c080 d43b 2013 6e3b 7211 77bd 701f 52bd
000001a0: d021 df3c bc44 673d 307c 2bbd 36e0 52bd
000001b0: 60d4 753b 2828 263d 2ad2 12bd 2a0b 653d
000001c0: 6650 663d 2a9b 23bd 2ca2 86bc aae4 38bd
000001d0: c039 9c3a 0020 65b9 72bc 663d 100a 2d3d
000001e0: 149e e0bc 6031 00bd 8464 12bd 7cf2 eb3c
000001f0: 1872 3ebd c832 103c 7844 313c 5077 0c3d
00000200: ac08 133d 0068 6538 eee5 71bd f8f8 b53c
00000210: 30b0 853b dea5 0fbd 782b 473c c677 67bd
00000220: 7019 7fbd 147e e43c e857 e8bc 946d 4a3d
00000230: d0ff 4b3d 92cf 643d ec7b 813c 2e46 1cbd
00000240: 4850 12bc 1c9f 4a3d 18b6 0f3c 90ad 463d
00000250: 4046 203c a426 a3bc d630 76bd bc72 dbbc
00000260: 40e0 a53b 8ecd 5fbd f847 adbc b000 783c
00000270: f000 e03b 745b 11bd a286 133d e0cd dc3c
00000280: 8037 e2bc eea1 2ebd 0456 863c 4a73 363d
00000290: 84f1 683d 0028 163c 88dd 6d3d 107a 803c
000002a0: 04d0 cd3c b87f d93c 7887 f8bc fe10 28bd
000002b0: 0ab7 713d 10da 97bb 0606 4e3d 9053 e43c
000002c0: f834 65bc fe97 08bd e852 60bd 1866 353c
000002d0: 0020 0737 a07f 933c 4627 2fbd fcb7 72bd
000002e0: 6e60 6c3d 6046 94bc 9419 76bd 0080 033b
000002f0: 4007 52bc 7040 fc3b e083 d63c 88d1 2e3c
00000300: 84f8 b93c 2c82 56bd dca3 a93c d0e0 63bd
00000310: 7831 a03c c80f 3fbd 3602 563d e870 e3bc
00000320: a4c8 07bd aec7 0e3d 000b d6bb 2a22 08bd
00000330: 8c3d 46bd e6b2 033d 20de 323d d01a a63c
00000340: 003d 443c 720f 79bd 1065 f33b 406d ba3a
00000350: 606c 0f3b 9c08 70bd f8eb 41bc 2875 3abd
00000360: e6e0 7ebd 10e9 903c 807e 523c 1cc4 b4bc
00000370: e43b ecbc 8ac0 223d e009 8c3b c87b 69bd
00000380: b0a7 493d bc0d 43bd 805a c33c 9833 6cbc
00000390: c026 3b3d 7cb8 153d 067e 143d 7ea2 3a3d
000003a0: 7078 903b 602b febb e01a 033c 583a 613c
000003b0: a418 e0bc acc6 76bd c094 47bd 3899 32bd
000003c0: 1c15 01bd e008 23bb 509a 713d e614 67bd
000003d0: 28df 293d 48d6 933c f08e aa3c 5462 5b3d
000003e0: b04f 33bd 582d 0f3d 68bc e2bc a06b 3ebd
000003f0: 9c2d fa3c 981c 993c 789a f93c c02e 843b

fcs1.bias f4 [256]
-0.39292872 -0.18215883 -0.21178252 -0.27648228 -0.54225916 -0.17796516 0.40751213 0.15504009
0.51576614 -0.20276624 0.19050401 -0.3362381 0.14178264 -0.18591037 -0.36832058 -0.33850867
0.31044352 0.3122912 0.09880221 0.26005697 -0.17886913 0.5028728 -0.32141963 -0.058880985
0.12981534 -0.091780275 -0.10946664 0.333458 0.31515622 0.18343002 -0.3088086 0.1898666
0.07952535 0.027624428 -0.2429277 -0.36137146 -0.13548207 -0.23820746 0.41855067 0.57370996
-0.23218948 0.18369114 0.19682348 0.57465875 0.43800807 -0.48301396 -0.4916766 0.5311544
-0.09340015 0.27499372 -0.09751627 -0.5015545 0.5496805 0.3492313 0.4784993 -0.18417695
-0.44432068 0.2281034 0.5032573 0.12153906 0.16853648 -0.23145229 0.48090255 0.49955666
-0.02973938 0.23635292 0.5623138 -0.4999272 -0.2482126 0.50967157 0.1344536 0.019175053
0.06000936 -0.51034194 0.5342988 -0.14065567 0.48376822 0.24729055 0.051671565 -0.45936978
0.14504677 -0.04325229 -0.17585835 0.23313087 -0.29278338 -0.52890885 -0.4018681 0.029310584
0.15947372 -0.21892709 0.039925516 0.42570794 -0.3702935 0.55704737 -0.4948763 -0.15683463
-0.39937174 0.3636427 -0.38330865 0.55314803 -0.30017525 0.042489767 0.36090803 0.10934979
0.48142207 0.10270536 0.349562 -0.104439884 0.50832176 -0.46374956 0.38401932 0.48403788
-0.10462716 -0.4451776 -0.14291039 0.2995447 -0.26012033 -0.14359212 0.40060532 -0.45717204
0.3900864 0.16487652 0.32540554 0.10169268 0.56930923 -0.38918108 -0.5408635 0.28192014
0.5426692 0.045983016 0.4788338 -0.49406093 -0.42322713 -0.1643349 0.2631294 0.051711917
-0.55324507 -0.3459875 -0.52925247 0.33277225 0.54500127 0.43211663 -0.20319149 -0.48199153
0.40570176 -0.17954594 0.16370863 0.24063879 0.08970004 0.5342121 0.20593834 0.2110321
-0.45299536 0.5016315 0.12857288 0.39272648 0.43560803 -0.4790426 0.061210155 0.16680914
0.04349959 0.5169314 0.1601708 0.27642024 -0.101706564 0.0044177175 -0.2468147 -0.43921775
0.44361603 0.37876534 0.251805 0.05171162 -0.38801718 -0.55827564 -0.33396128 0.4531144
0.22693336 -0.57371646 -0.5476332 0.16373605 0.13842571 -0.08591935 -0.4534554 0.13099867
0.2995751 -0.14549762 -0.46390522 0.21820748 -0.2322259 -0.43307644 0.18463522 0.17607868
0.25409406 -0.519198 -0.1910811 0.20104778 -0.50488216 0.06020111 -0.19879815 -0.48327294
0.24741793 -0.35083544 -0.1727356 -0.14392033 -0.2129378 0.2372145 0.24596858 -0.2132037
0.3243206 -0.30663928 0.33982307 0.29479247 -0.39840454 0.34675527 -0.4822301 0.43591893
0.19728309 0.16840643 0.4787141 0.19333082 -0.5608993 -0.16909808 0.011167705 0.31165755
0.16001314 0.11543703 0.44813013 0.20606798 0.03172165 -0.50343835 0.46881175 0.38802415
0.44660103 0.54578555 -0.48583978 0.3236856 0.26853567 0.30487877 0.2712118 -0.49007958
-0.091531456 -0.5062152 0.027535021 0.46451628 -0.42362496 -0.4507327 -0.06555593 0.27034974
-0.012731075 -0.21796325 -0.5694539 -0.32749665 0.1066488 -0.20983729 0.47851276 0.41612703
00000000: f42d c9be d887 3abe 84dd 58be 168f 8dbe
00000010: 7fd1 0abf 803c 36be 6ea5 d03e d4c2 1e3e
00000020: 4009 043f f4a1 4fbe 7c13 433e 6627 acbe
00000030: 782f 113e 4a5f 3ebe 8494 bcbe 0251 adbe
00000040: 74f2 9e3e a2e4 9f3e d058 ca3d 3026 853e
00000050: 7829 37be 46bc 003f 1d91 a4be 302d 71bd
00000060: 50ee 043e 4cf7 bbbd 0c30 e0bd 02bb aa3e
00000070: 285c a13e 14d5 3b3e 291c 9ebe 646c 423e
00000080: 30de a23d a04c e23c 0ac2 78be ae05 b9be
00000090: d0bb 0abe a8ec 73be 464c d63e a8de 123f
000000a0: 14c3 6dbe 8819 3c3e 188c 493e d61c 133f
000000b0: 9842 e03e 9b4d f7be 09bd fbbe bcf9 073f
000000c0: 9448 bfbd facb 8c3e 9cb6 c7bd e065 00bf
000000d0: dcb7 0c3f 72ce b23e dcfd f43e e298 3cbe
000000e0: 007e e3be f093 693e 78d5 003f 78e9 f83d
000000f0: d494 2c3e d401 6dbe dc38 f63e e4c5 ff3e
00000100: 00a0 f3bc 8006 723e ccf3 0f3f 75f6 ffbe
00000110: 722b 7ebe d679 023f 34ae 093e 0015 9d3c
00000120: 60cc 753d c5a5 02bf cec7 083f 0a08 10be
00000130: 78b0 f73e bc39 7d3e 90a5 533d 8432 ebbe
00000140: 2487 143e 5029 31bd 3614 34be dcb9 6e3e
00000150: b4e7 95be 9266 07bf a8c1 cdbe c01c f03c
00000160: 144d 233e 6c2e 60be f088 233d 64f6 d93e
00000170: 1c97 bdbe a89a 0e3f 6d60 fdbe 4299 20be
00000180: 747a ccbe 602f ba3e 0841 c4be 1c9b 0d3f
00000190: 92b0 99be c009 2e3d f0c8 b83e c8f2 df3d
000001a0: f47c f63e 3057 d23d caf9 b23e 94e4 d5bd
000001b0: 6021 023f 9570 edbe 2e9e c43e d0d3 f73e
000001c0: c446 d6bd 52ee e3be 1a57 12be ec5d 993e
000001d0: 7e2e 85be d009 13be 241c cd3e 7412 eabe
000001e0: 68b9 c73e 64d5 283e 8e9b a63e 4044 d03d
000001f0: 40be 113f be42 c7be 0876 0abf d657 903e
00000200: 5eec 0a3f b058 3c3d b429 f53e 8ef5 fcbe
00000210: 3ab1 d8be 6847 28be e6b8 863e e0cf 533d
00000220: 78a1 0dbf 4625 b1be 177d 07bf 2061 aa3e
00000230: 3485 0b3f 643e dd3e 6e11 50be 98c7 f6be
00000240: 24b8 cf3e e4da 37be 3ca3 273e 046a 763e
00000250: a8b4 b73d 20c2 083f 80e1 523e cc18 583e
00000260: 02ef e7be ec6a 003f 9ca8 033e 7213 c93e
00000270: 0408 df3e 1245 f5be 80b7 7a3d 04d0 2a3e
00000280: a02c 323d 9e55 043f d003 243e f486 8d3e
00000290: 884b d0bd 80c2 903b febc 7cbe 26e1 e0be
000002a0: a421 e33e 88ed c13e 96ec 803e 90cf 533d
000002b0: 30aa c6be 27eb 0ebf f9fc aabe 9cfe e73e
000002c0: 3861 683e 15df 12bf b031 0cbf 6caa 273e
000002d0: 78bf 0d3e 7cf6 afbd 4e2b e8be 8424 063e
000002e0: e861 993e 54fd 14be fc84 edbe c871 5f3e
000002f0: a0cc 6dbe 32bc ddbe 0411 3d3e f84d 343e
00000300: 9e18 823e 29ea 04bf c4aa 43be 78df 4d3e
00000310: f53f 01bf 7095 763d be91 4bbe 8d6f f7be
00000320: 205b 7d3e b4a0 b3be 9ae1 30be da5f 13be
00000330: 5e0c 5abe 5ce8 723e 30df 7b3e 1252 5abe
00000340: 5a0d a63e d3ff 9cbe 4afd ad3e 0aef 963e
00000350: aefb cbbe e889 b13e dde6 f6be c430 df3e
00000360: 9404 4a3e bc72 2c3e 041a f53e 84f8 453e
00000370: 1997 0fbf 0c28 2dbe c0f8 363c 9491 9f3e
00000380: 7cda 233e 406a ec3d 5071 e53e 7c03 533e
00000390: 90ee 013d 56e1 00bf 1808 f03e 1aab c63e
000003a0: e4a8 e43e 9ab8 0b3f febf f8be 1eba a53e
000003b0: 827d 893e 1219 9c3e 46dc 8a3e b6eb fabe
000003c0: d874 bbbd 5297 01bf 2091 e13c 14d5 ed3e
000003d0: 5fe5 d8be 70c6 e6be 3042 86bd 486b 8a3e
000003e0: 0096 50bc c231 5fbe bbc7 11bf a4ad a7be
000003f0: b06a da3d 96df 56be a0ff f43e 9a0e d53e

fcs2.weight f4 [128, 256]
-0.047287278 -0.053514726 -0.08090902 -0.050169248 -0.06846352 -0.038295195 -0.07285713 0.038032077
-0.042193167 -0.023590721 0.07214432 0.019410796 0.02606865 0.06038981 -0.07654994 -0.06416861
-0.05923985 -0.042127017 0.021678947 0.026233546 0.058119573 0.0859435 0.07209762 -0.07533352
0.05592636 0.0046617165 0.047186203 -0.0048380867 -0.046001956 -0.0024284571 0.03863103 -0.03180814
0.033333614 0.045131408 -0.019474372 0.08355675 0.056620814 -0.036384962 0.016140155 0.017553233
0.084544666 -0.04290288 0.016906783 0.075745545 -0.050985802 0.06993706 0.03290288 0.0809736
0.0074101985 0.0584803 0.030890018 -0.030826319 0.0044029877 0.0050746053 0.029610038 -0.072360754
0.018298432 0.035432793 0.06607733 0.030853115 -0.020744212 0.035657562 0.028975092 -0.082887895
0.025014713 0.007880837 0.030329704 -0.0008523762 -0.045709353 0.043939807 -0.02398751 -0.023737207
-0.02025704 0.021468908 -0.0055422783 0.057359405 0.07261679 0.051079206 0.00016456097 -0.059220545
0.043724515 0.014729135 0.07060348 -0.0822848 0.031588748 -0.05010742 -0.081761196 -0.0052855834
0.0015951917 -0.041954014 0.035841584 -0.036548883 0.0011319146 -0.04172581 -0.059036963 0.051729105
-0.05354544 -0.08338835 -0.072988026 -0.0066441 0.043177567 -0.017183341 -0.0013488457 -0.016714498
-0.07486198 0.064787276 -0.03965028 0.08669651 -0.06357566 0.07838174 0.07302774 -0.025555275
0.08746623 0.06612294 -0.03345348 0.024680987 0.08773535 -0.035166908 -0.07239503 -0.047231127
0.020007722 -0.024592042 -0.087955244 -0.027334202 0.06951188 -0.015653074 -0.046031777 -0.0035770014
0.024958849 0.015437365 0.021242857 0.0044141337 0.04404346 0.0068978593 -0.037706405 -0.063555464
-0.00791382 0.027391933 -0.06457176 -0.060818892 -0.036719944 -0.05552161 0.08497115 -0.049397938
0.081740804 0.05364638 -0.048109435 -0.06533644 0.060886614 -0.08671044 0.011125997 -0.027106304
0.06252087 0.010414347 -0.054613665 -0.04372374 0.08027261 0.008630723 0.02538006 0.05296866
-0.01941482 0.044820018 -0.061799914 0.033934005 0.044136457 0.065187536 -0.030834708 0.008509904
-0.07428439 0.06567452 0.04657366 -0.085449435 -0.008157931 0.009913489 -0.05832793 0.04617966
-0.04710293 0.07278382 0.016876623 0.016723163 -0.051984143 -0.021743126 -0.03694065 -0.012116231
-0.0558333 -0.029180244 -0.08331571 0.0051057637 -0.04929156 -0.07725182 0.08558931 0.06870637
0.032599427 -0.0095902085 0.035744764 0.07401437 0.059456654 0.07799613 -0.06352435 0.052075006
-0.07108543 -0.028967023 0.07821857 -0.073343374 0.085131444 -0.02812535 0.024899147 0.055320762
0.083328895 0.06776672 0.06872053 0.021003231 0.0474715 0.007984079 -0.024060287 0.05038371
0.07552893 0.061510243 0.075982116 0.049360372 -0.0045876727 0.020565003 0.076783754 0.081797875
-0.026653476 0.025373712 0.0765188 0.043105535 -0.05267946 -0.03226218 -0.061874278 0.039934732
0.0637851 -0.025958076 -0.019121699 -0.008163929 -0.07385574 0.071083836 0.05907724 0.067860804
-0.019689754 0.0040240437 0.07800981 0.061125733 0.037709825 0.00034466386 0.07759478 -0.08410927
0.0037996098 -0.05975953 -0.00915169 -0.004896134 0.030638538 -0.06183519 0.05403333 -0.078031294
00000000: 4eb0 41bd 4232 5bbd a1b3 a5bd 457e 4dbd
00000010: 9a36 8cbd 6cdb 1cbd 1e36 95bd 86c7 1b3d
00000020: bed2 2cbd 5441 c1bc 67c0 933d 6403 9f3c
00000030: ec8d d53c 4e5b 773d 37c6 9cbd d56a 83bd
00000040: 7ca5 72bd 618d 2cbd 0c98 b13c bce7 d63c
00000050: ca0e 6e3d 2503 b03d eba7 933d 7648 9abd
00000060: 0a13 653d 50c1 983b 5246 413d d088 9ebb
00000070: 8c6c 3cbd c026 1fbb 923b 1e3d 4149 02bd
00000080: d488 083d b6db 383d b888 9fbc cd1f ab3d
00000090: 3aeb 673d 6608 15bd 5c38 843c cccb 8f3c
000000a0: c125 ad3d eeba 2fbd 1880 8a3c 7b20 9b3d
000000b0: 7dd6 50bd 293b 8f3d 2cc5 063d 7dd5 a53d
000000c0: 40d1 f23b 0a89 6f3d 100d fd3c 7a87 fcbc
000000d0: f046 903b e048 a63b c090 f23c e031 94bd
000000e0: 98e6 953c fa21 113d 8d53 873d acbf fc3c
000000f0: c4ef a9bc aa0d 123d 2c5d ed3c 21c1 a9bd
00000100: a8eb cc3c a01e 013c 0076 f83c 0072 5fba
00000110: bb39 3bbd 3afa 333d 7481 c4bc 8874 c2bc
00000120: 18f2 a5bc 90df af3c 009c b5bb b2f1 6a3d
00000130: 1db8 943d 6e38 513d 008e 2c39 3e91 72bd
00000140: 7a18 333d 7852 713c 8f98 903d ef84 a8bd
00000150: 3463 013d 703d 4dbd 6a72 a7bd b032 adbb
00000160: c015 d13a f9d7 2bbd a0ce 123d 48b4 15bd
00000170: c05c 943a afe8 2abd bed0 71bd e6e1 533d
00000180: 7752 5bbd 83c7 aabd bf7a 95bd c0b6 d9bb
00000190: f6da 303d 14c4 8cbc c0cb b0ba d8ec 88bc
000001a0: 3d51 99bd 31af 843d 5568 22bd f18d b13d
000001b0: f533 82bd 9b86 a03d 918f 953d 4c59 d1bc
000001c0: 7f21 b33d 776b 873d 8406 09bd c82f ca3c
000001d0: 97ae b33d 2d0b 10bd d843 94bd 6d75 41bd
000001e0: 3ce7 a33c 4075 c9bc e121 b4bd faeb dfbc
000001f0: 3f5c 8e3d e03a 80bc d18b 3cbd 206c 6abb
00000200: 8076 cc3c 00ed 7c3c 8005 ae3c 70a4 903b
00000210: ea66 343d 7007 e23b 0872 1abd 5e29 82bd
00000220: f8a8 01bc 0c65 e03c 333e 84bd 3b1d 79bd
00000230: a767 16bd a16a 63bd 5b05 ae3d 7e55 4abd
00000240: b967 a73d 4ebc 5b3d 660e 45bd 1dcf 85bd
00000250: 3e64 793d 3e95 b1bd d049 363c 0a0e debc
00000260: f10a 803d f0a0 2a3c 94b2 5fbd aa17 33bd
00000270: f765 a43d e067 0d3c d8e9 cf3c aaf5 583d
00000280: d40b 9fbc 3295 373d e821 7dbd 62fe 0a3d
00000290: 6ec8 343d 0b81 853d 1299 fcbc 206d 0b3c
000002a0: 6a22 98bd 5d80 863d 06c4 3e3d 1d00 afbd
000002b0: d8a8 05bc 306c 223c 44e9 6ebd e226 3d3d
000002c0: 00ef 40bd af0f 953d d840 8a3c 04ff 883c
000002d0: 53ed 54bd a41e b2bc 144f 17bd 2883 46bc
000002e0: 75b1 64bd 680b efbc 6da1 aabd 404e a73b
000002f0: f2e5 49bd 3436 9ebd 7349 af3d edb5 8c3d
00000300: fa86 053d 4020 1dbc 1a69 123d d994 973d
00000310: d288 733d 6fbc 9f3d 0e19 82bd 9a4c 553d
00000320: 3d95 91bd 404c edbc 0f31 a03d 0d35 96bd
00000330: 6559 ae3d 2267 e6bc 4cf9 cb3c 0698 623d
00000340: 57a8 aa3d 47c9 8a3d 59bd 8c3d f80e ac3c
00000350: 7a71 423d a8cf 023c 141a c5bc 265f 4e3d
00000360: e9ae 9a3d 2af2 7b3d 839c 9b3d 1a2e 4a3d
00000370: 3054 96bb f077 a83c cd40 9d3d a585 a73d
00000380: 6458 dabc 88dc cf3c e3b5 9c3d 6e8f 303d
00000390: 6bc6 57bd 5925 04bd e26f 7dbd 9a92 233d
000003a0: c3a1 823d 08a6 d4bc 1ca5 9cbc 00c2 05bc
000003b0: ae41 97bd 6794 913d fafa 713d 9bfa 8a3d
000003c0: 684c a1bc 20dc 833b 9bc3 9f3d fa5e 7a3d
000003d0: 9e75 1a3d 00b4 b439 03ea 9e3d 7b41 acbd
000003e0: e002 793b 69c6 74bd f8f0 15bc c06f a0bb
000003f0: acfd fa3c e546 7dbd 0e52 5d3d dfce 9fbd

fcs2.bias f4 [128]
0.0010944158 0.028617933 0.052718036 -0.043764323 0.041139066 0.028724656 0.058091268 0.03672585
-0.03531786 0.025317766 0.047612004 0.026109383 0.03098303 -0.026277132 0.05583153 0.00543049
0.043808162 0.01091034 -0.0015126243 -0.0409633 -0.05349046 0.060888663 0.02762691 0.029315256
-0.060631678 -0.04577356 -0.035405323 -0.027978249 0.04691264 -0.055848368 0.020993136 -0.0201746
0.04648123 0.02917032 -0.050767064 0.0068057105 0.060125448 0.010899529 0.044931248 0.04007739
0.056478396 0.015990458 -0.013425872 -0.05552704 0.017300978 -0.0044634193 0.016008198 0.04463265
0.025845677 0.0078088865 -0.010014623 -0.031687565 0.044520207 -0.049067035 0.023388974 -0.005786173
-0.028464593 0.05011431 -0.0064254627 0.051047213 -0.0012416393 -0.054248743 0.05766155 -0.018386602
0.037577756 0.01597032 -0.012487285 0.040067956 -0.057677895 -0.059665896 0.048674867 -0.029448226
0.03021063 0.016509533 -0.057454646 -0.032213487 -0.05879488 -0.034238845 0.026759945 0.029072247
-0.023763545 -0.034266144 0.025897905 -0.009745069 0.029723845 0.058966376 0.007053897 -0.041789502
-0.044093624 0.024348952 0.05428862 -0.04355944 0.009477332 -0.05275537 0.04734821 0.04407061
0.06120114 0.015530668 0.05691793 -0.033167288 -0.026514396 0.0136626735 0.053122602 0.060240842
0.0009791404 0.00656043 -0.05612184 0.010482781 -0.05628428 0.053456724 0.049096078 0.01691167
-0.055488132 -0.038781106 -0.010356665 0.0044118837 0.0466187 0.024678975 -0.056147784 0.01953742
-0.003653571 -0.0044377074 0.039896794 -0.014810085 -0.021056011 -0.0025897846 -0.058837883 0.013629653
00000000: 8072 8f3a 2870 ea3c deee 573d 3842 33bd
00000010: 7081 283d f84f eb3c 1cf1 6d3d d86d 163d
00000020: 76a9 10bd 3467 cf3c ce04 433d 58e3 d53c
00000030: 20d0 fd3c 2443 d7bc 9aaf 643d 40f2 b13b
00000040: 3070 333d 48c1 323c 4043 c6ba 22c9 27bd
00000050: d018 5bbd 6466 793d d451 e23c 8c26 f03c
00000060: ec58 78bd 0e7d 3bbd 2c05 11bd a432 e5bc
00000070: 7827 403d 42c1 64bd ccf9 ab3c 3445 a5bc
00000080: 1a63 3e3d 98f6 ee3c 20f1 4fbd 7002 df3b
00000090: 1a46 763d f093 323c d409 383d 3028 243d
000000a0: e455 673d 6cfe 823c 30f8 5bbc 5270 63bd
000000b0: c8ba 8d3c e041 92bb a023 833c bad0 363d
000000c0: 50ba d33c b0e1 ff3b 6014 24bc d2ca 01bd
000000d0: d25a 363d 84fa 48bd 3c9a bf3c f099 bdbb
000000e0: 942e e9bc aa44 4d3d b08c d2bb e216 513d
000000f0: 80be a2ba ee33 5ebd 842e 6c3d 809f 96bc
00000100: 22eb 193d 30d4 823c 7897 4cbc 4c1e 243d
00000110: a83f 6cbd 3a64 74bd 4c5f 473d 683d f1bc
00000120: 487c f73c 003f 873c 9055 6bbd 4af2 03bd
00000130: e6d2 70bd 083e 0cbd ac37 db3c ec28 ee3c
00000140: c4ab c2bc a85a 0cbd d827 d43c c8a9 1fbc
00000150: 6c7f f33c ba86 713d 6024 e73b 782b 2bbd
00000160: 849b 34bd 7477 c73c be5d 5e3d 626b 32bd
00000170: d046 1b3c 0416 58bd 32f0 413d 6283 343d
00000180: 0cae 7a3d 5874 7e3c c622 693d 6cda 07bd
00000190: b834 d9bc 68d9 5f3c 1697 593d 1abf 763d
000001a0: 8056 803a e0f8 d63b 04e0 65bd f8bf 2b3c
000001b0: 588a 66bd 70f5 5a3d f818 493d 588a 8a3c
000001c0: 8647 63bd f0d8 1ebd 00af 29bc 9091 903b
000001d0: 40f3 3e3d 902b ca3c 38fb 65bd f00c a03c
000001e0: c070 6fbb 306a 91bb d26a 233d 00a6 72bc
000001f0: a87d acbc 60b9 29bb feff 70bd e84e 5f3c

fca1.weight f4 [128, 1]
-0.035705157 -0.068701796 -0.06746116 -0.054491766 0.03371375 -0.076866366 0.01045876 -0.006452948
-0.06833503 0.08533511 -0.07068266 -0.084090516 0.005169742 0.04835532 -0.0073531047 -0.06747015
-0.025466971 -0.07190369 0.063376896 -0.03585033 -0.07937077 -0.074627124 -0.06539131 -0.06959279
-0.055753347 0.033201292 0.031599134 0.05363155 -0.056333825 0.07074381 -0.013311312 -0.08383618
0.076568596 -0.06844841 -0.06968008 0.048782475 0.0366249 0.0013989881 0.07723858 -0.051833298
-0.016223945 0.064713694 -0.06543334 0.01734665 0.008561574 0.011818536 -0.013061792 -0.031366084
0.029824488 -0.06676571 0.06895026 -0.0007360205 0.04365451 -0.038163286 -0.023702927 0.020023338
0.07863263 -0.009500429 -0.028832447 0.037404142 0.06790156 0.08233809 0.06561915 0.026796408
0.06618372 -0.025827259 -0.087635964 -0.028114803 0.02894716 0.0015652776 0.053534128 0.050305463
-0.0024065971 0.009125985 -0.05970274 0.033933513 0.05370284 0.013629034 -0.0010459498 -0.0005471483
0.048783995 -0.049863145 0.00023718178 -0.06284127 -0.07576218 0.049922504 0.008034103 -0.036929574
0.058232628 0.07602564 0.06691214 0.021255076 0.03041128 0.021598771 0.08583335 0.036356173
-0.019438729 0.0034517348 0.016599812 0.011683226 -0.0034863874 0.005170524 0.0024619251 0.018870145
0.085130505 0.05908469 -0.016291484 -0.02549018 -0.04845677 0.0013718978 -0.013615757 0.075537525
-0.057858456 0.0697721 -0.069778256 0.036764093 0.0030286089 -0.08203137 0.06289614 -0.0024380237
-0.008116268 0.044875674 0.007216856 -0.05606692 0.014677756 0.06711272 0.070173286 0.019830018
00000000: 923f 12bd 87b3 8cbd 1429 8abd c232 5fbd
00000010: 6e17 0a3d 1d6c 9dbd 385b 2b3c 4073 d3bb
00000020: 3cf3 8bbd 2dc4 ae3d 12c2 90bd a637 acbd
00000030: f066 a93b 3a10 463d 50f2 f0bb ca2d 8abd
00000040: 1ca0 d0bc 3e42 93bd bfcb 813d ccd7 12bd
00000050: 248d a2bd 1bd6 98bd e1eb 85bd aa86 8ebd
00000060: 9f5d 64bd 14fe 073d 186e 013d c2ac 5b3d
00000070: 4cbe 66bd 21e2 903d b017 5abc 4eb2 abbd
00000080: ffcf 9c3d ae2e 8cbd 6eb4 8ebd 22d0 473d
00000090: fe03 163d 405e b73a 432f 9e3d 274f 54bd
000000a0: 14e8 84bc 9d88 843d ea01 86bd 901a 8e3c
000000b0: d845 0c3c 88a2 413c 2001 56bc b979 00bd
000000c0: 7c52 f43c 76bc 88bd cb35 8d3d 80f1 40ba
000000d0: 12cf 323d 1b51 1cbd a42c c2bc fc07 a43c
000000e0: 250a a13d b0a7 1bbc 0632 ecbc 1635 193d
000000f0: f90f 8b3d dfa0 a83d 5563 863d 2484 db3c
00000100: 558b 873d b093 d3bc 7c7a b3bd 0451 e6bc
00000110: 9822 ed3c 002a cd3a 9a46 5b3d 1a0d 4e3d
00000120: 00b8 1dbb 2885 153c dc8a 74bd defd 0a3d
00000130: 82f7 5b3d 504c 5f3c 4018 89ba 806e 0fba
00000140: bad1 473d 4c3d 4cbd 00b4 7839 ecb2 80bd
00000150: 3429 9bbd 8a7b 4c3d 78a1 033c 7743 17bd
00000160: 5685 6e3d 55b3 9b3d 3b09 893d 201f ae3c
00000170: 1421 f93c e8ef b03c 65c9 af3d 36ea 143d
00000180: f83d 9fbc 8036 623b 54fc 873c 006b 3f3c
00000190: e07b 64bb 806d a93b 4058 213b 9095 9a3c
000001a0: e758 ae3d ca02 723d b875 85bc c8d0 d0bc
000001b0: 9b7a 46bd 40d1 b33a a014 5fbc 6bb3 9a3d
000001c0: fdfc 6cbd ade4 8e3d e7e7 8ebd f295 163d
000001d0: a07b 463b 1000 a8bd b1cf 803d 40c7 1fbb
000001e0: 18fa 04bc 8ecf 373d 607b ec3b 6da6 65bd
000001f0: f87a 703c 6572 893d 03b7 8f3d 9072 a23c

fca1.bias f4 [128]
0.9609585 -0.7575325 -0.81563115 0.6027694 -0.53146994 0.0068639517 -0.6682 0.06398296
0.46556664 -0.2101301 -0.76663125 0.7029004 -0.74020016 -0.33537507 -0.11178577 0.4374689
0.72723114 -0.349118 -0.09821272 0.45679498 0.31914008 -0.19173217 0.40049696 -0.6746547
0.27202702 0.79859245 0.17145777 0.24484396 -0.7385396 0.6548468 -0.9384961 0.4657191
-0.063806534 -0.36955118 0.61496437 0.5638648 -0.39650226 -0.826643 -0.74236035 0.08732331
-0.5237851 0.6163498 -0.7062541 0.7171283 0.80072737 0.7882587 -0.7552899 0.49212253
-0.790776 0.17447102 0.5675311 0.68022156 0.22795331 -0.069621086 0.6383071 -0.6253196
0.41455233 -0.62243617 -0.13813746 -0.6602001 0.8929727 -0.6487688 -0.52453923 0.24180257
0.8328575 -0.823393 -0.1467942 -0.26315188 0.8368664 0.77619565 0.2838732 0.079247475
-0.57323813 -0.1244477 0.81560516 -0.36774182 0.60971427 -0.9760004 -0.62911475 0.32743633
0.28621292 -0.6403172 -0.16244721 -0.6013646 0.8365185 0.41923654 -0.53513646 0.1632495
0.21836519 -0.31097293 0.009378672 -0.12622118 -0.89768875 0.13607633 0.95647264 -0.21407259
0.7751906 -0.22422123 0.052954316 0.59964275 0.0316422 -0.101715565 -0.067388415 0.4052515
0.29858768 0.40540385 0.63999176 0.19592237 -0.8995625 -0.31616652 -0.46850836 0.116634965
0.9760786 -0.8803644 -0.69713056 0.18418288 0.012781262 -0.19110417 -0.919049 0.42128706
-0.28373897 0.0005760193 -0.6570462 0.7735292 0.49521112 0.9557749 -0.4023062 -0.2829764
00000000: 6001 763f a6ed 41bf 34cd 50bf 184f 1a3f
00000010: 6a0e 08bf 00eb e03b 280f 2bbf 8009 833d
00000020: c05e ee3e 582c 57be f241 44bf 48f1 333f
00000030: c27d 3dbf 48b6 abbe f0ef e4bd ecfb df3e
00000040: d22b 3a3f 98bf b2be c023 c9bd 08e1 e93e
00000050: 5466 a33e 7055 44be f00d cd3e 2cb6 2cbf
00000060: 2047 8b3e 8e70 4c3f a092 2f3e 60b8 7a3e
00000070: ee10 3dbf 0aa4 273f 4841 70bf bc72 ee3e
00000080: 00ad 82bd d035 bdbe 4e6e 1d3f 7259 103f
00000090: 5802 cbbe e09e 53bf 540b 3ebf 90d6 b23d
000000a0: c816 06bf 1ac9 1d3f 12cd 34bf b895 373f
000000b0: 78fc 4c3f 52cb 493f ae5a 41bf 7cf7 fb3e
000000c0: 4c70 4abf 88a8 323e b849 113f 0023 2e3f
000000d0: 986c 693e 8095 8ebd 1868 233f f214 20bf
000000e0: 3440 d43e fa57 1fbf e873 0dbe e002 29bf
000000f0: dc99 643f b615 26bf 3448 06bf 189b 773e
00000100: 2636 553f e2c9 52bf 3851 16be d8bb 86be
00000110: e03c 563f c2b4 463f d457 913e 804c a23d
00000120: bcbf 12bf 70de febd 80cb 503f a848 bcbe
00000130: 3c16 1c3f 2adb 79bf aa0d 21bf bca5 a73e
00000140: 808a 923e d4eb 23bf 9058 26be 08f3 19bf
00000150: 1426 563f 2ca6 d63e b4fe 08bf e02a 273e
00000160: 209b 5f3e d837 9fbe 00a9 193c 2040 01be
00000170: eece 65bf 9857 0b3e 64db 743f d835 5bbe
00000180: e472 463f 409a 65be a0e6 583d 3082 193f
00000190: 409b 013d 4050 d0bd f002 8abd 207d cf3e
000001a0: 7ce0 983e 1891 cf3e 80d6 233f e09f 483e
000001b0: ba49 66bf 94e0 a1be 54e0 efbe 50de ee3d
000001c0: 4ae0 793f 905f 61bf 2677 32bf 709a 3c3e
000001d0: 8068 513c d0b0 43be cc46 6bbf f0b2 d73e
000001e0: 3c46 91be 0000 173a 2e34 28bf 0206 463f
000001f0: 508c fd3e aaad 743f 14fb cdbe 48e2 90be

fc2.weight f4 [128, 256]
-0.04642176 0.08369359 -0.019736052 0.04653237 -0.07069346 -0.014521413 0.045414515 -0.06986135
-0.087979995 0.07742267 0.025059387 -0.060881995 0.039912872 0.06694732 -0.06383012 -0.0023877546
0.0070270076 -0.0859519 -0.0046551004 0.052977823 -0.072296694 -0.0033439174 -0.024437904 0.050309695
-0.044177756 0.057038374 0.04617081 0.056144275 -0.046474244 0.06249044 0.028641693 -0.057098094
-0.026926387 -0.00021686405 -0.07971733 -0.022216752 0.03979797 0.030627385 0.051262103 0.06341498
0.043786325 -0.080833726 -0.024347559 -0.05444494 0.08340331 -0.050198097 -0.07510449 0.021210276
-0.075078264 0.035592265 -0.082129054 0.023808204 -0.06460692 -0.051397227 0.040860467 -0.06737069
-0.029878397 -0.03342122 0.013937533 -0.06399761 -0.047027715 -0.051860727 -0.076432675 -0.06262873
0.04596805 -0.01710318 0.035843626 -0.04495941 0.022098444 0.05400365 0.061537676 0.03677749
0.03281358 -0.07382858 0.0007046759 0.06676238 -0.009749353 0.0021267533 -0.06483428 0.04828932
0.076565765 -0.059200548 0.01970046 0.0027602613 0.080983914 -0.08131886 -0.07156887 0.00090617687
-0.050018426 0.042570896 -0.018377468 0.08313366 -0.014078088 -0.009799123 -0.018327303 -0.05447086
-0.014380738 0.08063681 -0.050616667 0.050336488 -0.029127464 -0.010563813 0.0131723955 0.030525975
0.03534142 0.024239399 0.05992251 0.032446437 -0.07995999 -0.025328383 0.063652955 -0.083124734
-0.015137598 0.06304378 0.061738648 -0.07392656 0.006231293 0.06322061 -0.06826152 0.0482625
0.05337944 0.031544134 0.02028098 0.009875052 -0.0040984824 0.06815904 -0.04010403 -0.037489284
0.06438739 0.009293571 -0.041301288 -0.030682232 -0.051725943 0.04016591 0.0416291 0.06144271
-0.08197597 -0.041383 0.075383864 -0.04508444 0.047047637 -0.031066243 0.027593382 0.021821655
0.06595241 0.04473824 -0.0749952 0.044108473 0.087781094 0.015855096 0.068846144 0.04404538
0.034163505 0.069797255 0.025574915 -0.03967092 -0.08552916 0.036202148 0.069146104 0.045600258
-0.04007489 0.085591994 -0.01017119 -0.0006774813 0.043652482 0.08172675 -0.058349203 -0.03978049
-0.06616624 0.02557458 0.060991682 0.058179446 -0.06814779 -0.05356659 -0.05120905 0.054006048
0.011888005 0.025639042 -0.009898253 -0.06323752 0.020020097 0.064864226 0.079549156 0.013767511
0.055210806 0.048610456 0.059788086 -0.018639967 0.011307672 0.047564797 -0.031254407 0.010590777
-0.009159215 0.029751346 0.060300805 0.028058462 0.015536532 -0.031159092 -0.041011255 0.014457919
-0.0051514953 -0.07565776 -0.07557264 -0.0096480325 -0.0756991 -0.04549354 -0.0808106 0.010077342
-0.083356574 -0.018083021 0.056940265 0.046780758 -0.05229775 -0.029289834 -0.040132135 0.055502005
0.021618277 0.029628381 0.0040908903 -0.06339832 0.07270161 0.065186985 0.017896406 0.08046081
-0.03369273 0.055062436 0.04903526 0.06723563 0.005683556 0.08606591 -0.0004371032 -0.058959827
0.047606356 0.028620347 0.037789367 0.07861408 -0.024676435 0.0579753 -0.0010814145 -0.04025536
-0.049554694 0.008025631 -0.0046656057 0.009470157 -0.06574091 -0.030784544 -0.0249383 0.013429746
0.010452397 0.07624411 -0.057596132 -0.041159462 -0.04234661 -0.07044447 0.06429442 0.07225282
00000000: be24 3ebd 8b67 ab3d 80ad a1bc ba98 3e3d
00000010: bcc7 90bd 38eb 6dbc 9204 3a3d 7813 8fbd
00000020: db2e b4bd c78f 9e3d 5849 cd3c 665f 79bd
00000030: ae7b 233d ad1b 893d 5eb9 82bd e07b 1cbb
00000040: d042 e63b 8d07 b0bd d089 98bb 46ff 583d
00000050: 4a10 94bd a025 5bbb 0032 c8bc 8a11 4e3d
00000060: bcf3 34bd 12a1 693d 9a1d 3d3d 8af7 653d
00000070: c75b 3ebd faf5 7f3d fca1 ea3c b1df 69bd
00000080: ba94 dcbc 0066 63b9 d742 a3bd e8ff b5bc
00000090: 3203 233d 48e6 fa3c 36f8 513d b7df 813d
000000a0: 4a59 333d 278c a5bd 8874 c7bc a801 5fbd
000000b0: 5bcf aa3d 859c 4dbd 62d0 99bd 2cc1 ad3c
000000c0: a2c2 99bd 32c9 113d 4733 a8bd 6c09 c33c
000000d0: a250 84bd e685 52bd 4e5d 273d a5f9 89bd
000000e0: 8ac3 f4bc b0e4 08bd 405a 643c 2e11 83bd
000000f0: 22a0 40bd ea6b 54bd bc88 9cbd 7e43 80bd
00000100: fe48 3c3d f81b 8cbc c4d0 123d 5c27 38bd
00000110: cc07 b53c ee32 5d3d ee0e 7c3d fea3 163d
00000120: 8867 063d 7033 97bd 00ba 383a b7ba 883d
00000130: c0bb 1fbc 0061 0b3b d6c7 84bd 06cb 453d
00000140: 83ce 9c3d 467c 72bd dc62 a13c 80e5 343b
00000150: e5da a53d 818a a6bd b392 92bd 808c 6d3a
00000160: 1fe0 4cbd d25e 2e3d 588c 96bc fb41 aa3d
00000170: c8a7 66bc 808c 20bc 2423 96bc d61c 5fbd
00000180: 309d 6bbc e924 a53d 6c53 4fbd a22d 4e3d
00000190: b89c eebc d813 2dbc 08d1 573c 9c11 fa3c
000001a0: 2ac2 103d b491 c63c 4e71 753d 8ee6 043d
000001b0: 10c2 a3bd 787d cfbc 7b5c 823d 4d3d aabd
000001c0: b003 78bc 191d 813d aae1 7c3d cf66 97bd
000001d0: e02f cc3b cf79 813d b2cc 8bbd e6ae 453d
000001e0: 66a4 5a3d 6c34 013d 4c24 a63c f8ca 213c
000001f0: 904c 86bb f796 8b3d 2044 24bd 5d8e 19bd
00000200: 89dd 833d 1044 183c 8a2b 29bd 4e59 fbbc
00000210: 95de 53bd 0285 243d 4683 2a3d 5aab 7b3d
00000220: 04e3 a7bd 3881 29bd db62 9a3d 76aa 38bd
00000230: 06b5 403d a27e febc 840b e23c 54c3 b23c
00000240: 0f12 873d 723f 373d 1597 99bd 16ab 343d
00000250: 93c6 b33d 8ce2 813c 35ff 8c3d ee68 343d
00000260: 08ef 0b3d ddf1 8e3d 7c82 d13c fa7d 22bd
00000270: ea29 afbd b448 143d 799c 8d3d 56c7 3a3d
00000280: 9125 24bd db4a af3d 10a5 26bc 0099 31ba
00000290: f2cc 323d 5b60 a73d 93ff 6ebd def0 22bd
000002a0: 2a82 87bd c881 d13c 6ad2 793d 924d 6e3d
000002b0: 1291 8bbd a468 5bbd 95c0 51bd 7235 5d3d
000002c0: e8c5 423c f808 d23c 482c 22bc ac82 81bd
000002d0: 3001 a43c 89d7 843d abea a23d 2091 613c
000002e0: ba24 623d c21b 473d 5ae4 743d d8b2 98bc
000002f0: d043 393c 4ed3 423d 9f04 00bd f084 2d3c
00000300: 8810 16bc 18b9 f33c fafd 763d dcda e53c
00000310: f08c 7e3c 5a41 ffbc 6bfb 27bd e8e0 6c3c
00000320: e0cd a8bb 75f2 9abd d4c5 9abd c812 1ebc
00000330: 2108 9bbd 6f57 3abd 0780 a5bd 701b 253c
00000340: dab6 aabd d822 94bc 323a 693d 2e9d 3f3d
00000350: 2a36 56bd 3cf1 efbc 9861 24bd 1256 633d
00000360: d018 b13c 38b7 f23c e00c 863b fad6 81bd
00000370: 95e4 943d c180 853d 7c9b 923c a3c8 a43d
00000380: 6301 0abd 2689 613d 32d9 483d d5b2 893d
00000390: 203d ba3b 5343 b03d 002b e5b9 dc7f 71bd
000003a0: e2fe 423d 3875 ea3c 06c9 1a3d 6b00 a13d
000003b0: 3c26 cabc 8277 6d3d 40be 8dba cee2 24bd
000003c0: ddf9 4abd f07d 033c f0e1 98bb b828 1b3c
000003d0: 2ca3 86bd de2f fcbc 684b ccbc 7008 5c3c
000003e0: 8840 2b3c df25 9c3d ece9 6bbd d396 28bd
000003f0: a473 2dbd 3145 90bd cbac 833d 49f9 933d

fc2.bias f4 [128]
0.0044907928 -0.017868131 -0.055107318 -0.052553497 -0.021634214 0.029585086 -0.036466405 -0.055201635
0.009179994 0.034449518 0.02496323 -0.0026432574 0.06048803 -0.05329618 -0.04990173 0.03025686
-0.021659411 -0.014103323 -0.022307657 0.04786879 -0.053660512 -0.013468377 0.04425744 0.012494944
-0.039968006 0.01964324 0.05483024 0.05235958 -0.049326174 -0.017876588 0.050974682 -0.048985407
-0.029583067 0.033850357 0.034944497 0.02845925 0.048796028 0.053687997 0.03986281 -0.028251477
0.02868259 0.036648594 7.286668e-06 -0.051301144 -0.046833977 0.033516496 0.020761438 0.023964964
-0.045273066 -0.017163038 -0.050501816 0.02625814 -0.0033872128 0.015468098 0.025067873 -0.010262489
-0.0009809211 0.010349035 -0.005966313 0.057203695 0.012157403 0.0010689422 0.046398386 0.018436477
0.024798691 0.027979821 -0.05438593 -0.05160617 0.044168644 -0.0334929 -0.008722432 0.027607292
-0.037657768 0.044136435 -0.0054767206 -0.044383347 -0.0074151233 -0.007835552 -0.038346782 -0.027012356
0.02489052 -0.04748509 0.013050683 -0.042591304 -0.036250748 0.013991788 -0.031594016 0.0570907
0.008246675 -0.0486264 -0.026437 -0.005806178 0.017815314 0.03933715 0.012623452 0.04606221
0.05929491 -0.007058434 -0.05872564 -0.013066992 0.008752853 -0.0007709339 0.0038965866 0.0053232834
-0.017674915 -0.017423593 -0.023542069 0.002725862 -0.016978294 -0.03774309 0.0132067725 0.053486936
-0.043915562 -0.024996229 0.0116147995 -0.0015811697 0.03236325 -0.057653904 -0.035129428 -0.032744803
0.040438406 -0.047715098 0.032457516 -0.061083674 -0.021836318 -0.04686509 0.019221164 0.061646506
00000000: 8027 933b 3060 92bc 36b8 61bd 5642 57bd
00000010: 3c3a b1bc 6c5c f23c cc5d 15bd 1c1b 62bd
00000020: b067 163c f01a 0d3d b07f cc3c 803a 2dbb
00000030: 4cc2 773d 184d 5abd c265 4cbd 3cdd f73c
00000040: 146f b1bc a011 67bc 8cbe b6bc 1012 443d
00000050: 20cb 5bbd 78aa 5cbc 4a47 353d 98b7 4c3c
00000060: 7eb5 23bd dcea a03c ac95 603d 0077 563d
00000070: 3e0a 4abd ec71 92bc d4ca 503d eca4 48bd
00000080: 3058 f2bc aca6 0a3d f621 0f3d 6023 e93c
00000090: 58de 473d f2e7 5b3d 3047 233d a46f e7bc
000000a0: c0f7 ea3c d61c 163d 0080 f436 2621 52bd
000000b0: fcd4 3fbd 9848 093d e413 aa3c 2c52 c43c
000000c0: 4070 39bd 8099 8cbc feda 4ebd 501b d73c
000000d0: 00fc 5dbb e86d 7d3c 245b cd3c 0024 28bc
000000e0: 4092 80ba 008f 293c 1081 c3bb 6c4e 6a3d
000000f0: d82f 473c c01b 8c3a 3c0c 3e3d 1808 973c
00000100: a026 cb3c f035 e53c c8c3 5ebd fe60 53bd
00000110: 2eea 343d da2f 09bd 88e8 0ebc b028 e23c
00000120: 083f 1abd 68c8 343d 1076 b3bb 50cb 35bd
00000130: 90fa f2bb b060 00bc 8411 1dbd 0449 ddbc
00000140: 34e7 cb3c ba7f 42bd 88d2 553c 3874 2ebd
00000150: aa7b 14bd d03d 653c ba68 01bd f0d7 693d
00000160: 101d 073c 7a2c 47bd 6892 d8bc c041 bebb
00000170: 6cf1 913c fe1f 213d 98d2 4e3c baab 3c3d
00000180: 38df 723d 704a e7bb 4c8a 70bd f016 56bc
00000190: 2068 0f3c 8018 4aba e05d 7f3b f06e ae3b
000001a0: fcca 90bc ecbb 8ebc 4cdb c0bc 60a4 323b
000001b0: 1016 8bbc 8098 1abd 3861 583c 1e15 5b3d
000001c0: cee0 33bd e4c4 ccbc 004c 3e3c 403f cfba
000001d0: 548f 043d 8026 6cbd e0e3 0fbd 6a1f 06bd
000001e0: bea2 253d e870 43bd 2cf2 043d e032 7abd
000001f0: 14e2 b2bc 9cf5 3fbd b475 9d3c 0c81 7c3d

fc3.weight f4 [1, 128]
-0.0024443762 -0.0023173052 -0.00025532744 0.00049777864 -0.0019098959 -0.00010053278 0.0012825923 -0.00030789152
-0.0016964088 6.277114e-06 0.0009078905 0.002325648 0.002834511 0.0022869688 -0.0007591706 0.0016207905
0.00053929863 -0.0006784287 0.00074384734 0.0015293048 -0.0029379544 -0.0015873924 -0.001041445 0.001592359
-0.002398596 0.002849564 -0.00033038855 -0.0023710816 0.001955171 -0.0012285168 -0.00046869484 -0.00065844296
0.0021239426 0.0009975438 -0.0002536194 -0.00059233536 -0.0009880238 0.0016371468 0.0021160487 0.00094479276
0.0018541547 -0.0020252073 -0.0027115752 0.0028583417 1.3878569e-05 -0.0020889451 -0.0006549994 -0.002613605
0.0015993761 0.00028390903 -0.001054631 -0.0013691962 0.0023243367 -6.218301e-05 -0.0007239077 -0.0027691564
0.0022163508 3.5333913e-05 -0.0012109923 -0.0019466425 0.0017106086 0.0013061264 -0.0015079608 -0.00013746717
0.00070534274 0.000942138 -0.00026959134 -0.0027781948 -0.0014738899 0.0028714258 -0.0003086049 0.0018434552
0.0019341046 -0.0019523313 0.00090743275 -0.00085218577 0.0007587236 0.0014284882 -0.0014453423 -0.0017526237
-0.0024152133 -0.0024835565 0.0028514438 0.0006207293 0.0014434438 0.002583427 -0.0012349634 0.0028640097
0.0022177594 -0.0027539586 -0.0015054127 -0.0005150235 -0.0019167059 0.0025555836 0.0020950022 0.0007075132
-0.0025159607 0.002801715 -0.0021577338 0.00062050973 0.00072471565 0.0008640429 0.00026176078 0.0004947961
0.0025462117 -0.0025399511 0.00015636231 -0.0014950712 -0.0013633185 -0.0022640214 -0.0018095133 0.0011241087
-0.0010977467 -0.0015350465 0.001172829 0.0005688432 -0.0017901789 -0.0010505802 -0.00043313252 0.002702795
-0.0026660564 0.00025972608 0.0007904398 0.0020738007 -0.0016907752 0.0013104076 0.00032782392 0.002700413
00000000: d431 20bb eedd 17bb 78dd 85b9 5c7d 023a
00000010: 7955 faba 20d5 d2b8 a81c a83a 806c a1b9
00000020: 095a deba 00a0 d236 80ff 6d3a e669 183b
00000030: 34c3 393b f8e0 153b 1403 47ba b470 d43a
00000040: b85f 0d3a 94d8 31ba c0fe 423a f472 c83a
00000050: b28a 40bb 0d10 d0ba 1881 88ba b4b6 d03a
00000060: c331 1dbb c0bf 3a3b 0038 adb9 2664 1bbb
00000070: 5422 003b 2f06 a1ba 28bb f5b9 5c9b 2cba
00000080: d831 0b3b 04c0 823a 38f8 84b9 f446 1bba
00000090: 9480 81ba 8895 d63a 68ad 0a3b f8ab 773a
000000a0: 1c07 f33a 57b9 04bb afb4 31bb 0453 3b3b
000000b0: 00d8 6837 afe6 08bb 44b4 2bba 0449 2bbb
000000c0: 28a2 d13a a0d9 9439 8b3b 8aba 9a76 b3ba
000000d0: e653 183b 4068 82b8 a0c4 3dba bc7a 35bb
000000e0: 3240 113b 8033 1438 29ba 9eba 7c26 ffba
000000f0: 8036 e03a 5432 ab3a c5a6 c5ba 1025 10b9
00000100: c0e6 383a d0f9 763a f057 8db9 6012 36bb
00000110: 8a2f c1ba 882e 3c3b 40cc a1b9 18a0 f13a
00000120: c881 fd3a 5ee5 ffba c8e0 6d3a 3865 5fba
00000130: 14e5 463a 1c3c bb3a a471 bdba 4bb8 e5ba
00000140: 8e48 1ebb 2ac3 22bb 4adf 3a3b 70b8 223a
00000150: f031 bd3a b64e 293b 7fde a1ba 1cb2 3b3b
00000160: d457 113b c27b 34bb 4551 c5ba a402 07ba
00000170: fa39 fbba 947b 273b 4e4c 093b 6878 393a
00000180: d1e2 24bb fa9c 373b c468 0dbb b4a9 223a
00000190: d8fa 3d3a f080 623a f03c 8939 34b5 013a
000001a0: 58de 263b 4f75 26bb 30f5 2339 44f6 c3ba
000001b0: 61b1 b2ba fa5f 14bb 312d edba d456 933a
000001c0: 44e2 8fba 9d33 c9ba 9cb9 993a 6c1e 153a
000001d0: 70a4 eaba 9fb3 89ba 1016 e3b9 6021 313b
000001e0: 01b9 2ebb d82b 8839 8435 4f3a 9ae8 073b
000001f0: 009d ddba fcc1 ab3a c8df ab39 6af9 303b
