Actor-Critic/PyTorch-ActorCriticRL/Models/100_actor.pt (torch_old, 170218 bytes, 7 tensors)

fc1.weight f4 [256, 3]
00000000: d835 5bbe 8154 463d 4973 a63e fe7b 2cbe
00000010: a073 a9be ffda 3ebe 6aa6 73be 6ee0 073d
00000020: d883 0a3e db98 443e 3a16 60be a77a 6e3d
00000030: b690 05be c97e 813e 6f46 37be 2bf3 52bd
00000040: 5c88 fe3e 0b72 b3bd 245c 0bbe 7a7d 15bf
00000050: ac0e aabe 14cf bd3c 5ece 75bd dc72 99bc
00000060: 479d f63e 83e6 05be 4add 23be 0a66 eebd
00000070: b2e1 0cbf b795 76bd bb97 b2be bb7d 8c3e
00000080: 27e9 58be 45c0 163e e02d dcbe ceff 873e
00000090: fc3a 8dbe fa2a d73e b43e 0cbd 5275 f23e
000000a0: a6a0 623e cbe2 ba3c c0f9 85ba 489d 4bbd
000000b0: e4a9 cf3c c5b2 4e3e 3d3e 83bd 0f38 e6be
000000c0: b0b6 5ebd 3c79 7f3d 6007 cabb 1f3f bebd
000000d0: f2aa 0fbf 38aa 83bd 9ce7 7f3e 5d10 0ebf
000000e0: 13df 1dbe ad20 d63d 5e97 21bf 53b9 90bd
000000f0: 9835 0a3f 9fcf c0bd c08a 253e 26e7 813e
00000100: 9a69 02bf 5e67 353d aaee 38bd d948 0a3d
00000110: 60cd 673b 9ed2 b93e c826 f0bc 22c7 3bbe
00000120: b69a a4be 5977 e2bd a66a b03e d8de 54bd
00000130: bcf5 d8bc ec98 583d 4676 7c3d 4072 1d3c
00000140: 08eb b6bc 5064 f93e d341 c7be d917 ca3d
00000150: 57fa b33d aa70 8f3e 1acc 123d b5eb f63e
00000160: aedc f4bd bc2f d43d b051 fb3d 5bc6 d0be
00000170: 19c4 9bbd b2ec fc3d e119 0c3f 3b86 39bc
00000180: 3b67 f93e c96b 8bbe 25b3 cb3d e7f7 143e
00000190: 66bc e8be 8151 63bd 0eb3 6bbd 22a7 4cbf
000001a0: d5cc 9dbe fcfb a63c 4403 6e3d 6a40 57bd
000001b0: 838f 6b3d c069 9bbb 70ef b6bc f2a6 ebbc
000001c0: 257a 233d c352 d03b 53b5 8d3e 66a0 c3be
000001d0: a373 063d 9007 c1bd 754d 3dbf 3dc2 b7bd
000001e0: 37dc 8fbe bf70 0b3e 492a 52be d2f8 b93e
000001f0: f447 933e 5113 f13d 7194 273d 06b2 83be
00000200: 4f12 ea3e ede7 e63e de42 26be 0a0e 79bd
00000210: ca2f a63e 3587 f1be 7e0f 29be 1a9a db3d
00000220: 9701 57bf a9a8 95be c0f8 e63e d17c e63d
00000230: 7e8f 14be c95d e83e be67 93be cb05 99bd
00000240: ea59 813e 9483 febe 3bf9 3ebe 9e86 8dbd
00000250: 7485 063f 5705 74bd e3a7 a53e 701a 8e3c
00000260: a343 52be d4cf ecbc 8fe3 873d 33a2 aa3c
00000270: f4d4 56be c652 08bf f2fb 83bd 2148 abbe
00000280: 928c d63e db10 04bd 0cf4 bdbc d4b7 293a
00000290: 2871 313c 78a0 003f 3168 c1bd 404a e0bd
000002a0: 73f4 663e ea38 9a3e c4b8 b3bb aa16 753d
000002b0: 287f 1bbd 4053 943c 9d5a 063e a637 4d3f
000002c0: 9dda 433e 0951 513e 7920 63be b9f6 ee3d
000002d0: d855 dc3e 1b8e 513d 187c 3ebe a678 60bd
000002e0: 6818 de3c 10fe cdbc 2415 5abe 134d aebe
000002f0: 1e94 993e 80d0 dd3e da88 d93e 2931 3fbc
00000300: 36b8 143e 430f c33e e0cf f23c 196f 573c
00000310: 9e79 6ebc 9bc3 c53b 4129 3c3e 1840 d93e
00000320: 5460 373d fded 983e 73b5 e3be 8548 48be
00000330: 012e b1bc 2d7e db3c 1276 16bd 533b d0ba
00000340: 6190 babb e4a6 4fbc 1311 f9bc 1876 e43e
00000350: f34e 95bd 093f c6bd 2d89 31bf 786b 6cbd
00000360: 3c32 4a3d 1db1 a13c f0c7 2abc a494 4d3d
00000370: ae77 b53b 04b0 293c a431 333c 9f49 2f3d
00000380: 2879 1cb9 86a3 41bd c728 003f 7a9f 45be
00000390: 2ccb a03e 501e d5be 9b2e f4bc eba7 5a3e
000003a0: 2d8c 453e d0aa 8d3c ec32 ce3c 6091 923c
000003b0: d003 02bc b342 523e 32a5 28bf c647 73be
000003c0: 20bc 29bd 0b26 6b3d 38ec b0bc 8a5d 1e3d
000003d0: a6f8 68bd 80c3 1d3c 01ee a73e e4cd e93e
000003e0: 98f7 8e3d 22d5 adbe cb88 7b3e d952 16be
000003f0: a026 18bb 0f96 663c 003e cb39 9314 123f
-0.21407259 0.048420433 0.3250983 -0.16844174 -0.33096027 -0.18638228 -0.2379395 0.033173017
0.13526857 0.19198935 -0.21883479 0.05822244 -0.13043484 0.25292042 -0.17897962 -0.051501434
0.4971341 -0.08761986 -0.13609368 -0.5839459 -0.3321432 0.023170032 -0.06001126 -0.018731527
0.48166868 -0.13076214 -0.16002384 -0.11640556 -0.55031884 -0.060201373 -0.34881386 0.27439675
-0.2118269 0.14721783 -0.4300375 0.2656235 -0.27584064 0.42024976 -0.034239486 0.47355133
0.22131595 0.022813221 -0.0010221526 -0.049710542 0.025349565 0.20185383 -0.064083554 -0.44964644
-0.054373443 0.062371477 -0.00616543 -0.09289383 -0.56120217 -0.06428951 0.24990696 -0.5549372
-0.15417127 0.10455451 -0.63121593 -0.07066598 0.5398803 -0.094146006 0.1616621 0.25371665
-0.50942385 0.04428803 -0.045149483 0.03376088 0.0035370216 0.362935 -0.029315367 -0.18337682
-0.32149285 -0.1105792 0.34456366 -0.051970333 -0.026484363 0.052880213 0.06163623 0.009609759
-0.022328869 0.48709345 -0.38917407 0.0986783 0.08787983 0.28015643 0.035839178 0.48226705
-0.11956154 0.10360667 0.1227144 -0.40776333 -0.07605762 0.123498335 0.5472699 -0.011323507
0.4871157 -0.2723067 0.099462785 0.14547692 -0.45456237 -0.05549765 -0.057543807 -0.79942524
-0.30820337 0.020383827 0.058108583 -0.052551664 0.05750991 -0.004742831 -0.02233097 -0.02876613
0.039911408 0.006357522 0.27677402 -0.38208312 0.032825124 -0.094252706 -0.73946315 -0.08972595
-0.28097698 0.13617228 -0.20523943 0.36322647 0.28765833 0.117712624 0.04091305 -0.2572176
0.45717093 0.4509882 -0.16236445 -0.060804404 0.32458335 -0.47173467 -0.16509816 0.10722752
-0.839868 -0.2923024 0.45111656 0.112542756 -0.14507863 0.45384052 -0.28790087 -0.07471808
0.2526391 -0.4970976 -0.18649761 -0.06910442 0.52547383 -0.059575405 0.3235465 0.01734659
-0.20533614 -0.028907694 0.066352 0.020829296 -0.20979673 -0.532513 -0.06444539 -0.33453467
0.41904122 -0.032242637 -0.02318766 0.0006474231 0.010830201 0.50244856 -0.09443701 -0.10951662
0.22554187 0.30121547 -0.0054846723 0.059836067 -0.037963063 0.018106103 0.13120504 0.8016304
0.19126363 0.20441069 -0.22180356 0.11668152 0.43034244 0.051160913 -0.18602026 -0.05480256
0.027111247 -0.02514556 -0.21297127 -0.34043178 0.29995817 0.43323135 0.42487222 -0.011669436
0.14523396 0.3809758 0.029640138 0.013149046 -0.014555363 0.006035281 0.18375112 0.42431712
0.0447696 0.2986907 -0.44474372 -0.19558914 -0.021628382 0.026793564 -0.036733694 -0.0015886821
-0.005693481 -0.012674067 -0.03040365 0.44621348 -0.07290449 -0.09679992 -0.6934994 -0.057719678
0.049364313 0.019737775 -0.010423645 0.050190583 0.0055379486 0.010356907 0.010937128 0.04279482
-0.00014922454 -0.04727509 0.5006222 -0.19299117 0.31405008 -0.4162469 -0.02980738 0.21353118
0.19291754 0.017293364 0.025170766 0.017891586 -0.007935479 0.20533256 -0.6587707 -0.23757848
-0.041439176 0.057409327 -0.021597013 0.038663425 -0.056877755 0.00962913 0.3279877 0.45664895
0.069808185 -0.3395167 0.24563901 -0.14680041 -0.0023216382 0.014073863 0.0003876537 0.57062644

fc1.bias f4 [256]
00000000: 3fca 9c3d 8bbd c23d 7d9d ddbb fb7d 79be
00000010: ca79 5dbe ba4c 08bc 5c80 693e 14f6 8cbe
00000020: f22b 513d 9e1a 393e 90b8 89bd f5c4 0a3e
00000030: c8ea 3f3e c2fb 8bbd af12 a4be 0423 7d3e
00000040: 3c76 8fbe 5f37 4a3e 6cea e9bd e10f 943e
00000050: a409 c4bd ef28 123d d117 11bf afbe 83be
00000060: 15d3 f13d 9883 07bf eb2a 92be f5dd 6abe
00000070: 7db9 b13d e4cd 39be c509 673e da2b 1dbd
00000080: 44d0 5bbe 4a3c d6bd 6401 263e dee2 12bf
00000090: e1f3 c1be bf04 41be 1a31 813d 373c b23e
000000a0: a4bc a1bd f341 75bd 628c 613e 546b 193e
000000b0: ac7b bcbd 34b8 0f3c 060e 553b 9391 133e
000000c0: 3756 1dbe d2c5 bc3d d81d c8be e39f 82be
000000d0: 311c de3d 9ebc 843e 1ede e6be 56df 033e
000000e0: 3852 87bd 5ed7 d3be 17b8 ab3d 10b8 18bf
000000f0: 7b5c a23a 063f c4be 1a7e 123e 7949 1dbe
00000100: 62ac 053e 5e3c acbd f5f9 3f3e f365 fabd
00000110: 9eb1 c8be 2ed2 22be 78a4 08bd 96f5 283e
00000120: 1056 67be 14fc 70be 8688 e5bd f25c 9dbd
00000130: e858 133d a5fc a5bd ac96 f4be 5460 d9bd
00000140: 0ca4 f8be 3d39 51be 53d9 6b3d 59e9 8b3d
00000150: a236 05bf d709 ff3d c170 3c3d 91fa 99bc
00000160: e957 45bd 263c 993d fbfc 95be 4ee7 e5bd
00000170: 8327 d13d 4e06 09bf 3a7d 873e 0bf6 d1bd
00000180: a398 c5be 011d ffbe 9e15 5b3d 19d4 ccbe
00000190: 1681 76be 8683 503d e111 7b3d 9ef4 a33d
000001a0: ca57 a6bd 347e 8b3d 2b80 a5bb 3967 b03e
000001b0: 9ee1 05bd 1518 2e3e 37bd 10be c3e6 c5be
000001c0: b447 bdbe 4c27 f23d fe2d 0ebf 150f 003e
000001d0: d8b1 60be 63a8 babc 7d42 c63e bfe3 783d
000001e0: c1eb 0dbd fbe8 f63b 1382 0fbf f902 9fbe
000001f0: 907d d7bd bcaa b3be 0a52 8f3e afc7 e93d
00000200: 10d2 2ebe 9968 4f3d 2a3b 95bd b347 663e
00000210: 8a0d a63e 010c 2a3e f877 b9be e3ba ecbe
00000220: 665f 023e 7a26 3e3e e619 3fbc 8614 03bf
00000230: c42b ecbe 7c2e bdbe bab8 aa3d 2494 aebe
00000240: 5443 043e 98bd 0dbe 539d 8f3d f42f 06bf
00000250: 9fff 0cbf f137 983d 6202 323e ad7d b4be
00000260: f2d9 f5be 2146 17bf a673 663c 8cdb ecbe
00000270: 1101 c0be 86f0 63be bda3 1f3d 3f30 743e
00000280: 735c db3d 7c17 60bc dbcc 57be 6ee9 03bf
00000290: 406d 803d f48e bcbd 3e48 1a3e 99c4 c53e
000002a0: a7da d53d 830f 43bc cb3c f7be 3c95 ecbe
000002b0: abc7 3a3e bb93 ab3c f88c 3c3c 7215 7b3c
000002c0: 5015 003e 63e3 2d3e 6559 c23d 195f 68be
000002d0: fbbf 5a3e 4e32 363e acc2 1b3d 5f32 5e3e
000002e0: f7f2 893e 6b9f 78bc f87f c1bd 4618 03bf
000002f0: 9b73 a8be e5ab ecbd 6e7b 683e ec7b c4be
00000300: 1f11 2ebe db34 acbd a533 a53d 4d4b be3d
00000310: 5cec 30bc e0a5 d43d b255 b43e d16b a1bd
00000320: 75a6 b93e 7eb9 833e 388a aebe 512a 93be
00000330: 9f73 efbe cbff 91bd d919 b93d aa80 e7be
00000340: 9299 b0bd e4f5 9b3e 9e43 253e ec26 993d
00000350: a0e0 08bf aab3 933e 4692 91be 1b59 42bd
00000360: 2273 fdbe b271 a43e 57d1 0c3e 8350 42be
00000370: 76e0 abbe 9121 9b3e b237 cebe 85da 5b3e
00000380: 6796 713d af0c f9bd 5e93 e1be c314 20bf
00000390: 5bbe ae3e 9872 c6be c1b5 16be d6c2 493d
000003a0: 3eaf d1be 027c 08be 0e56 c93e 72a8 9ebe
000003b0: d20f 60be e061 713d 3b44 883e 8390 bbbd
000003c0: cfe8 39be b315 bd3e 7900 9bbd b76f 0a3c
000003d0: b027 c2bd a271 19be d794 b6bd 6851 b73c
000003e0: 8ae1 1ebf 2852 b8be aa35 013e e199 f2be
000003f0: 7db3 ba3e 611b 253e 1792 87be 817a be3d
0.07655763 0.09508809 -0.006763159 -0.24364464 -0.2162849 -0.008319074 0.22802871 -0.27531493
0.0510673 0.1807656 -0.06724656 0.13551696 0.18741906 -0.06835128 -0.32045504 0.24720389
-0.28019893 0.19747685 -0.114216655 0.28918365 -0.09572151 0.03568357 -0.56676966 -0.25731418
0.11807839 -0.5293517 -0.2854837 -0.22936232 0.08677957 -0.18144947 0.2256232 -0.0383719
-0.21466166 -0.10460718 0.16211468 -0.5737742 -0.37881377 -0.18849467 0.063081935 0.34811565
-0.078973085 -0.059877347 0.22026208 0.14982349 -0.09203276 0.008771945 0.003250958 0.14411001
-0.1536492 0.09217419 -0.3908527 -0.2551261 0.10845221 0.25925153 -0.45091337 0.12878165
-0.06607479 -0.4137525 0.08384722 -0.5965586 0.001238718 -0.38329333 0.14305916 -0.15360059
0.1305404 -0.084099516 0.18747695 -0.122264765 -0.3919801 -0.1590049 -0.033359975 0.16499934
-0.22591424 -0.2353366 -0.112076804 -0.076837435 0.03597346 -0.08104829 -0.47771204 -0.10614076
-0.48562658 -0.20431991 0.057580303 0.06831617 -0.5203649 0.12453049 0.046005968 -0.018796237
-0.04817954 0.074821755 -0.2929457 -0.112257585 0.102126144 -0.53525245 0.26462728 -0.10252007
-0.38593015 -0.49826816 0.053487413 -0.40005568 -0.2407268 0.05090668 0.061296348 0.080056414
-0.08122213 0.06811181 -0.005050679 0.34453753 -0.03268587 0.17001374 -0.1413468 -0.3865262
-0.36968768 0.118239015 -0.5553893 0.12505753 -0.21942842 -0.022785371 0.38722602 0.06076407
-0.03464866 0.0075350977 -0.5605785 -0.31056955 -0.10521996 -0.35091197 0.27992278 0.1141504
-0.1707232 0.05063686 -0.07286675 0.22488289 0.32432204 0.16606142 -0.3622434 -0.46236333
0.12731704 0.18569365 -0.0116638895 -0.5120319 -0.4612714 -0.36949527 0.08336015 -0.34097397
0.12916309 -0.13841856 0.07012429 -0.5241692 -0.55077547 0.07432545 0.17383721 -0.35252133
-0.48017842 -0.59091383 0.014065659 -0.4626125 -0.37500814 -0.22259721 0.038974512 0.2384653
0.10710993 -0.013677474 -0.2107424 -0.5152806 0.06270838 -0.09206954 0.1506662 0.38626555
0.10442095 -0.011905554 -0.4828857 -0.46207607 0.1824023 0.020944467 0.011508219 0.015324937
0.1250813 0.16981272 0.09489707 -0.22692527 0.21362297 0.17792627 0.03802745 0.21698903
0.2694318 -0.015174727 -0.09448236 -0.51208913 -0.329007 -0.11556224 0.22703335 -0.38375795
-0.16998719 -0.08408519 0.08066491 0.09291706 -0.01079854 0.10383201 0.3522163 -0.078818925
0.3625981 0.25727457 -0.34089828 -0.28743222 -0.467679 -0.07128867 0.09038133 -0.4521535
-0.08623041 0.30461037 0.16139075 0.07478127 -0.5346775 0.2884801 -0.2843191 -0.04744826
-0.49501902 0.32117993 0.13751732 -0.18976025 -0.33569688 0.30299047 -0.40276867 0.21470077
0.058981325 -0.12160622 -0.44057745 -0.6253168 0.34129605 -0.38759303 -0.14717771 0.049258076
-0.40954012 -0.13328555 0.39323467 -0.3098789 -0.21881035 0.05893123 0.26614556 -0.09158423
-0.18155216 0.36930618 -0.075684495 0.008449486 -0.09480226 -0.14984754 -0.08915108 0.022377685
-0.62062895 -0.3600018 0.12618127 -0.47383025 0.36465064 0.16123725 -0.26478645 0.093007095

fc2.weight f4 [128, 256]
00000000: 8f55 91bd d1be 2fbd 4be4 d7bc be42 9a3b
00000010: b75c a4bd eedb dbbd d74e 093d 307a a93c
00000020: 6f1f 54bd cccb 343d 43f1 15be 244e 473c
00000030: 4c5b 59be e775 893d b0c6 cb3b e3fa 163d
00000040: 8ad1 71bd e18f 93bd ba7c 023d a2af babd
00000050: 467a dbbd bab0 323d 28b3 cbbc bb94 c5bd
00000060: 3dab 5abd 0643 293d e4a7 9fbc 707e 92bd
00000070: 2f70 083d 72a6 c4bd 07a9 23bc 990f 72bd
00000080: cc48 b53c b0f3 2ebb cb9f d8bd d592 55bd
00000090: 21e9 423d c95b b93d 3dc1 483d e372 9fbb
000000a0: 1b4d 6bbe c7ac dd3b 0943 5fbd c6ea 363d
000000b0: 727f 60bd c5b3 e3bc 552a 5abc 08aa 71bd
000000c0: 225a c53d baff 81bd 1f3a e73a d7ac 79bb
000000d0: 0827 f23b ce6f 19be 6a0f 9e3c e533 3f3d
000000e0: 6241 6b3c 5e1f 683d dea1 903c bd05 48be
000000f0: cd3d 3ebc 167a 023d 78f3 cc3d 5f2a 2f3e
00000100: e9c5 26bd f62b 873c 7b46 8d3c c888 1c3d
00000110: 99c4 cc3c 0cd5 c63d 8382 1fbe a4db 16bd
00000120: 984d 4bbd e009 713d dca2 17bd 9813 1cbe
00000130: e4d8 aa3c 9f01 66bd 1b69 583c fc7a e43c
00000140: 3e38 173d 649a b3bd 15a4 47bc 1492 83be
00000150: c30e 953d 3059 933d 015b 143d f859 b8bd
00000160: 7ecf d2ba 53fe 7dbd 003a af3d 9e23 d2bd
00000170: 41ff 68bd 8703 11bd 8194 1cbe 7183 0abe
00000180: b934 b93d 190d 30bd d6b0 233d 7987 42be
00000190: 3928 943c f327 16bd a4ae 33be da04 b23c
000001a0: bec7 6ebb d960 cd3c 419c 00be 8614 87bd
000001b0: b50e 5c3c ad88 abbd 2807 133d 709c d4bd
000001c0: 0aba e0bc 632e 203d 240e ad3c 79f9 4bbd
000001d0: 202e 693e b98f cd3c f007 b8bd d0ed 67bc
000001e0: fa13 8bba 9328 f5bc 3bf8 a43d fd19 893d
000001f0: cf5d 9c3b f0b1 74bd 7561 e53a b8d9 a4bc
00000200: 12ff 943c 0781 383d 7cc3 8dbd 50dc 4abe
00000210: 57c2 c0bc 5fa8 b6bd a3b9 6ebd 4f47 073c
00000220: 9599 f7bd e025 debd 5f62 893c 9cd6 853c
00000230: be4f e6bc cb54 a33d e494 59b9 8d91 16bd
00000240: 92ab 743c 7cca 5a3e fd85 db3c fccf 103d
00000250: 2a19 573d 332d 7ebc 527b fe3d b264 b1bc
00000260: ce3a e3bc 15fa 63be df04 f9bd ccac a0bc
00000270: 6a90 9ebd ebb5 fe3c 8b7e 83be 04d3 e33c
00000280: 9981 7bbc 371a fa3b dbed 3cbd a66b 67bd
00000290: e2f7 f3bb 8610 5d3d b4ed f63c b0ed af3c
000002a0: 9237 163d ff6c 91bc 7a5d 82bb 73ab bcbb
000002b0: d3e6 e1bd bae8 8c3d 4cbc ecbd ba33 b23c
000002c0: 6d81 6e3d 6e0f e5bc c60c a3bd 43a8 c53c
000002d0: a2ee e13d 49b0 a73c 7a5f 57bb 760b c9bc
000002e0: e9b4 b03a 5d15 c8bd 23b0 61bd 21dc 5dbd
000002f0: 6185 c3bd df13 9abc 90f5 4b3d 599a 55be
00000300: 2e4f 233d 3aef b23d d047 2ebb 7721 b7be
00000310: 50f2 b83c ea7a 81bd 43b9 bbbd a97f c2bd
00000320: 583f 41bd 6062 09be 0122 913d c86e 6abd
00000330: 1ea7 78bd 4d4d 863c c1b3 9cbd 2f0a 82bd
00000340: 9686 2c3c f898 df3d a941 e9bd 87e3 79bd
00000350: 46b6 023d dbae 15bd 201a 30bc 9a34 81bd
00000360: 49c7 9cbe 9111 39bd fa85 14bd 1217 583d
00000370: 2a23 aebd b89b cbbd affd 07bd d5a5 ac3d
00000380: 8310 16bd 8c67 0e3d b007 b23b b41e 84be
00000390: a54c 193d 8d73 06bd 7178 13bc 81aa 8abe
000003a0: 1074 7abe bb60 15be 60c3 9c3c 04db c0bc
000003b0: 2182 b0bd 2995 09bd 5a06 e0bd 74f9 843c
000003c0: c17b 42bd e7bb b6bd bd05 48bd d6ac f93c
000003d0: f862 ad3c 8bc3 873d e9bf 27bd 1d07 bebd
000003e0: b3ee 7dbe 0bd0 4e3c 1a6d 823c c9af 80be
000003f0: b280 1ebe aa2e 9ebd 1ea1 793e 0ae7 c3bd
-0.07096397 -0.042906586 -0.026353976 0.0047076633 -0.080254965 -0.10735308 0.033522453 0.020688146
-0.05178779 0.04413967 -0.14642815 0.012164626 -0.21226233 0.06711941 0.0062187538 0.036860358
-0.059037723 -0.07205177 0.03185723 -0.091155306 -0.10716681 0.04362557 -0.024865702 -0.09647509
-0.05338596 0.041323684 -0.019489236 -0.07153022 0.03331011 -0.096020594 -0.00998903 -0.059096906
0.022129439 -0.0026695542 -0.10577353 -0.052141983 0.04758561 0.0905071 0.04901241 -0.0048659905
-0.22978632 0.0067649814 -0.05450729 0.04465749 -0.05480904 -0.027795682 -0.013315757 -0.059000045
0.09636332 -0.06347604 0.0017641223 -0.0038097405 0.007389907 -0.14984056 0.01929446 0.04668035
0.01435885 0.05667054 0.01765531 -0.19533439 -0.011611414 0.03185471 0.100073755 0.17106007
-0.040716086 0.016500454 0.017245522 0.038216382 0.024996089 0.09708604 -0.1557713 -0.03683056
-0.049634546 0.05884731 -0.03702055 -0.1524185 0.020855375 -0.05615389 0.013208653 0.027890675
0.03691887 -0.08769682 -0.012185116 -0.25697386 0.07278206 0.071947455 0.0362196 -0.09001535
-0.0016083566 -0.06201012 0.085559845 -0.102607 -0.056884054 -0.035403755 -0.15291025 -0.13526703
0.09043259 -0.04298124 0.039963566 -0.18996991 0.018085586 -0.036659192 -0.17547089 0.021730829
-0.0036434974 0.025070595 -0.12559606 -0.065957114 0.013431241 -0.08375678 0.035895497 -0.103814006
-0.02743246 0.039106738 0.021124907 -0.049798463 0.22771502 0.025092946 -0.08985889 -0.01415582
-0.0010610812 -0.029926574 0.08055159 0.0669441 0.004771925 -0.059740007 0.0017500358 -0.020123348
0.018188033 0.045044925 -0.06922051 -0.19810605 -0.023530168 -0.08918833 -0.058282506 0.008256747
-0.1208984 -0.10847068 0.01677054 0.016337685 -0.028114196 0.07975157 -0.00020750199 -0.0367599
0.014933484 0.21366304 0.026797289 0.0353546 0.052514233 -0.015513706 0.12425865 -0.02165446
-0.027738001 -0.22263367 -0.12159132 -0.019613646 -0.077423885 0.031092605 -0.25682482 0.027810581
-0.015350723 0.0076325196 -0.046125274 -0.056499146 -0.0074453214 0.053970836 0.030142643 0.021475643
0.03667409 -0.017752169 -0.0039784284 -0.005757743 -0.11030354 0.068803266 -0.11559352 0.02175318
0.0582289 -0.027961459 -0.07961421 0.024128085 0.11031844 0.020469802 -0.0032863305 -0.024541598
0.001348165 -0.097697 -0.055099618 -0.05416501 -0.095469244 -0.018808303 0.049794734 -0.2085966
0.039870434 0.08737035 -0.0026593097 -0.3576772 0.022576481 -0.06322272 -0.09166195 -0.094970055
-0.04717955 -0.13416433 0.07086564 -0.057234555 -0.06070625 0.016394282 -0.07651473 -0.063495986
0.010530135 0.10917848 -0.11389477 -0.061008003 0.03191211 -0.03654371 -0.010748416 -0.06308861
-0.30620793 -0.04518277 -0.036260583 0.052756377 -0.08502801 -0.0994181 -0.033200916 0.084300674
-0.03663684 0.03476672 0.0054330453 -0.25804675 0.03742661 -0.03282504 -0.009000883 -0.2708321
-0.24458337 -0.14587681 0.01913613 -0.023541935 -0.0861857 -0.033589516 -0.109387115 0.01623223
-0.047481302 -0.08922558 -0.048833597 0.030477922 0.021165356 0.06629094 -0.040954504 -0.092787005
-0.24798088 0.0126228435 0.015921164 -0.25134113 -0.15478781 -0.07723744 0.24377868 -0.095655516

fc2.bias f4 [128]
00000000: 2698 e5bd 9e02 be3d b000 953d 8ba0 d7bd
00000010: d760 c9bb a497 3e3d 8bcb 7dbd 098c afba
00000020: 6d6e f4bd 1c4e 2dbd fbc6 30bd 82fe b5bd
00000030: ff07 e1bd 26ae 533d c1f1 62be f1a1 f2bd
00000040: f5b7 2dbe c141 93bd 7297 eebd a737 79bd
00000050: d7a0 33bd 1bbd 5d3b 9ea0 d2bd c8e5 3f3c
00000060: 34d3 033d e1a0 89bd 9b07 48bd bf2b 4cbd
00000070: 0ba3 8c3c feac 3fbc 11a8 65be 43d7 7dbd
00000080: e754 a4bd 4624 3fbd 60be a4bd 1ebb 913c
00000090: 1532 3ebd 3836 67bd 6185 43bd cd5e 16be
000000a0: 3551 063c 2cba 46be 3961 fdbd 46d9 19bd
000000b0: 2a08 61bd 4dd0 05bd 7814 bf3c 4d38 80bc
000000c0: 6029 8fbd 13f9 cc3d 62a2 79bd 6b43 4eb8
000000d0: 62de 1ebd 0877 553c 951a 22bd 8746 153b
000000e0: 77b6 fa3c e741 93bd a648 913c 11fa 9cbd
000000f0: 279c a1bd 4e86 fabd 0e12 99bb 702e 17bc
00000100: 66c8 dbbb 84ee a9bd a29a 9dbd a4db 96bb
00000110: a774 cb3c 9941 cd3c eff1 c9bd b95a 8bbd
00000120: ddc5 d1bc fede 9a3c 83e3 32bd 6406 b53c
00000130: d285 ce3c 71ed c9bd a5e2 63bd 9d12 dc3c
00000140: ccba 2fbe a8bf 70bd 7f3f 87bd e46c 17bb
00000150: db11 7ebd 96a4 6ebd a194 12be 0c68 3b3d
00000160: 8a14 4ebd 7bb7 903d 60b8 25bc ad18 77bd
00000170: cc0e dbbc 1858 9bbd c86a 78bd 0687 373d
00000180: da42 0bbd 3464 d13c 2f4b f9ba b264 b1bc
00000190: 088e 1cbe 971b 70bd b995 4cbd 0e24 dd3c
000001a0: 31d8 68bd eb79 93bd 4a3c 013d 9d84 e53a
000001b0: ae05 2cbd 5bef eabc f7e4 09be 99b7 80bd
000001c0: ade8 f0bd 5981 0b3d 6767 95bd 5589 18bd
000001d0: 3f47 da3c 9ab3 b6bc 09e7 c33c 201d a2bb
000001e0: 5942 69be 6ba2 8cbd 5afe 0b3d 1567 39be
000001f0: 91ef 4cbd ceff 64bd 94ca 03be 2dc8 7b3c
-0.11210661 0.09277843 0.07275522 -0.10528668 -0.0061455774 0.046531335 -0.06196169 -0.0013393174
-0.119351245 -0.04231082 -0.043158513 -0.08886434 -0.10987853 0.051679753 -0.22162534 -0.11847294
-0.16964705 -0.07190276 -0.1164998 -0.06084409 -0.04385456 0.003383464 -0.102845415 0.011712499
0.03218384 -0.06720138 -0.04883538 -0.049846407 0.017167589 -0.011698959 -0.22427393 -0.061972868
-0.08024006 -0.046665452 -0.08044124 0.01778942 -0.04643448 -0.05644819 -0.047734622 -0.14684601
0.008198072 -0.19406956 -0.123720594 -0.037560724 -0.054939426 -0.032669354 0.02332519 -0.015651846
-0.069903135 0.10008445 -0.060945876 -4.9177015e-05 -0.0387863 0.013028868 -0.03957613 0.0022777633
0.030604584 -0.07190304 0.017734837 -0.07664884 -0.07891112 -0.12232648 -0.0046713417 -0.00922738
-0.006707239 -0.08297446 -0.076955095 -0.00460382 0.024835898 0.025055693 -0.09860598 -0.06804413
-0.025607044 0.01890516 -0.043674003 0.022097774 0.025210295 -0.098597415 -0.055636067 0.026864344
-0.17161101 -0.058776528 -0.06603908 -0.0023105675 -0.062028747 -0.05826243 -0.1431451 0.045753524
-0.050312556 0.07066246 -0.010114759 -0.060326267 -0.026740454 -0.07585162 -0.06064871 0.044806503
-0.0339993 0.025560476 -0.0019019599 -0.02165446 -0.15288556 -0.05862006 -0.049947474 0.026994731
-0.0568468 -0.072009884 0.031551637 0.0017510835 -0.041997604 -0.028678587 -0.1346625 -0.062850185
-0.117631294 0.034058902 -0.07295113 -0.037240345 0.0266453 -0.022302438 0.023913877 -0.0049473196
-0.22779216 -0.06866916 0.034178115 -0.18105729 -0.050033156 -0.055908017 -0.12870246 0.01536755

fc3.weight f4 [64, 128]
00000000: 7842 9cba db3c 8cbd 74f0 e2bd dc1a 20be
00000010: 4eb0 eebc d660 863d 3ccd c6bc 518b a6bd
00000020: 7f0e 7abd 846d ffbd dcc4 03bd 1a64 873d
00000030: 813e 00be 648b 53bd 03e3 0bbd d8d7 fc3c
00000040: 24dc bd3c 80ae 493b 1ec8 ac3d dd2c e4bd
00000050: 5784 673d d652 c0bd fa0d 0c3d 43b9 3bbd
00000060: 9e16 06be 5268 a8bd 2475 2b3d ea68 f6bd
00000070: e9f9 d63d 3805 22bd 7981 c3bd 46c8 233c
00000080: f9ec a6bd dcd3 743d 9066 2cbc 9dd8 ac3d
00000090: 5b80 843d b0d3 193d 65d2 04bd fe56 23bd
000000a0: 3cef ad3d 1715 4abd 40ec 543c 6c5e b43b
000000b0: 8ef0 533d a841 e93d 0a59 4dbd 8c78 04bd
000000c0: 86b5 c8bc 6885 efbc 64df 503d abfb 3b3c
000000d0: a984 ba39 e2cb e5bd 505e f03d 9616 78bc
000000e0: 941e 60bd 4441 33bd f8dd 453d 50a0 283c
000000f0: 96cb d2bd 8f66 87bd 84af 06bd bd48 193c
00000100: 7ed9 8abd 689a 713c 027e 4e3d 56f7 773d
00000110: 66fa 363d 5cdb 1e3d d146 a7bd b525 51bb
00000120: 5d42 abba 327c cdbd 5634 ca3d b308 16bd
00000130: 0c90 5a3d f571 b4bd 01c2 a63c 4419 c83d
00000140: 0101 ce3d 82c7 c53d e04c c23d 9044 96bd
00000150: bc1c 84bd cc49 78bd ff7d 07be 8468 2abd
00000160: 5475 ffbc 40cb 383d ceec 193d 1e05 fbbd
00000170: 54a2 e2bd 005c 2939 8703 11be 3f3d c23c
00000180: e0e5 bdbb 1cb1 a13d a9b7 1c3c 1105 14bd
00000190: 6ca3 da3d d84b 6bbd 00c8 f33d dfac 073e
000001a0: fabb d33d 67b5 10bd b4e2 7f3d 1206 623d
000001b0: 1637 b6bd b18c 1c3c 436e 16be 0e94 913d
000001c0: ca76 9f3d 1ef0 48bd 6c1f 8dbd 6ed5 b5bc
000001d0: b204 ebbd f0be e7bd 4779 543c 18cb d0bd
000001e0: aeba 06be 54de f8bd 3244 f3bb 83d2 bc3d
000001f0: 1c58 e1bd d6df db3d 1fce dcbd bef4 d1bd
00000200: 74e8 0e3d 097d 34be ee8a 253e a643 4dbd
00000210: f18f c33d 4784 cb3d c584 abbd 0438 213c
00000220: 83b1 d6bd ffa0 ebbd 5bb4 2d3e 486a 9bbd
00000230: a6b6 cd3c ccde ff3d 89a0 c2bd ff40 e4bd
00000240: 60c0 60be b0b7 963d ac70 5bbc efcd 883d
00000250: fa70 25bd 7025 3fbd 1349 333b 0d52 ea3d
00000260: a06c 3d3c 9047 463c 4662 ebbc c06b a63d
00000270: 79a4 4f3b e687 06bd c9e9 303d 705c 263d
00000280: 69a3 93bd 24af da3d cd8b 863d 0c7f 2abd
00000290: c4a2 6d3c 51e6 ba3d 520d 1f3d 9552 f6bd
000002a0: e08e 4d3c 5e86 92bd 4af8 aa3d a941 69bd
000002b0: eccf 16bd 61c3 9c3d 1fd1 a33d e0f9 283e
000002c0: c69a e2bc 57a6 453e f4c4 51bd 22d2 cd3d
000002d0: 8ea0 2cbe a0ba 7fbc a4d6 92bd e9e0 823d
000002e0: 16e9 bbbd 9cd4 edbd 23c9 163d 4c77 c6bd
000002f0: d6d2 8fbd f324 3abe 7282 833c 977e 80bd
00000300: 5847 9c3c 0bca cf3b 2b98 afbd 538f 173d
00000310: ff7f 5cbd 8898 d4bc 4258 a83d 6037 6dbe
00000320: 71ce 2fbd 6b43 4ebc d664 ab3d dd0a f83c
00000330: 2c7d 32bd 99f1 9fbc 9449 da3d 1d73 48bd
00000340: 4521 06bd 9f6d 70bd b2ad 01be 7537 d03d
00000350: 319e 39bd 4b8e bb3c a39d 78bd 3946 56bd
00000360: 3480 be3d 3123 5bbd 7410 393d 46e4 103c
00000370: 7cd4 8bbc 96a7 113d f7e9 ac3b a006 debd
00000380: a00f 5e3c ddec b53c 003a 52ba fb5d 29bd
00000390: 65b4 e33c acf8 86bd 4853 9ebc 0c5d be3d
000003a0: f212 e6bd 5b03 f63a 24cc c1bd 1fbd e6bc
000003b0: 8cf7 59bd 1cb1 a1bc 1a17 113c b44c b53d
000003c0: c8b0 40bd df14 683d 7ec8 603d 2cd3 29bd
000003d0: 0e44 133e f1e9 013d 5915 01be 984c d83d
000003e0: ebdf 1abb 7c49 2bbd 953c 0ebd d1be 19be
000003f0: dc64 be3d 3470 4f3c 0ca3 84bc a45c f6bd
-0.0011921665 -0.06847545 -0.11081019 -0.15635246 -0.029136803 0.06561439 -0.024267785 -0.08132041
-0.06104898 -0.1247206 -0.03217016 0.0661089 -0.12523843 -0.051646605 -0.034152042 0.030864641
0.02317626 0.0030774176 0.08436607 -0.111413695 0.056522693 -0.093908 0.034193017 -0.045830976
-0.13094565 -0.082230225 0.04185976 -0.120317295 0.10496885 -0.03955576 -0.09546179 0.009996479
-0.08150668 0.059772357 -0.0105225 0.08439753 0.06469794 0.037555397 -0.03242721 -0.039877884
0.08492896 -0.04933652 0.0129957795 0.00550442 0.051743083 0.11389476 -0.050133742 -0.032341525
-0.02450062 -0.029238418 0.050994292 0.011473577 0.00035575524 -0.11220528 0.11736739 -0.015142104
-0.05471666 -0.043763414 0.04830739 0.010292128 -0.10292737 -0.066113584 -0.03288223 0.009355721
-0.067797646 0.014746286 0.05041314 0.060538612 0.044672392 0.038783416 -0.08167804 -0.0031913344
-0.0013066042 -0.10033454 0.098732635 -0.03662939 0.05336003 -0.08810798 0.02035618 0.09770444
0.10058785 0.09657194 0.09487319 -0.07337296 -0.06450793 -0.060617253 -0.13231657 -0.04160358
-0.031183876 0.04511571 0.03757935 -0.122568354 -0.11066118 0.00016151369 -0.14161502 0.023710845
-0.0057952255 0.07895109 0.009565272 -0.036137644 0.106757015 -0.057445377 0.11903381 0.13249539
0.10338588 -0.03532925 0.06247206 0.05518157 -0.088972256 0.009555028 -0.14690499 0.07108317
0.07786329 -0.04905712 -0.06890759 -0.022196498 -0.11475505 -0.11315715 0.012968368 -0.10194987
-0.1315715 -0.12151781 -0.007423901 0.092198394 -0.11003134 0.10736053 -0.10781502 -0.10251759
0.034889653 -0.17625822 0.16166279 -0.050113343 0.09548939 0.09937339 -0.08374933 0.009840015
-0.104830764 -0.11505317 0.16963331 -0.07588631 0.025111508 0.12493667 -0.09503276 -0.111452095
-0.21948385 0.07359254 -0.013393562 0.06679904 -0.040390946 -0.046666563 0.0027356788 0.11441431
0.011561543 0.012102023 -0.028733384 0.081260204 0.0031683727 -0.032844447 0.043191705 0.0406155
-0.072089024 0.10677937 0.06569634 -0.041625068 0.014504138 0.091259606 0.038831063 -0.1202747
0.012546271 -0.07154535 0.08348139 -0.056947384 -0.036819384 0.07654453 0.07998871 0.1650157
-0.027661692 0.19301735 -0.05121322 0.10049845 -0.16858122 -0.01560846 -0.07169846 0.063905545
-0.09175317 -0.11612818 0.036812913 -0.09690723 -0.07022636 -0.18178158 0.016053412 -0.06274145
0.019076988 0.006341224 -0.085739456 0.03700192 -0.053833004 -0.025951639 0.08219959 -0.23165655
-0.042921487 -0.012589316 0.08368842 0.030278618 -0.043576404 -0.019524382 0.10658565 -0.048937906
-0.032746572 -0.058698293 -0.12663916 0.101668276 -0.04531688 0.022894999 -0.06069721 -0.052313063
0.093017966 -0.053500358 0.045181707 0.008843487 -0.017069094 0.035560213 0.005276914 -0.10841107
0.01355353 0.022207672 -0.0008019507 -0.041349392 0.02779598 -0.06590399 -0.019326821 0.09295091
-0.11234082 0.001876931 -0.09462765 -0.028166352 -0.053214595 -0.019737773 0.0088556055 0.088525206
-0.04704359 0.05666053 0.054878704 -0.041461155 0.1438143 0.031717245 -0.126058 0.10561484
-0.0023632 -0.041818127 -0.034725744 -0.15014197 0.09296581 0.012661029 -0.016191028 -0.120293885

fc3.bias f4 [64]
00000000: c175 43bd cf0e 9d3d d073 d3bd f6b3 273e
00000010: ede5 84bc 03f6 8f3c 81c9 03bd e0dd 46bd
00000020: 2491 37bd 67ff 283e 9ee8 203e 8ff1 103d
00000030: da14 833e 4a29 73bc 81db 053e 800e 553e
00000040: fff0 163e e0e9 f1bc 312f 0dbd c1a6 4cbd
00000050: 8e47 19be 4b6b 853c 1fea e5bd c99f b63d
00000060: 46f8 a8bc 83ec dbbd 8663 c8bd b6fb c13c
00000070: 794d 9abd 375f 6dbd f54e 84bd 0ff5 ce3d
00000080: 9641 373e 987c d83d 8029 6abd 6bd5 923e
00000090: 256f 323e c439 c7bc ba64 33be 7c10 593e
000000a0: 246f 133e 4d0b 883d dc97 20bd d569 533e
000000b0: 6748 c43c 3d2a 083e e818 433e 2a19 253e
000000c0: a561 05be 868b 233e f611 8a3c c38a 2e3e
000000d0: 0660 d93d b07f 013c 2fe7 af3b d868 333e
000000e0: 2694 433e a702 7cbb 2a0f 273e 5e11 343d
000000f0: 8a20 25bd e2ac 113e 6a14 083e d281 883d
-0.04771972 0.0766884 -0.10324824 0.16377243 -0.016222918 0.017573362 -0.03217459 -0.04855144
-0.04481615 0.16503678 0.15713736 0.03538662 0.25601846 -0.014841387 0.13072015 0.20806313
0.1474037 -0.029530466 -0.034468833 -0.049963716 -0.14968702 0.016286513 -0.11226296 0.08917195
-0.020626199 -0.107384704 -0.097846076 0.023679595 -0.07534308 -0.057952132 -0.06460372 0.10105335
0.17896113 0.10570639 -0.057168484 0.2867845 0.17425211 -0.024319537 -0.17518893 0.21197695
0.14397866 0.066427805 -0.039207324 0.2064584 0.023960305 0.13297363 0.1905247 0.1612288
-0.1302553 0.15971193 0.016854268 0.17045121 0.10614018 0.007903978 0.0053681354 0.17520463
0.19099483 -0.003845373 0.16314378 0.043961875 -0.040314235 0.14226106 0.13289037 0.06665386

fc4.weight f4 [1, 64]
00000000: ff29 c0bc cb97 a5bd 5665 c0be ae7f a13e
00000010: d208 cebc 97b2 20bf 691a 7bbc 1e9e a8bb
00000020: b03b c7b9 293b 913e e1e6 263f dbf1 25bf
00000030: 2afa cb3e c8a8 993b 5d02 d43e daa3 853e
00000040: a4cd 873e 579c 05be c525 7cbc a53d 7f3b
00000050: 9aaa bfbb 55cc c1bd cff1 123b 933a 3a3e
00000060: 59c3 9ebe 0e75 a1be 93dc dbbe a37f 2c3e
00000070: e92d 6ebe 16b6 2cbc 58a6 26bf f7cb af3e
00000080: 33fa f63d 7e6a fe3d 7b06 853b c9ea c53e
00000090: 477e 353e b327 9fbe 1f39 b0bf f819 a43e
000000a0: c7ec 913e 97a2 283e 641d 2abd df38 093f
000000b0: a327 73be 58aa 8c3e bc13 0d3f 2bd2 373f
000000c0: 4640 ac3c b27d 4f3e e995 57bf f097 823f
000000d0: 7f5d 623e a226 8d3a 0835 54be 95a6 8f3e
000000e0: 4f8d 653f 2c3f 71be ced7 3b3e 1e23 b0bc
000000f0: dc2b 4d3c 9c2a 793e 3e8f 8d3e 7eb3 d53e
-0.023457525 -0.08085593 -0.37577313 0.31542724 -0.02515069 -0.62772506 -0.015326121 -0.005145802
-0.00038000708 0.28365448 0.65196043 -0.6482217 0.39839298 0.0046893097 0.41408053 0.2610157
0.2652408 -0.1304792 -0.015389864 0.0038946655 -0.0058491947 -0.09462801 0.0022421961 0.18186407
-0.31008413 -0.31534618 -0.42941722 0.16845565 -0.23259701 -0.01054146 -0.6509757 0.343353
0.120594405 0.124226555 0.0040596104 0.3865569 0.17723952 -0.31084976 -1.3767432 0.32051063
0.2850096 0.16468273 -0.041531935 0.53602403 -0.23745589 0.27473712 0.5510824 0.71805066
0.021026742 0.20262793 -0.8421312 1.0202618 0.22105978 0.001076896 -0.20723355 0.2805678
0.89668745 -0.23559254 0.18344042 -0.02150112 0.012522664 0.2433266 0.27648348 0.41738504
