Actor-Critic/PyTorch-ActorCriticRL/Models/100_critic.pt (torch_old, 270303 bytes, 9 tensors)

fcs1.weight f4 [256, 3]
00000000: 545a 80bc 11cd b9bc 005d 7abb 04ae 1cbd
00000010: 581f 923c 90eb d3bb 4f64 b73e e2ff 08bf
00000020: 49b3 31be 2025 9fbc 8474 313d 500d b23c
00000030: ee6b 4b3d 08b2 6a3d 1023 b4bb cb81 96bc
00000040: 0079 463a 7830 0d3c 3acd 543e 9778 90be
00000050: 2a4e 97bc 185a 69be a61e 6dbd 188a 01bd
00000060: 4628 623d 4a27 b13d 203a 2d3e 4621 cd3e
00000070: 27fe 0abf b08c 8bbd 8783 7ebe c3b2 29be
00000080: 7116 72bd d2d8 4fbd 09c0 dfbc c4f6 003d
00000090: cf00 5abe 56c5 1a3d 9c1d 203d 4798 11bd
000000a0: c37b ee3e 2b9b d33d 7855 e7bc ead5 15bd
000000b0: de29 083d 3c2a f0bc ce80 8f3c 8a53 08bd
000000c0: 689e 983d e8f0 a4be 8bed cabd 8d76 0c3e
000000d0: 4ec9 803e ed77 43bd 6c8e 90be 3f60 793d
000000e0: c487 61bc e32a c8bd 071c b7be c30d a4bd
000000f0: 2ee6 f83e 6323 03be 8212 023e cafb 3dbe
00000100: d9f2 10bc b12b cf3d ab5c 4f3d deac 07bd
00000110: 0c07 22bc e73f e8bd 1166 a43e 81ee 9f3d
00000120: 89f9 3ebe f9ba 82be fe19 6dbd 4dd3 093f
00000130: 78ce 67be 2816 9c3d b9e6 46bd fc6b 8f3e
00000140: beee 9a3d 3572 623e 0136 13bf 6647 bebd
00000150: eb2f 2a3e b82a 2a3d f712 d5bc 506a e9bd
00000160: 0914 163e b570 37bd f66c 6d3d cc50 62bd
00000170: a006 abbb d8e4 e33d c05b 39be b620 5cbe
00000180: bf3e 5abe 9b37 823e 79f6 883d 2431 92be
00000190: e5d5 80bd 8267 163c 14b5 3dbd 474a 1cbd
000001a0: d468 5a3c 1927 4e3f 113f 87be 3a55 8cbe
000001b0: eaa4 c7bd 2687 f3be 94b1 b1bd 0bc1 383f
000001c0: c4f7 05bf 16a8 f0bd c70d dbbd 5563 7cbe
000001d0: 3d3d 4ebc 82e2 913e 42ee 253f bba9 1f3e
000001e0: dc3d 5abc 349c abbc 611e b1bc c1c1 653e
000001f0: 6fdf 3abe 3198 dfbc 0e49 38be 6871 d83c
00000200: 22bd 083d 68cb 90bd f05d 2cbf 4007 633d
00000210: be2f 573d 62a1 273e cfe1 55bc c677 67bd
00000220: 7019 7fbd 147e e43c e857 e8bc 946d 4a3d
00000230: d0ff 4b3d 6d73 833d dccf 45be 7465 aabd
00000240: 1ccb e2bd 7601 aa3e dedb 823d 0dbb 5e3e
00000250: e70a aebe 208d d5bd 44fd 5abd 6710 a5bc
00000260: f350 cfba 8ecd 5fbd f847 adbc b000 783c
00000270: d843 753e fc66 8fbe 0009 223c cfed fe3d
00000280: 35e9 13bf 1ec7 d1bd 9594 cf3e d3af e93e
00000290: f44c f53d 830a 173a 5e86 4a3d 5edc e63b
000002a0: 04d0 cd3c b87f d93c de87 f8bc 51d6 6ebe
000002b0: c3ba bf3d 96b5 4cbd 2615 a43d 32ad 7b3c
000002c0: 2b96 82bd 90ba 84be 5bc4 79be 9b52 84bd
000002d0: 0861 d2bd 9ff2 a4be 465b e4bd fcb7 72bd
000002e0: 6e60 6c3d 6046 94bc 1b7f 0abe 0079 10bd
000002f0: 4fa0 00bd 589c 2c3f 96d3 3c3f 55d2 6e3e
00000300: b92e 6fbe 15d3 803d 93ed 91bc dd31 f1bd
00000310: 648e cfbe 65de b7bd a146 973c 5631 60be
00000320: 4cbd 8ebd aec7 0e3d a10b d6bb 2a22 08bd
00000330: ce03 803b 1fd0 0e3f e3a8 cd3d 5a0a 97bd
00000340: 23e5 863e f20e 8cbe c7b1 103d 4d5e 963c
00000350: a690 a23e 464a 7cbe efb4 e2be e861 8ebd
00000360: cd5e 91be e43a 8c3e 4d89 93bc 1cc4 b4bc
00000370: e43b ecbc 8ac0 223d 5664 f43e d0da 163f
00000380: 08bc 1a3e 00d3 1cbd 11ff 943c 3f6a a5bb
00000390: b093 163d c655 793e 33da f93d 22cd 393e
000003a0: 8630 e2bc f141 8fbc 87a7 36be c160 68be
000003b0: 8b46 84bd acc6 76bd c094 47bd 4b99 32bd
000003c0: 3e1f 58be 6d69 dd3d cd14 693d f7a7 32be
000003d0: 19fe 9f3e 6dd1 af3d a61e 91bd 8a0d 10bf
000003e0: 6261 953a 67e7 323e aafe 94be 1d1b a0bd
000003f0: c02d fa3c 981c 993c 789a f93c c02e 843b
-0.015668072 -0.022680791 -0.0038202405 -0.03825189 0.017837211 -0.00646729 0.35818717 -0.53515446
-0.17353548 -0.019426882 0.04332401 0.021734864 0.049663477 0.05729869 -0.005497344 -0.018372437
0.0007571131 0.008617513 0.20781413 -0.28217003 -0.018469889 -0.22788274 -0.057890557 -0.031625837
0.05521419 0.08650072 0.16916704 0.40064448 -0.54294056 -0.068139434 -0.24854861 -0.16572098
-0.059103433 -0.050743885 -0.02731325 0.031485334 -0.21289371 0.03778585 0.039090738 -0.035545614
0.46578798 0.1033233 -0.028238997 -0.036580957 0.033243053 -0.029317014 0.017517474 -0.033282794
0.074520886 -0.32215047 -0.09908589 0.13717099 0.25153583 -0.047721792 -0.2823366 0.060882803
-0.013765279 -0.09773805 -0.3576357 -0.08010437 0.48613113 -0.12806468 0.12702373 -0.18553081
-0.008846962 0.10115755 0.050625484 -0.033123843 -0.009889375 -0.113403134 0.3210912 0.07809163
-0.18649878 -0.25533274 -0.057886116 0.53838044 -0.22637355 0.076214135 -0.048559878 0.28012073
0.07565068 0.22113879 -0.5750428 -0.09290962 0.16619842 0.041544646 -0.02601002 -0.113972306
0.1465608 -0.04478522 0.05796524 -0.055252835 -0.0052192956 0.11127633 -0.18101406 -0.21496853
-0.21312998 0.2543305 0.06687636 -0.28553116 -0.06290797 0.009179952 -0.046315268 -0.038156774
0.013330657 0.8052841 -0.26415303 -0.27408773 -0.09748252 -0.47564048 -0.086764485 0.7216956
-0.52331185 -0.1175081 -0.10695987 -0.24647267 -0.0125878425 0.28493124 0.6481668 0.15592091
-0.0133204125 -0.020948507 -0.021620931 0.22437192 -0.18249296 -0.02729425 -0.17996618 0.026421264
0.033383496 -0.07070047 -0.6733084 0.055426836 0.052535765 0.16370156 -0.013054325 -0.05651071
-0.06228012 0.02789215 -0.02836223 0.049420908 0.04980451 0.064185 -0.19317573 -0.08320132
-0.11073896 0.3320424 0.063895926 0.21751042 -0.33992693 -0.10427308 -0.05346419 -0.020149423
-0.0015816971 -0.05463939 -0.021152481 0.015136883 0.23951662 -0.28008258 0.009889841 0.12447702
-0.5777772 -0.10243057 0.40543047 0.45641956 0.11977568 0.0005761759 0.04944455 0.007045313
0.025123604 0.026550159 -0.030338224 -0.23323943 0.09361794 -0.04997786 0.08011846 0.015361117
-0.063762985 -0.25923586 -0.2439131 -0.06461068 -0.102724135 -0.32216355 -0.111502215 -0.059257492
0.05770915 -0.018099964 -0.1352505 -0.035271645 -0.031402882 0.6742606 0.73760355 0.23322423
-0.23357667 0.06290261 -0.01781348 -0.11777089 -0.40538323 -0.08977965 0.018466296 -0.2189382
-0.06969699 0.0348584 -0.006532148 -0.033235706 0.0039067036 0.5578632 0.10041978 -0.07375021
0.26346692 -0.27355152 0.03532579 0.018355513 0.31750983 -0.24637708 -0.44278666 -0.06952268
-0.2839264 0.2738868 -0.018009806 -0.022066168 -0.028837152 0.0397344 0.477328 0.5892763
0.1511079 -0.038287163 0.018188031 -0.005048066 0.03676194 0.24349126 0.12199821 0.18144658
-0.027611028 -0.017487498 -0.17837344 -0.22693159 -0.064587675 -0.060248062 -0.048725843 -0.043603223
-0.21105668 0.10811124 0.056904603 -0.17446886 0.3124855 0.08584867 -0.07085924 -0.5627066
0.001139682 0.17471085 -0.29100543 -0.078176714 0.030539393 0.018690392 0.030469164 0.0040338933

fcs1.bias f4 [256]
00000000: 9e2e c9be d887 3abe b075 03bf 168f 8dbe
00000010: 92d1 0abf 803c 36be eb04 af3e 94b5 2c3e
00000020: aaba 043f 01dd 08bf b3f9 283e 6627 acbe
00000030: 3aec 3b3e f4b1 d0bd b4ae cfbe 0251 adbe
00000040: 174a 3d3e 570a a33e 8e37 5c3d 8b2c 513e
00000050: 9dcf f1be 1c4e e33e 83e3 b2be 4719 5d3c
00000060: 5f3e c53d 8da9 02bf ad84 04bd 9acb 863e
00000070: 87c4 9b3e 3cbc 8b3e 291c 9ebe 3447 263e
00000080: 5223 df3d 8aa1 e9bd 8b7e 83be 99b7 71bf
00000090: 2a64 ccbd 05ef 56bf 664c c53e ba33 983e
000000a0: 4935 7cbe 9734 8f3e c974 203e 8778 0f3f
000000b0: a509 dd3e 9b4d f7be 09bd fbbe 67ab 103f
000000c0: 6fcb de3b f0fc 933e 2050 d5bd e065 00bf
000000d0: 7468 0c3f ebee a03e 90ac 0a3f ab6d 45be
000000e0: 007e e3be b869 863e 779e fa3e 0150 093e
000000f0: dcb2 033e 9c02 6dbe fe6b e73e 430f 293e
00000100: 0623 4bbe 3a6f 643e a469 143f 75f6 ffbe
00000110: f6c7 b4bd 1942 fb3e 7460 fc3c 3bf7 093c
00000120: c68a 113b c5a5 02bf 2d8e a13e c69a 19be
00000130: a7e6 ec3e 70df 803e 4c74 8a3d 8432 ebbe
00000140: c5b0 283e 15f0 833d e1c5 e4bd 62a7 863d
00000150: b4e7 95be 9266 07bf a8c1 cdbe 9a54 31bc
00000160: ad48 303e 6c2e 60be b9ad d23d 5c5f db3e
00000170: 1c97 bdbe fcaa 013f 6d60 fdbe 08f7 54bd
00000180: 8d74 dabe e0fd b53e 0841 c4be 6e61 0b3f
00000190: 2409 a1be 060d 0d3e 7d36 a93e ae42 e2bc
000001a0: 6da3 d43e 883f 453e 78ad 723e 1bc6 32be
000001b0: 5c6e 003f d378 02bf ffa9 393c 72a6 f43e
000001c0: 9827 0ebe 5dee e3be 9232 1ebe e167 b03d
000001d0: 7e2e 85be 01b7 2fbe d3ca be3e 2e51 f8be
000001e0: 3ef0 be3e c4db bd3d 4264 8e3e bae3 a53d
000001f0: 4602 103f be42 c7be 0876 0abf bdc6 803e
00000200: a320 063f bb50 debd 9422 dc3e 8ef5 fcbe
00000210: 3ab1 d8be 30a4 38be 1606 7a3e 5561 783d
00000220: 78a1 0dbf 4625 b1be 177d 07bf f534 8f3e
00000230: 6a38 ab3e e160 d93e be80 a0be 98c7 f6be
00000240: 9e49 c23e e4da 37be a270 da3d 8e84 923e
00000250: 4554 873d c7ab 0e3f c829 373e adf6 783d
00000260: c69c eebe 6559 dc3e 7aca f6bc 7463 cf3e
00000270: 6e4a b73e 1245 f5be b798 a93d fa8a 1d3e
00000280: e812 be3d 4468 fc3e 05ef 2f3e 0f53 883d
00000290: e328 e1bd 03de 243d ab4f 83be 26e1 e0be
000002a0: 1509 dc3e 281d 773e 6a4d 873e 410c e33b
000002b0: 78ee d4be 27eb 0ebf 52f7 b0be 7e18 8d3e
000002c0: b1cd b33d 15df 12bf b031 0cbf a968 033e
000002d0: 9c6d 28be f2b0 84bd 4e2b e8be 103e f03d
000002e0: 8b44 8e3e 54fd 14be fc84 edbe 75cf 353e
000002f0: fd01 3dbe 68bc ddbe dd76 563e 56ea 093e
00000300: 2a10 873e 29ea 04bf 8af4 15be 8322 143e
00000310: 5240 01bf 39ac 9b3d d186 55be 8d6f f7be
00000320: f64d 633e b4a0 b3be 9ae1 30be a308 fbbd
00000330: 3433 d5be 9a36 fa3d 6723 af3d 55fd 76be
00000340: d3fb a03e d3ff 9cbe 65d1 a13e 3e84 943e
00000350: aefb cbbe 6350 aa3e dde6 f6be 596d d23e
00000360: 0ffd 223e 1458 f83d 8260 ee3e 57b2 0b3e
00000370: 1997 0fbf 4a72 82bd d275 1cbe f2f5 913e
00000380: f37c 2a3e 8f9a f53d cdda 713e b85f 503e
00000390: 24a9 29be 56e1 00bf 30bd 8e3e 153b 10be
000003a0: dbac d83e a9a3 013f febf f8be fc0c b03e
000003b0: 03be 443e 1016 533e 7acf 8a3e b6eb fabe
000003c0: 3245 e7bd 5297 01bf 7f08 923d 9993 e13e
000003d0: 5fe5 d8be 70c6 e6be aeb7 1fbe d2ba 8e3e
000003e0: 25c3 8bbc c231 5fbe bbc7 11bf e554 f9be
000003f0: 596b 663d 96df 56be 4b94 ee3e e0fc d13e
-0.3929338 -0.18215883 -0.5135145 -0.27648228 -0.5422603 -0.17796516 0.3418344 0.16866142
0.51847327 -0.53462225 0.16501503 -0.3362381 0.18351832 -0.10190192 -0.40562975 -0.33850867
0.18485294 0.31843826 0.05376392 0.20427148 -0.4722871 0.4439553 -0.34939203 0.013494796
0.09631037 -0.51039964 -0.032353092 0.2632721 0.30423376 0.2729205 -0.3088086 0.162381
0.10895409 -0.11407764 -0.25682482 -0.9442077 -0.09980042 -0.83958465 0.3853485 0.29726964
-0.24629702 0.2796981 0.1566955 0.56043285 0.4317142 -0.48301396 -0.4916766 0.5651154
0.0067991535 0.28903913 -0.10415673 -0.5015545 0.5484688 0.3143228 0.5416956 -0.19280116
-0.44432068 0.26252532 0.48949024 0.13409425 0.12861198 -0.23145527 0.4519958 0.16509728
-0.19837579 0.22308055 0.57973695 -0.4999272 -0.08827202 0.49073866 0.030807711 0.008420761
0.002220796 -0.51034194 0.31553784 -0.15000448 0.46269724 0.2517047 0.06760463 -0.45936978
0.16473682 0.064422764 -0.11170555 0.065748945 -0.29278338 -0.52890885 -0.4018681 -0.010823393
0.17215224 -0.21892709 0.10287041 0.4284619 -0.3702935 0.50651526 -0.4948763 -0.0519934
-0.42667046 0.35545254 -0.38330865 0.5444554 -0.31452286 0.137745 0.33049384 -0.027619686
0.41530934 0.19262516 0.23698986 -0.17458384 0.50168395 -0.50965613 0.011332034 0.47783238
-0.13882291 -0.44517794 -0.15448979 0.08613563 -0.26012033 -0.17159654 0.37264118 -0.48499435
0.37292665 0.092704326 0.27810866 0.08100076 0.5625347 -0.38918108 -0.5408635 0.25151625
0.5239355 -0.10855242 0.4299513 -0.49406093 -0.42322713 -0.18031383 0.24416384 0.060639698
-0.55324507 -0.3459875 -0.52925247 0.2797009 0.33441478 0.42456725 -0.31348222 -0.48199153
0.3794679 -0.17954594 0.10666014 0.28616756 0.0660787 0.5573086 0.17887032 0.060782123
-0.46603984 0.43036953 -0.030125845 0.40505564 0.35798973 -0.4790426 0.08281081 0.15385047
0.0928095 0.49298298 0.17181022 0.06656467 -0.10994127 0.04025079 -0.2564672 -0.43921775
0.4297568 0.24132216 0.2642625 0.006928951 -0.41588187 -0.55827564 -0.3456369 0.2755775
0.08779467 -0.57371646 -0.5476332 0.12832893 -0.16448063 -0.06479062 -0.4534554 0.117305875
0.2778667 -0.14549762 -0.46390522 0.1775492 -0.1845779 -0.43307805 0.2094378 0.13468298
0.2637952 -0.519198 -0.14644065 0.1446629 -0.5048877 0.07601208 -0.2085221 -0.48327294
0.22197708 -0.35083544 -0.1727356 -0.12257507 -0.41640627 0.12217446 0.08551674 -0.24120076
0.31442127 -0.30663928 0.31605068 0.29007143 -0.39840454 0.33264455 -0.4822301 0.4109905
0.15916847 0.121261746 0.46558005 0.1364225 -0.5608993 -0.06369455 -0.1527932 0.28507954
0.16649227 0.1199237 0.23618622 0.20349014 -0.16568428 -0.50343835 0.27878714 -0.14085038
0.42319378 0.5064035 -0.48583978 0.34384906 0.19213109 0.20613885 0.27111417 -0.49007958
-0.11292495 -0.5062152 0.07130527 0.4405792 -0.42362496 -0.4507327 -0.15597412 0.27876908
-0.017060826 -0.21796325 -0.5694539 -0.48697582 0.05625472 -0.20983729 0.46597514 0.4101324

fcs2.weight f4 [128, 256]
00000000: a0b0 41bd 4232 5bbd d649 edbe 457e 4dbd
00000010: 9a36 8cbd 6cdb 1cbd 8ebe 9abc 4701 683e
00000020: 48bd 3abd 07fc 833a 128a 373e 6403 9f3c
00000030: 77aa 2b3e eeb4 07b9 4629 37bd 036b 83bd
00000040: 1ebc 63bd e075 97bd 4662 7f3e a4dd c93d
00000050: aead ad3e 769d 3b3e eba7 933d 1b78 93bd
00000060: 16ca 2f3e 5867 85bf 2d95 7bbc 86a7 913d
00000070: 228a 7ebd 99da 343d 923b 1e3d 30a1 75be
00000080: c0e7 eb3d 12ed 8d3e bbef d9bb 3779 b7bf
00000090: 3264 1e3e 5876 5ebf 0aa6 c03d bb46 fbbd
000000a0: 64f0 c63d 670a 333d 1598 d93d 621e 343e
000000b0: ecb6 f3bc 293b 8f3d 2cc5 063d 7472 d13d
000000c0: 7058 1d3d d8e3 9a3d d644 193d 7a87 fcbc
000000d0: c1fc b43d 6c7c f63d 36ea 32bd 94b9 8ebd
000000e0: 98e6 953c 4851 453e a31c 983d 44a2 9a3e
000000f0: 0b34 b7bc aa0d 123d 645c de3d 9d33 c7be
00000100: 5702 073f 1bae fa3d 1d66 7e3d 0072 5fba
00000110: f948 24be 0697 8ebd ee2a 0abe 90d7 e23d
00000120: d575 0f3e 90df af3c ef46 36be fe83 863d
00000130: cddd e33c e389 553d a57d 093e 3e91 72bd
00000140: 022a e03d d505 b63d 86ef 6a3e dab7 ccbd
00000150: 7a63 013d b23d 4dbd 6a72 a7bd 5ebb 8b3d
00000160: d4dd 0cbb f9d7 2bbd 0dd6 d53d d5c8 8a3d
00000170: c05c 943a 7dc9 12bc 19d1 71bd 24fc cb3c
00000180: 44fd dabc 273c fcbc bf7a 95bd 7a54 5c3b
00000190: 36bf 653d b3e9 e53d 9da9 b53d c453 d73d
000001a0: 659f 83bd 762c d43d 1ec7 8cbe cb12 9e3e
000001b0: 39b8 153c 8156 433e 56c6 90be 4937 8c3b
000001c0: c1e4 443e 776b 873d fa41 bcbc 92c8 f7bd
000001d0: a4ae b33d 2d0b 10bd 1047 89bd 1bb7 a0bc
000001e0: bbf5 7f3c d74a b33d 383b 95be 83d9 2b3e
000001f0: 965c 0e3e e03a 80bc 348c 3cbd 5cb2 723d
00000200: 81d5 6e3c b9d9 363e 4f53 b93d 70a4 903b
00000210: ea66 343d c08c b83c b0cb 813d 2a17 55bd
00000220: f8a8 01bc 0c65 e03c 333e 84bd 2065 0cbd
00000230: 3e66 7cbe f883 f6bc bee7 91be 7e55 4abd
00000240: 6d3e 2a3e aebc 5b3d f09b b4bc f504 aabd
00000250: 358c 353e c49b 6abd 47e0 ee3b b497 81be
00000260: 6119 b93d 053a 833d a09e 88be a75d 32bb
00000270: 7ef3 363e e067 0d3c bd56 4c3e 18cc 1b3d
00000280: aecd 5d3d af3d c63d 1e0c 3abd 3889 0ebe
00000290: fdf7 463d 6588 f93d d8f4 c2bc 206d 0b3c
000002a0: 08a0 a8bc 09cd 80bd 34ab 363e 7677 5f3d
000002b0: 3dff a13c 9e6c 223c c84a 43bd d705 4cbe
000002c0: adf0 53be af0f 953d 0941 8a3c 0144 103e
000002d0: 4c45 54be 2ae9 fe3c 144f 17bd 6116 593d
000002e0: da96 d3bc 680b efbc 6da1 aabd 77ad 403e
000002f0: 7874 abbb 7a36 9ebd 4f28 8d3e 0558 283e
00000300: b414 c23c 4020 1dbc b7b6 77be 8176 6f3e
00000310: d288 733d 712f 213e d55c 5cbd 9a4c 553d
00000320: 2922 9f3b d54c edbc 0f31 a03d 316b 0cbd
00000330: bfc8 7cbe dadb ecbd 3afc 33be e45b aa3d
00000340: bc05 0f3e 47c9 8a3d 7cc3 f33d ec1d 153d
00000350: 7a71 423d aadc 183d 141a c5bc 145f fc3d
00000360: d616 2f3e e0c8 443e de1c eb3d e685 1abe
00000370: 3054 96bb 60f5 acbc 5155 ae3e 742a 3a3e
00000380: efe3 823d ef86 2c3d 739d eb3d 79e5 89be
00000390: 4d2f 403e 5925 04bd d23d f3bd a31d f73d
000003a0: 8614 8a3d 7eab 253d 1ca5 9cbc b689 863d
000003b0: 3dad 80be 360a 5a3d afd4 1b3d 9bfa 8a3d
000003c0: 3081 633c 4cdc 833b 8e7f 3d3e 5e19 133e
000003d0: 9e75 1a3d 5db4 b439 6eba 05bd e7ac 80be
000003e0: 0740 aabd ebc6 74bd 43f1 15bc a101 0fbf
000003f0: a490 cb3c e546 7dbd 9a82 eb3d a87b e6bb
-0.047287583 -0.053514726 -0.46345395 -0.050169248 -0.06846352 -0.038295195 -0.018889692 0.22656737
-0.04559067 0.0010069617 0.17923763 0.019410796 0.16764246 -0.00012942005 -0.044717096 -0.06416895
-0.055599324 -0.0739553 0.24939832 0.09856728 0.3392157 0.18321785 0.07209762 -0.07200643
0.17166933 -1.0422163 -0.0153553905 0.07112031 -0.062143452 0.044153783 0.03863103 -0.2398727
0.11518812 0.27719933 -0.0066508926 -1.4333867 0.15467909 -0.8689933 0.094066694 -0.1226935
0.097138196 0.043711092 0.106247105 0.17589715 -0.02975031 0.06993706 0.03290288 0.10226908
0.03841442 0.07562989 0.037419163 -0.030826319 0.088372715 0.1203545 -0.043680392 -0.0696899
0.018298432 0.19269288 0.07427337 0.30201924 -0.022363683 0.035657562 0.10857466 -0.38906565
0.52737945 0.12240239 0.0621091 -0.0008523762 -0.16043462 -0.06962399 -0.13492939 0.110762715
0.14009793 0.021468908 -0.17800497 0.06568144 0.027815724 0.052133452 0.13426836 -0.059220545
0.10945512 0.08887831 0.22942933 -0.099960044 0.03158901 -0.050107665 -0.081761196 0.06822847
-0.0021494525 -0.041954014 0.104412176 0.06776587 0.0011319146 -0.008959171 -0.0590373 0.024900503
-0.026732095 -0.030790402 -0.072988026 0.0033619688 0.056090556 0.11226215 0.08870242 0.10514024
-0.064268865 0.10360043 -0.27495664 0.30873713 0.00913816 0.19075967 -0.28276318 0.0042790514
0.19227888 0.06612294 -0.022980679 -0.120988026 0.087735444 -0.035166908 -0.06703007 -0.019618561
0.015622552 0.08754509 -0.29146743 0.16782193 0.13902506 -0.015653074 -0.046032146 0.059252128
0.0145772705 0.17856492 0.09049093 0.0044141337 0.04404346 0.022528052 0.063376784 -0.052024044
-0.00791382 0.027391933 -0.06457176 -0.034276128 -0.24648377 -0.030092224 -0.28497118 -0.049397938
0.16625376 0.053646736 -0.022047013 -0.08301727 0.17729266 -0.057277456 0.0072899195 -0.25311053
0.09038044 0.06407551 -0.2668352 -0.0027216466 0.17866322 0.008630723 0.19954963 0.038036436
0.05415123 0.09679734 -0.045421712 -0.13919532 0.048576344 0.12184218 -0.023798391 0.008509904
-0.020584121 -0.06289107 0.17838746 0.054557286 0.019775027 0.009913592 -0.04767874 -0.19924103
-0.2069728 0.07278382 0.016876714 0.14088441 -0.2072956 0.03111704 -0.03694065 0.052999858
-0.025828768 -0.029180244 -0.08331571 0.18816172 -0.00523239 -0.07725234 0.27569816 0.16439827
0.023691513 -0.0095902085 -0.24190794 0.2338505 0.059456654 0.15740754 -0.05379947 0.052075006
0.004856367 -0.0289673 0.07821857 -0.034281913 -0.24685954 -0.11565371 -0.17576686 0.08318308
0.13967031 0.06776672 0.1190252 0.03640549 0.0474715 0.037319817 -0.024060287 0.12322822
0.17098555 0.19217253 0.11480115 -0.1509014 -0.0045876727 -0.021113098 0.34049466 0.18180257
0.06391131 0.04212087 0.115046404 -0.26932886 0.18768044 -0.03226218 -0.11877026 0.120662
0.06742196 0.04044675 -0.019121699 0.06569235 -0.2513217 0.053232394 0.038044628 0.067860804
0.013885781 0.004024064 0.1850569 0.14365146 0.037709825 0.00034466657 -0.032648496 -0.25131914
-0.083129935 -0.059760015 -0.00915176 -0.5586186 0.024849243 -0.06183519 0.1149952 -0.007033784

fcs2.bias f4 [128]
00000000: 9b3e cd3c f14f 813c 802d f23d 3842 33bd
00000010: 7f23 883d 6498 423d 1faf a33d 6edd 3e3d
00000020: 9286 10bd 1c44 3e3c 6b6f 2a3d ccc4 163d
00000030: 6de0 ac3c 52fd 7fbd 8b17 773d df9a c0bd
00000040: 4291 713d 48c1 323c c44f c4b8 99ca cabc
00000050: d018 5bbd 0793 9f3d fb24 2bbc 3ce3 b43c
00000060: ba8c b6bd 5c05 f4bb 8aa8 43bd f477 33bd
00000070: 913b 6a3d 3c88 a0bd 3816 8a3c f0a4 9abc
00000080: cec3 793d 929e f73c 697c afbd cb01 893d
00000090: 7085 5f3d a293 773d 8ff7 413d 56f1 f83c
000000a0: c71e 8d3d 16ee e53b f101 39bd 3b72 b2bd
000000b0: e3c2 3c3c ed34 90bd dd80 2bbc 1a67 033d
000000c0: 4f31 a33d 7077 c83c b75c a4bc c5cc 05bd
000000d0: ccc2 013d 3a44 81bd 5d2b e13c f023 a5bc
000000e0: 3734 11bc aa44 4d3d 7aa8 a7bc 7cbf e33c
000000f0: a6be a2ba 8d64 6bbd 018d 7f3d 5928 4cbd
00000100: 210a a83c 4020 e43c 640c b4bc 32f7 443d
00000110: 76f1 083d de50 2fbd 31e0 743d 683d f1bc
00000120: c8ef aebc 9261 3e3c 1810 62bd f8c0 4abd
00000130: 7d1d 203c de40 d0bd dd37 db3c 95b0 c3bb
00000140: 4e72 8bbc 7019 d7bd d5b5 e93c 005e 65bb
00000150: 3358 00bc d3f1 583d 6e55 b63c 7c72 13bd
00000160: 849b 34bd 40d3 0a3d 69b4 803d 65b0 98bd
00000170: 3c27 8dba 1483 f73b a2c4 603d 18f6 003d
00000180: b292 f33d 6948 983d 4f32 983d 1303 a0bc
00000190: c3d6 93bc bf4d 91bc 0e23 983d f449 ad3d
000001a0: 724a 7e3d f359 b3bc 268b 99bd 2e31 833d
000001b0: a248 a8bd 6583 353d c893 133d 4d76 3f3c
000001c0: 72d7 6ebd f0d8 1ebd 3c8a 75bd ddaf 63bb
000001d0: 1fc0 e83d 1abf 283d 35da 84bd a94f 8fbd
000001e0: e8cd 7abc 98f7 12bd 78ee 54bd de4d c9bc
000001f0: c993 13bd 60b9 29bb 938b bebb 59eb 053d
0.025054267 0.01578519 0.11825085 -0.043764323 0.06647395 0.047508612 0.07992386 0.04659789
-0.035284586 0.011612918 0.041610163 0.036808774 0.021103108 -0.062497444 0.060325187 -0.09404539
0.05897642 0.01091034 -9.360866e-05 -0.02475481 -0.05349046 0.07791715 -0.010445829 0.02208101
-0.0891356 -0.007446928 -0.047768153 -0.043815568 0.057185713 -0.07838485 0.016856298 -0.018877476
0.06097775 0.03022698 -0.08568651 0.06689795 0.054570615 0.060443528 0.04735523 0.030388515
0.06890636 0.0070169074 -0.045167867 -0.08713194 0.011521074 -0.07041345 -0.010467735 0.032080747
0.07968389 0.024471015 -0.020063741 -0.032665987 0.031679913 -0.06311841 0.027486498 -0.020158738
-0.008862547 0.05011431 -0.020466078 0.027801268 -0.0012416437 -0.05746894 0.06239033 -0.049843166
0.020512642 0.02784741 -0.021978565 0.048087306 0.0334334 -0.04280173 0.059784118 -0.029448226
-0.021354571 0.011619942 -0.05519113 -0.049500436 0.009772656 -0.101686224 0.026760036 -0.005971978
-0.017022278 -0.10502899 0.028529087 -0.0034998655 -0.007833528 0.052964997 0.022257533 -0.035997853
-0.044093624 0.03389287 0.062844105 -0.074555196 -0.0010769139 0.0075534675 0.054875024 0.031484693
0.11893214 0.07435686 0.074314706 -0.019532716 -0.018046742 -0.017737268 0.07428561 0.08461371
0.062082715 -0.021893477 -0.074972436 0.06405865 -0.082169786 0.04431476 0.036029607 0.01168592
-0.058310933 -0.038781106 -0.059946284 -0.0034742274 0.11364769 0.041197874 -0.06486932 -0.06997616
-0.015307881 -0.035880655 -0.051985234 -0.024573263 -0.03602961 -0.0025897846 -0.0058149784 0.03269515

fca1.weight f4 [128, 1]
00000000: 9834 0abc 87b3 8cbd 1429 8abd 4f02 26be
00000010: 6e17 0a3d db0f f8be 385b 2b3c 38e1 c6be
00000020: 21bc 63be 1626 c43c 12c2 90bd 8319 573d
00000030: f066 a93b 3a10 463d 70f2 f0bb c5f4 55be
00000040: 11bc 80bd 3e42 93bd a462 813e feed 85be
00000050: 9298 70be 857b 19bd 7c98 1e3d cd86 8ebd
00000060: 8702 c5be a7d2 163e 2609 983e 3d99 603e
00000070: 4cbe 66bd 36f8 343e b017 5abc 5327 8bbe
00000080: c7a7 a13e ae2e 8cbd 09b5 16be 920e f73d
00000090: fe03 163d 405e b73a 432f 9e3d ba18 cabe
000000a0: 14e8 84bc 5a38 c73d ea01 86bd 14f9 113e
000000b0: a10a d03d 44c7 d4bc 2001 56bc 57a9 8ebe
000000c0: 7c52 f43c 57ff cabe cca1 8d3d 73c3 b53d
000000d0: 2b7c 673e 5042 56bc a3ce 223c fc07 a43c
000000e0: bb09 f23d b0a7 1bbc 0632 ecbc 3635 193d
000000f0: aee7 773e dfa0 a83d 5563 863d df5a cebc
00000100: 1db1 7d3e b093 d3bc f426 0fbd 0451 e6bc
00000110: 230e 553e d998 a23c f78e 7e3e 1a06 973e
00000120: 00b8 1dbb 2885 153c 6b5f 6c3c defd 0a3d
00000130: 38af ec3d 504c 5f3c 4018 89ba 6ff8 f2bd
00000140: 9d25 5e3d 4c3d 4cbd 00b4 7839 ecb2 80bd
00000150: 4a10 85be 6408 c5bd b4a1 033c a350 bbbe
00000160: ba70 623e 5ec9 953e 3170 883e 201f ae3c
00000170: 1421 f93c f4a3 9e3e ef0d 7c3e 36ea 143d
00000180: f39f 4b3d 8036 623b cc9c 403e 8f92 893d
00000190: a929 cdbe 9b6d a93b 4058 213b c502 743e
000001a0: 1c0f 513e b92f 4b3d 2afc 4dbe bb9d e9be
000001b0: 347b 46bd ccd1 b33a a014 5fbc 85d9 8b3e
000001c0: 6c2b 15bd ade4 8e3d e7e7 8ebd b0e4 793e
000001d0: 0ea5 873a 3491 34bd b1cf 803d 059a 88bc
000001e0: 18fa 04bc ad01 013e 607b ec3b 27c3 9b3d
000001f0: 23b7 9f3b 31d7 203e 03b7 8f3d 9072 a23c
-0.008435391 -0.068701796 -0.06746116 -0.16211818 0.03371375 -0.48449597 0.01045876 -0.38843703
-0.22239734 0.023943942 -0.07068266 0.052514564 0.005169742 0.04835532 -0.0073531196 -0.20894153
-0.06285871 -0.07190369 0.2527057 -0.26158136 -0.23495701 -0.037471313 0.03871964 -0.06959305
-0.3847849 0.14728795 0.2969448 0.21933456 -0.056333825 0.1767281 -0.013311312 -0.2717844
0.31573316 -0.06844841 -0.14717497 0.12063326 0.0366249 0.0013989881 0.07723858 -0.3947199
-0.016223945 0.09727545 -0.06543334 0.14255172 0.10158277 -0.025973924 -0.013061792 -0.2786357
0.029824488 -0.39647934 0.06915626 0.088751696 0.2260596 -0.013077334 0.009936961 0.020023338
0.11818262 -0.009500429 -0.028832447 0.03740426 0.24209473 0.08233809 0.06561915 -0.025189815
0.24774595 -0.025827259 -0.034949258 -0.028114803 0.20806174 0.019848274 0.24859224 0.29496843
-0.0024065971 0.009125985 0.014427046 0.033933513 0.11556858 0.013629034 -0.0010459498 -0.11863791
0.05423509 -0.049863145 0.00023718178 -0.06284127 -0.2598899 -0.09620741 0.0080341585 -0.36584958
0.22113314 0.29255193 0.26648095 0.021255076 0.03041128 0.3098446 0.2461469 0.036356173
0.049713086 0.0034517348 0.18809813 0.06717407 -0.40070847 0.0051705367 0.0024619251 0.23829181
0.2041592 0.04960606 -0.20115724 -0.4562815 -0.04845734 0.001371914 -0.013615757 0.27314392
-0.036418363 0.0697721 -0.069778256 0.24403644 0.0010348873 -0.04408379 0.06289614 -0.016675005
-0.008116268 0.12598296 0.007216856 0.07605582 0.0048741265 0.15707089 0.070173286 0.019830018

fca1.bias f4 [128]
00000000: e95b 793f a6ed 41bf 34cd 50bf 679e 0e3f
00000010: 870e 08bf 5322 ce3e 950f 2bbf 5131 e73d
00000020: ec50 eb3e a3b8 8ebe f241 44bf 6500 3c3f
00000030: c27d 3dbf 48b6 abbe 2ef0 e4bd 1dd2 d53e
00000040: 6efa 363f 98bf b2be f9a1 9bbd 2788 053f
00000050: 45bd ef3e 92c2 69be a52d a53e 2cb6 2cbf
00000060: c0fb 3e3f a27b 393f d2c3 313e 0732 df3e
00000070: 0411 3dbf a553 3a3f 4841 70bf 0bf7 0a3f
00000080: d57d 963e d035 bdbe 3a33 073f 9fea 1f3f
00000090: 5802 cbbe e09e 53bf 540b 3ebf e7fb 1d3e
000000a0: c816 06bf 94dd 283f 12cd 34bf a008 413f
000000b0: 02da 583f cb99 2f3f b05a 41bf 12a8 0c3f
000000c0: 4c70 4abf 559a ac3c 9731 eb3e 88f2 333f
000000d0: 3657 d43e 2847 c1bd c670 033f f214 20bf
000000e0: 42e2 df3e fa57 1fbf e873 0dbe e002 29bf
000000f0: 3167 6a3f 2116 26bf 3448 06bf bbdf 673e
00000100: 48fc 573f e2c9 52bf 684a 54be d8bb 86be
00000110: da86 5b3f 3a24 413f f63d 003f 2c07 c03e
00000120: bcbf 12bf 70de febd 9bc1 493f a848 bcbe
00000130: 32a5 233f b7db 79bf aa0d 21bf 6dea b13e
00000140: 304a a13e d4eb 23bf 9058 26be 08f3 19bf
00000150: 7616 5c3f 26a2 dd3e b4fe 08bf cc68 363f
00000160: 559a e03e 0215 acbe eb99 573e 5240 01be
00000170: eece 65bf cb62 163f 52ea 803f d835 5bbe
00000180: fe0d 4a3f 409a 65be 173c be3e 3004 0e3f
00000190: 8187 4b3f 4050 d0bd f002 8abd a4d6 f33e
000001a0: 3d15 d43e eb9a b53e 6141 283f db44 5b3f
000001b0: ba49 66bf 94e0 a1be ffe0 efbe 2ea5 f63e
000001c0: a168 773f 905f 61bf 2677 32bf 9959 8c3e
000001d0: a6be a2bc aea0 6ebe cc46 6bbf 56e8 e03e
000001e0: 3c46 91be 197b 7e3e 2e34 28bf 2476 3e3f
000001f0: e66a dd3e 7357 5e3f 14fb cdbe 48e2 90be
0.9740587 -0.7575325 -0.81563115 0.5571045 -0.53147167 0.40260562 -0.6682065 0.11288703
0.45960176 -0.27875242 -0.76663125 0.734381 -0.74020016 -0.33537507 -0.11178623 0.41761866
0.71475875 -0.349118 -0.07599253 0.52160877 0.4682409 -0.22828129 0.32261387 -0.6746547
0.7460289 0.72454274 0.17359856 0.43592855 -0.7385409 0.7278388 -0.9384961 0.5428321
0.29392877 -0.36955118 0.5281254 0.6246738 -0.39650226 -0.826643 -0.74236035 0.15428124
-0.5237851 0.659631 -0.7062541 0.75403786 0.84707654 0.68594044 -0.75529003 0.54943955
-0.790776 0.021069685 0.45936272 0.7029195 0.41472787 -0.094374 0.51343954 -0.6253196
0.4372731 -0.62243617 -0.13813746 -0.6602001 0.9156371 -0.64877516 -0.52453923 0.2264394
0.84369326 -0.823393 -0.20731509 -0.26315188 0.8575264 0.754459 0.50094545 0.37505472
-0.57323813 -0.1244477 0.78811044 -0.36774182 0.63923943 -0.97600883 -0.62911475 0.34749165
0.31501913 -0.6403172 -0.16244721 -0.6013646 0.8597177 0.43287772 -0.53513646 0.7125366
0.43867746 -0.33609778 0.21054809 -0.12622193 -0.89768875 0.58744496 1.0071509 -0.21407259
0.789276 -0.22422123 0.3715522 0.5547514 0.7950364 -0.101715565 -0.067388415 0.47624695
0.41422454 0.35469756 0.6572476 0.8565194 -0.8995625 -0.31616652 -0.46851346 0.48172897
0.96644026 -0.8803644 -0.69713056 0.27412108 -0.019866299 -0.23303482 -0.919049 0.43927258
-0.28373897 0.24851646 -0.6570462 0.7439902 0.4324562 0.86852187 -0.4023062 -0.2829764

fc2.weight f4 [128, 256]
00000000: bdd1 97bd 8b67 ab3d 88bf 38bd ba98 3e3d
00000010: 1333 c5bd 5014 25bd ecb8 a13c baa0 c3bd
00000020: 52a3 e9bd 8726 4b3d 6a49 cd3c 0a80 b1bd
00000030: ae7b 233d 101c 893d 6777 b7bd e07b 1cbb
00000040: 4d37 98bc 8d07 b0bd 4d53 05bd f1bd e03c
00000050: 4a10 94bd 6d0a edbc 0032 c8bc 8a11 4e3d
00000060: bcf3 34bd c832 003d 9a1d 3d3d 8af7 653d
00000070: 4180 93bd 3cf6 7f3d dddb 3f3b 3fe2 adbd
00000080: 0a48 57bd 2f00 d4bc d742 a3bd 327c 4dbd
00000090: 3203 233d 18b3 2f3b b4a8 d03c b7df 813d
000000a0: 78ca 933c 278c a5bd 8874 c7bc a801 5fbd
000000b0: 5bcf aa3d 5be2 9ebd 62d0 99bd 2cc1 ad3c
000000c0: 8ff6 d2bd c683 243c 4733 a8bd da94 fdba
000000d0: 947c bcbd e685 52bd 5d49 783c a5f9 89bd
000000e0: d4cf 6cbd b0e4 08bd 405a 643c 2e11 83bd
000000f0: 22a0 40bd cbf9 9ebd 5535 d1bd 7e43 80bd
00000100: fe48 3c3d 5003 2fbd c4d0 123d f79d 90bd
00000110: 1975 56bb 1f34 e83c 877a 123d fea3 163d
00000120: 8867 063d 0c47 d0bd 81c8 ccbc b7ba 883d
00000130: 39ab 13bd 32c1 73bb d6c7 84bd ddf7 ac3c
00000140: 336a 503d a2ba b1bd 98d0 cabb 3392 bbbc
00000150: e589 5b3d 818a a6bd 4cf4 c6bd 7766 ddbc
00000160: 1fe0 4cbd b0a2 8a3c e54a 34bd fb41 aa3d
00000170: c8a7 66bc 37ac 1abd fdc3 34bd d61c 5fbd
00000180: 18ca 24bd 8bfd 583d 61c3 9cbd 4fdc ca3c
00000190: 7ad1 60bd d813 2dbc 5928 4cbc 74cc a13b
000001a0: a75c 083c b491 c63c 4e71 753d ffe3 923b
000001b0: 10c2 a3bd 787d cfbc 7b5c 823d 4d3d aabd
000001c0: 9fd2 2dbd 291d 813d aae1 7c3d cf66 97bd
000001d0: 2c61 a0bc 8dcd 193d b2cc 8bbd e6ae 453d
000001e0: 66a4 5a3d 9a34 013d 4c24 a63c f8ca 213c
000001f0: 904c 86bb f796 8b3d 5622 86bd 6a3c 81bd
00000200: 922c 1f3d 1044 183c 8a2b 29bd 8fd4 66bd
00000210: 95de 53bd 58ea 723c 4683 2a3d 784d 133d
00000220: 963d dcbd 3881 29bd db62 9a3d 67b5 90bd
00000230: 06b5 403d 3b7f febc 840b e23c 9129 7cbb
00000240: d727 253d 723f 373d 7e52 d2bd 5a6a 963c
00000250: 6225 7e3d 8ce2 813c 88ca 2f3d ee68 343d
00000260: 2a06 0c3c 3c66 343d 00f5 08bb 9060 88bd
00000270: 602a afbd f86f 263c 799c 8d3d d62d a43c
00000280: e217 8bbd db4a af3d c0c4 12bd 75f5 dabc
00000290: f2cc 323d 5b60 a73d 93ff 6ebd 1d5b 85bd
000002a0: 2a82 87bd 53cf c5b9 6ad2 793d 7cce 043d
000002b0: cf31 c0bd 5d4d a2bd 95c0 51bd 0f90 e73c
000002c0: f9c5 423c 37c4 dd39 4180 13bd 2e33 b6bd
000002d0: bd5b e4bb 89d7 843d 3d22 5c3d 2091 613c
000002e0: e3fc eb3c c21b 473d 5ae4 743d d8b2 98bc
000002f0: edc5 6dbc 4ed3 423d 9f04 00bd 5146 80bc
00000300: 653e 0fbd 62b9 f33c fafd 763d dcda e53c
00000310: 62ac 27bc 01e0 68bd 9a23 8bbd d6df 5bbc
00000320: e0cd a8bb 87f2 9abd e329 cfbd c812 1ebc
00000330: 543b d0bd 6f57 3abd 0780 a5bd 02f4 81bc
00000340: 4204 e1bd d822 94bc 323a 693d 5e9d 3f3d
00000350: 0344 9fbd dc32 63bd 9861 24bd 74ce f63c
00000360: 22ff b0bb dd0a f83a 5164 c2bc fad6 81bd
00000370: 95e4 943d f880 1c3d 21cb 00bc a3c8 a43d
00000380: 7a38 73bd 2689 613d def1 ad3c e3de 293d
00000390: de8b a2bc a143 b03d 002b e5b9 2f38 aebd
000003a0: 43cf a93c d45b 0e3b 0c52 473c 1294 583d
000003b0: 3c26 cabc cd77 6d3d 40be 8dba fa90 8bbd
000003c0: 36b2 99bd f07d 033c f0e1 98bb 0c1e 97bc
000003d0: 3ea3 86bd de2f fcbc 814b ccbc 617a 4cbc
000003e0: 8840 2b3c cbb5 463d ece9 6bbd 08ca 88bd
000003f0: aac7 8bbd 7bf8 c4bd cbac 833d 59f9 933d
-0.07413051 0.08369359 -0.045104533 0.04653237 -0.09628882 -0.040302575 0.019741498 -0.095521405
-0.11408104 0.04959729 0.02505942 -0.08667 0.039912872 0.066948056 -0.08958321 -0.0023877546
-0.018581057 -0.0859519 -0.032550145 0.027434321 -0.072296694 -0.028935635 -0.024437904 0.050309695
-0.044177756 0.03129843 0.04617081 0.056144275 -0.07202197 0.062490687 0.0029275336 -0.08490419
-0.052558936 -0.025878994 -0.07971733 -0.05016727 0.03979797 0.002680963 0.025471069 0.06341498
0.01804088 -0.080833726 -0.024347559 -0.05444494 0.08340331 -0.07758018 -0.07510449 0.021210276
-0.103009336 0.010041183 -0.082129054 -0.0019346729 -0.09203449 -0.051397227 0.01515421 -0.06737069
-0.057815388 -0.03342122 0.013937533 -0.06399761 -0.047027715 -0.07762488 -0.102152504 -0.06262873
0.04596805 -0.04272777 0.035843626 -0.070613794 -0.0032723604 0.028345166 0.035761382 0.03677749
0.03281358 -0.10169801 -0.024997951 0.06676238 -0.036051963 -0.003719401 -0.06483428 0.021114284
0.05088253 -0.086781755 -0.006189417 -0.022896862 0.053598303 -0.08131886 -0.09714565 -0.027026398
-0.050018426 0.016923279 -0.044016737 0.08313366 -0.014078088 -0.037761893 -0.04413222 -0.05447086
-0.040231794 0.052976172 -0.07654453 0.024763254 -0.054887272 -0.010563813 -0.0124607915 0.004937703
0.008322871 0.024239399 0.05992251 0.0044827457 -0.07995999 -0.025328383 0.063652955 -0.083124734
-0.042437192 0.0630439 0.061738648 -0.07392656 -0.019577585 0.037549544 -0.06826152 0.0482625
0.05337944 0.031544305 0.02028098 0.009875052 -0.0040984824 0.06815904 -0.06549518 -0.06310351
0.038860865 0.009293571 -0.041301288 -0.056355055 -0.051725943 0.01482638 0.0416291 0.03596255
-0.10753934 -0.041383 0.075383864 -0.0706585 0.047047637 -0.031066528 0.027593382 -0.0038476924
0.040321197 0.04473824 -0.102696404 0.01836126 0.06204737 0.015855096 0.04291776 0.04404538
0.0085463915 0.04404281 -0.0020897985 -0.06659043 -0.08553004 0.010158531 0.069146104 0.020041388
-0.06791665 0.085591994 -0.035832167 -0.026728371 0.043652482 0.08172675 -0.058349203 -0.06511519
-0.06616624 -0.00037729237 0.060991682 0.03242348 -0.093845 -0.07924912 -0.05120905 0.028266935
0.011888021 0.00042298596 -0.036010984 -0.088964805 -0.006968944 0.064864226 0.05374359 0.013767511
0.02880711 0.048610456 0.059788086 -0.018639967 -0.014512521 0.047564797 -0.031254407 -0.01565853
-0.034971613 0.029751483 0.060300805 0.028058462 -0.01023397 -0.05685425 -0.067939 -0.013420066
-0.0051514953 -0.0756579 -0.10115411 -0.0096480325 -0.10167566 -0.04549354 -0.0808106 -0.015863422
-0.1098714 -0.018083021 0.056940265 0.046780936 -0.07776644 -0.055468425 -0.040132135 0.030127741
-0.005401508 0.0018924136 -0.023729475 -0.06339832 0.07270161 0.03820893 -0.00786093 0.08046081
-0.059380032 0.055062436 0.021233495 0.041472327 -0.019842084 0.08606649 -0.0004371032 -0.0850681
0.020728713 0.0021722214 0.012165558 0.052875586 -0.024676435 0.05797558 -0.0010814145 -0.068147615
-0.07504694 0.008025631 -0.0046656057 -0.018446945 -0.06574105 -0.030784544 -0.024938347 -0.012480349
0.010452397 0.048513215 -0.057596132 -0.066791594 -0.06825192 -0.096177064 0.06429442 0.07225294

fc2.bias f4 [128]
00000000: 9603 adbc 3060 92bc 0d95 98bd 7222 1bbc
00000010: 89ae 42bd aaa1 9c3d c7f5 2dbd 0a1f 1ebe
00000020: 70cc 6b3d 72c9 7e3c ce0e 06bc 8d74 ee3c
00000030: fc3e 113d 4009 12be 4d0a b5bd 2d10 853d
00000040: 49c2 d03b ebdd 73bd 76c8 f7bc 06b8 3a3d
00000050: be16 81bb 4119 01be c512 22bd 0056 433e
00000060: 21d9 163c a757 4f3d f615 d13d 9d03 ba3d
00000070: 271e 88bd e080 f53c 0e2e 86bd 242f 9bbb
00000080: 042d 78bd 7794 db3d 4a16 a93d 741b 9b3d
00000090: 0f85 c53d c2ca d83c 7a8b cd3d 38b3 e7bc
000000a0: 974d 4b3b df41 af3d 8f41 483d 2702 1bbe
000000b0: 7990 aabd 540a a93d c68f a2bd 37f6 963d
000000c0: 64ad 0bbc 68c2 ca3c aa02 08be cd59 2bbd
000000d0: 00fc 5dbb 743c 883d fe96 973d 2566 1c3d
000000e0: 461a 22bd 5096 4d3d a9ec 223d c989 833c
000000f0: b631 4c3d eb35 363d c3dc 8b3c 729d 833d
00000100: 4c36 4c3c 5cd2 f63b 6fc5 1dbc b398 293d
00000110: 79b4 b23d 9d0b 0fbe 87f3 bcbc f028 9d3c
00000120: 2d01 98bd c1af 72bd b63e 073d 9cdb 493b
00000130: 5f6e 87bc a756 e43c f992 333c d9a3 b13c
00000140: 7b3b 96bd 741d 5b3c 1aa1 b23b 6ba2 0cbe
00000150: 56d3 7bba ba9a 44bc 57e5 893c aca0 043d
00000160: 101d 073c 607f 713a 1907 b73c 6dc8 03bd
00000170: 044e 0f3c 1ccb 2e3c 3b07 e8bc c856 833c
00000180: 5b93 4f3d cedd f8bc 0231 f5bc 0930 e93c
00000190: 03ae 2e3d 1cff 99bc f4d8 c6bc d441 76bc
000001a0: 4d62 393c e021 fe3c 4791 ac3c b3fc bcbc
000001b0: 151f 863d dbad e7bd 2d73 64bb 1e15 5b3d
000001c0: 430f 58bd b962 bd3c dfbe 503d f34c 4b3d
000001d0: a0be a23d d9c6 48bd 0af2 4c3c 8305 1fbe
000001e0: c912 b73d 37b7 91bd d82e 723c 3519 f8bc
000001f0: 1b86 d93c 8033 09be e6de 753d 4b43 4f3d
-0.021119874 -0.017868131 -0.07450304 -0.009468662 -0.04752973 0.076480225 -0.04247072 -0.15441528
0.057568014 0.015550958 -0.008182241 0.02910831 0.035460457 -0.14261341 -0.08839855 0.06497226
0.006370817 -0.05953781 -0.030246954 0.045585655 -0.0039394787 -0.1260729 -0.03956868 0.19075775
0.009207041 0.0506207 0.10209267 0.090827204 -0.06646376 0.029968679 -0.06551753 -0.004735844
-0.060589805 0.10721677 0.082562044 0.07573596 0.096445195 0.02646387 0.10036369 -0.0282837
0.003102159 0.08557486 0.048890647 -0.1513754 -0.08328337 0.08253923 -0.07937579 0.073711805
-0.008525226 0.024750903 -0.13282266 -0.041833688 -0.0033872128 0.066521555 0.07401846 0.03818335
-0.039575838 0.050192177 0.039776478 0.016056912 0.049852096 0.044485014 0.01707304 0.06426515
0.012464117 0.007532401 -0.009629591 0.04140539 0.08725829 -0.13969274 -0.023065342 0.01918456
-0.07422099 -0.059249643 0.03301879 0.0030801063 -0.016532121 0.02787335 0.010960334 0.021684574
-0.07335564 0.013373721 0.0054513337 -0.13733833 -0.00096063816 -0.01199978 0.01683299 0.03237979
0.008246675 0.0009212401 0.022342252 -0.032173563 0.008746628 0.010668542 -0.02832376 0.016032591
0.05067764 -0.030379202 -0.029930595 0.028465288 0.04264642 -0.018798403 -0.024273373 -0.015030343
0.011314941 0.031022012 0.021065367 -0.023069715 0.06548897 -0.11312457 -0.003485869 0.053486936
-0.05274893 0.023118364 0.05096328 0.04963393 0.07946515 -0.04901776 0.0125088785 -0.15529446
0.0893913 -0.071150236 0.014781676 -0.030285457 0.026553204 -0.13398552 0.060027026 0.050601285

fc3.weight f4 [1, 128]
00000000: fe2f bf3c eedd 17bb 9c22 04bc 8ad0 e7bd
00000010: dbbb 613c 9026 04be bfbf 9abb 55d9 b5bd
00000020: b610 edbd 1ac9 1d3c 2120 73ba d0a9 00be
00000030: 34b5 b23c 633f 96bd 6837 09bc 311f e6be
00000040: 006b eabd d891 a9be b481 ecbb 3f54 80be
00000050: d10a fbbd 10de afbd 6b4e 45be 23ec 923f
00000060: feca f6bd 584f f9bd 061b f7bd e6ce fdbd
00000070: 46a1 bf3c 52aa e5bd 2397 97bd bc6e 72be
00000080: 0808 efbc 8cb0 f8bd 8e85 f2bd d67a e4bd
00000090: c1fb f2bd bcf5 d8bc 272c f9bd 4898 d0bb
000000a0: 77bc f93b 0fcf f0bd 3934 ebbd ded5 c0bd
000000b0: 85db a33c e851 f7bd 1787 d3bd 7fe9 f7bd
000000c0: a20f 04be 9323 f5bd 11f0 73bd d369 61bd
000000d0: e653 183b 5355 01be 57ea f8bd 5d8f f3bd
000000e0: dd08 91bb 6a1a f1bd 57eb f8bd d7be 9abe
000000f0: 7b62 ecbd d572 ffbd 1c77 d83c 5979 ddbd
00000100: a372 7b3a 6a65 3a3c 5769 03be c778 7dbf
00000110: 1259 9cbe 5b64 97bd baf6 f83c 91d9 5ebb
00000120: 2b84 e33c ce74 91bd eed1 fcbd 26b4 0abe
00000130: 4ad7 0bbc a701 fdbd 8f1e ffbd 9da9 fdbd
00000140: bf20 aebd f38b 2ebf a06b 9bbb d47f cfbd
00000150: 6ea1 04be 34cf 8dbc cd1f efbd 6b2f babc
00000160: d457 113b 9088 f0bd 2f5d f6bd 21dd 14be
00000170: b293 e93b 714c d2bc 39ba c33c 9ec1 f3bc
00000180: 7e63 c83b 46c8 23bb da7d debd 8896 fbbd
00000190: c10d f5bd eb12 263b 59df fbbc 3365 d8bc
000001a0: 1be3 f4bd 467f e5bd 3874 f7bd a661 ba3c
000001b0: 2e30 0bbe 610e 92bf 5d4f 773c d456 933a
000001c0: 0b0a fe3b 738f e5bd e8e8 01be b8e8 583f
000001d0: c9e1 dcbd e0da 32be a108 f0bd 0ce0 bdbd
000001e0: 9e4d ebbd 2edf eebc 9ed8 acbc 19b5 ffbd
000001f0: 3109 e6bd 359c abbd a19b f7bd 7427 bbbe
0.023338314 -0.0023173052 -0.008064892 -0.113190725 0.013777698 -0.12905335 -0.004722565 -0.088793434
-0.11575453 0.009630466 -0.0009274502 -0.12564778 0.02181492 -0.07336309 -0.008375026 -0.44945672
-0.1144619 -0.33119082 -0.0072176103 -0.25064275 -0.122579224 -0.08587277 -0.19268195 1.1478313
-0.120504364 -0.12173337 -0.12065701 -0.12392978 0.02339233 -0.11214127 -0.07401874 -0.23675054
-0.029178634 -0.12143049 -0.1184188 -0.111562416 -0.118644245 -0.026484363 -0.121666245 -0.0063658096
0.0076213437 -0.11758243 -0.1148457 -0.09415792 0.020002136 -0.12076169 -0.10328501 -0.12105083
-0.12896588 -0.11969676 -0.059555117 -0.055032562 0.0023243367 -0.12630205 -0.12154072 -0.11892579
-0.0044261054 -0.11772616 -0.121542625 -0.30223724 -0.11542221 -0.12473074 0.026423983 -0.10814161
0.00095919723 0.011376718 -0.12833153 -0.99012417 -0.30536705 -0.07392188 0.030391086 -0.0034004191
0.027772984 -0.07102357 -0.123447284 -0.13545284 -0.008535216 -0.12353831 -0.124570005 -0.12385867
-0.085023396 -0.68182296 -0.0047430545 -0.10131803 -0.12952206 -0.017310716 -0.116759874 -0.022727689
0.0022177594 -0.11744797 -0.12029492 -0.14537479 0.0071282024 -0.025671216 0.023892509 -0.02975541
0.006115376 -0.0024991198 -0.10863848 -0.12284571 -0.11965514 0.0025340866 -0.030746149 -0.026415443
-0.119573794 -0.11205916 -0.12082714 0.02275164 -0.13592598 -1.1410638 0.015094605 0.0011241087
0.007752662 -0.112090014 -0.12686503 0.847301 -0.107852526 -0.17466307 -0.11720396 -0.09271249
-0.11489414 -0.029159155 -0.021099385 -0.124857135 -0.11232222 -0.083794035 -0.12090231 -0.36553538
