Actor-Critic/PyTorch-ActorCriticRL/Models/200_critic.pt (torch_old, 270303 bytes, 9 tensors)

fcs1.weight f4 [256, 3]
0	0xbc805a54	-0.015668072
1	0xbcb9cd11	-0.022680791
2	0xbb7a5d00	-0.0038202405
3	0xbd1cae04	-0.03825189
4	0x3c921f58	0.017837211
5	0xbbd3eb90	-0.00646729
6	0x3ee2f069	0.44324043
7	0xbf55cb39	-0.8351322
8	0xbe641109	-0.22272123
9	0xbc9f2520	-0.019426882
10	0x3d317484	0.04332401
11	0x3cb20d50	0.021734864
12	0x3d4b6bee	0.049663477
13	0x3d6ab208	0.05729869
14	0xbbb42310	-0.005497344
15	0xbc9681cb	-0.018372437
16	0x3a467900	0.0007571131
17	0x3c0d3078	0.008617513
18	0x3e705316	0.23469195
19	0xbecb4afa	-0.3970564
20	0xbd711222	-0.058855183
21	0xbe5bfbbc	-0.21482748
22	0xbda62ff1	-0.08114613
23	0xbd3fb23b	-0.046800833
24	0xbd11c891	-0.035591666
25	0x3ece8951	0.4033914
26	0x3dfdaf7c	0.123869866
27	0x3f01300c	0.5046394
28	0xbef26ee2	-0.47350222
29	0x3d76881f	0.06018841
30	0xbe7a4a9c	-0.24442524
31	0xbe63f538	-0.22261512
32	0xbda923b1	-0.08258761
33	0xbd4fd8d2	-0.050743885
34	0xbcdfc009	-0.02731325
35	0x3d00f6c4	0.031485334
36	0xbe636ace	-0.22208712
37	0xbbaa4abd	-0.005196898
38	0x3d5cf03c	0.053940043
39	0xbd2f9a30	-0.042871654
40	0x3f6ef313	0.9333965
41	0x3db11f5b	0.08648559
42	0xbce75578	-0.028238997
43	0xbd15d5ea	-0.036580957
44	0x3d0829de	0.033243053
45	0xbcf02a3c	-0.029317014
46	0x3c8f80ce	0.017517474
47	0xbd08538a	-0.033282794
48	0x3e57c144	0.21069819
49	0xbf040d56	-0.5158285
50	0xbdce1548	-0.10062653
51	0x3e0e3b98	0.1388992
52	0x3ec9f05f	0.394412
53	0xbda8db58	-0.082449615
54	0xbe9a085a	-0.30084497
55	0x3deed1d7	0.116611175
56	0xbc0b12df	-0.008488386
57	0xbde99f38	-0.11407322
58	0xbeb105e2	-0.345748
59	0x3b44bbe4	0.0030019218
60	0x3f257c4f	0.64642805
61	0x3e881052	0.2657495
62	0x3e8b9e75	0.2726933
63	0xbe4cc9a7	-0.199988
64	0xbda41f8c	-0.080138296
65	0x3da0a8f9	0.07844729
66	0x3d4f5cab	0.050625484
67	0xbd07acde	-0.033123843
68	0xbc22070c	-0.009889375
69	0xbdc6eaec	-0.097127765
70	0x3ef5ded9	0.48021582
71	0x3d8358ec	0.06413445
72	0xbe5a6359	-0.2132696
73	0xbe7a8cd8	-0.2446779
74	0xbd514947	-0.051095273
75	0x3f16f5fc	0.5896909
76	0xbe7baac3	-0.24576859
77	0x3dbc42ea	0.0919245
78	0xbdcca35d	-0.099920966
79	0x3ef058d1	0.46942762
80	0x3d2b1821	0.041771058
81	0x3ea64533	0.3247467
82	0xbf2c44df	-0.6729259
83	0xbe30d5eb	-0.17269103
84	0x3e093e58	0.13402689
85	0xbc1c8210	-0.009552494
86	0xbd95429b	-0.072880946
87	0xbdbd4ca8	-0.09243137
88	0x3dddeb0b	0.108358465
89	0xbd38a08e	-0.045074992
90	0x3d6d6cf6	0.05796524
91	0xbd6250cc	-0.055252835
92	0xbbab06a0	-0.0052192956
93	0x3ea3af63	0.31969747
94	0xbebff8b3	-0.3749443
95	0xbe20e7f2	-0.1571348
96	0xbe8c5a3c	-0.27412593
97	0x3e7bbccd	0.2458374
98	0x3d9559a4	0.07292488
99	0xbebcaf8d	-0.36852685
100	0xbd18e767	-0.037330057
101	0x3c15d0b8	0.009144001
102	0xbd3db514	-0.046315268
103	0xbd1c4a47	-0.038156774
104	0x3c5a68d4	0.013330657
105	0x3f473c2c	0.7782619
106	0xbf071982	-0.52773297
107	0xbeae8dd5	-0.34092584
108	0x3d81a740	0.063307285
109	0xbf2db606	-0.6785587
110	0xbe0eb153	-0.13934831
111	0x3f64a301	0.89311224
112	0x3cd2225f	0.025651155
113	0xbe0e23b2	-0.13880804
114	0xbdda1a3e	-0.106495366
115	0xbe7a1a0b	-0.24423997
116	0x3db055c3	0.08610108
117	0x3d62ff96	0.055419527
118	0x3f707087	0.93921703
119	0x3e3e9763	0.18612437
120	0xbc5a3ddc	-0.0133204125
121	0xbcab9c34	-0.020948507
122	0xbcb11e61	-0.021620931
123	0x3e9b519c	0.303357
124	0xbeec378a	-0.46136123
125	0xbdfc2893	-0.123124264
126	0xbe3251eb	-0.17414062
127	0xbc8077fc	-0.015682213
128	0x3d28a949	0.041177068
129	0xbd94b649	-0.07261331
130	0xbf08c5ce	-0.53426826
131	0x3ee0ead1	0.4392915
132	0x3db23394	0.08701244
133	0x3de9eb6b	0.114218555
134	0xbc70626d	-0.014671904
135	0xbd6777c6	-0.05651071
136	0xbd7f1970	-0.06228012
137	0x3ce47e14	0.02789215
138	0xbce857e8	-0.02836223
139	0x3d4a6d94	0.049420908
140	0x3d4bffd0	0.04980451
141	0x3df8808c	0.12133893
142	0xbe079cd7	-0.13243423
143	0xbdd2c260	-0.1029098
144	0xbdb9b42d	-0.09067569
145	0x3ef1ec18	0.47250438
146	0x3d83acdf	0.06429457
147	0x3ee8a220	0.45436192
148	0xbeef48a9	-0.46735123
149	0xbdf37901	-0.11888314
150	0xbd5afd44	-0.05346419
151	0xbca51067	-0.020149423
152	0xbacf50f3	-0.0015816971
153	0xbd5fcd8e	-0.05463939
154	0xbcad47f8	-0.021152481
155	0x3c7800b0	0.015136883
156	0x3e85e690	0.26152468
157	0xbe58650b	-0.21132295
158	0x3cea64eb	0.028612575
159	0x3e9556a0	0.29167652
160	0xbf406b7c	-0.7516401
161	0xbe2d8534	-0.16945344
162	0x3eaa832a	0.33303195
163	0x3f230c5d	0.6369074
164	0x3dcbdd2d	0.09954295
165	0x3a170a83	0.0005761759
166	0x3d4a865e	0.04944455
167	0x3be6dc5e	0.007045313
168	0x3ccdd004	0.025123604
169	0x3cd97fb8	0.026550159
170	0xbcf887de	-0.030338224
171	0xbe329ec6	-0.1744338
172	0x3de0520d	0.1095315
173	0xbd1e6d7d	-0.038678635
174	0x3dc663e7	0.096870236
175	0x3c67a37f	0.014138102
176	0xbc082215	-0.008308907
177	0xbe898c30	-0.26864767
178	0xbe90f1a9	-0.28309372
179	0xbd828652	-0.06373276
180	0xbd83ca73	-0.064350985
181	0xbf8854b6	-1.0650852
182	0xbcf37e57	-0.02972333
183	0xbd72b7fc	-0.059257492
184	0x3d6c606e	0.05770915
185	0xbc944660	-0.018099964
186	0xbd684094	-0.05670221
187	0xbc45cccf	-0.012072756
188	0x3a050c58	0.0005075387
189	0x3f6705fe	0.9024352
190	0x3f459504	0.77180505
191	0x3ea67d3e	0.32517427
192	0xbe835c22	-0.2565623
193	0xbea56aa4	-0.32307923
194	0xbd8a6e32	-0.06759299
195	0xbdf7c8d2	-0.1209885
196	0xbeaa28cb	-0.33234248
197	0xbd0f9215	-0.035051424
198	0x3da7303d	0.081634976
199	0xbea43fb4	-0.32079852
200	0xbdc2f979	-0.095202394
201	0x3d0ec7ae	0.0348584
202	0xbbd60ba1	-0.006532148
203	0xbd08222a	-0.033235706
204	0xbe0db9aa	-0.13840356
205	0x3f2607dc	0.6485574
206	0x3d9990e0	0.07498336
207	0xbe9e3b10	-0.30904436
208	0x3dcaec63	0.099083684
209	0xbe5eabdf	-0.21745251
210	0x3e2076bc	0.15670294
211	0x3f03eec1	0.51536185
212	0x3e6a83c3	0.22901826
213	0xbce9b5f7	-0.02852915
214	0xbf34d31b	-0.7063462
215	0xbdbaf59e	-0.09128879
216	0xbeb368f5	-0.35041013
217	0x3e0256a1	0.12728359
218	0xbd9c4c33	-0.07631721
219	0xbcb4c41c	-0.022066168
220	0xbcec3be4	-0.028837152
221	0x3d22c08a	0.0397344
222	0x3f07923d	0.52957517
223	0x3f735581	0.95052344
224	0x3e68c338	0.2273072
225	0xbd1cd300	-0.038287163
226	0x3c94ff11	0.018188031
227	0xbba56a3f	-0.005048066
228	0x3d8cd7d4	0.068771034
229	0x3f0fbdbc	0.56148887
230	0x3e084108	0.13306057
231	0x3e862a8e	0.26204342
232	0xbdd88294	-0.10571781
233	0xbc2829d0	-0.010263875
234	0xbe4cb9f5	-0.19992812
235	0xbeb09862	-0.3449126
236	0xbd9f0f79	-0.07766623
237	0xbd76c6ac	-0.060248062
238	0xbd4794c0	-0.048725843
239	0xbd32994b	-0.043603223
240	0xbe7c49b6	-0.24637493
241	0x3e6105c7	0.2197486
242	0x3d8a7eca	0.06762464
243	0xbe115c06	-0.1419526
244	0x3ef7e7b1	0.48418954
245	0x3d98a02f	0.074524276
246	0xbce0a4f3	-0.027422404
247	0xbf4abcc4	-0.79194283
248	0x3e59dc90	0.21275544
249	0x3f064e11	0.5246287
250	0xbf0fc251	-0.5615588
251	0xbe4fcbdc	-0.2029261
252	0x3cfa2dc0	0.030539393
253	0x3c991c98	0.018690392
254	0x3cf99a78	0.030469164
255	0x3b842ec0	0.0040338933

fcs1.bias f4 [256]
0	0xbec92e9e	-0.3929338
1	0xbe3a87d8	-0.18215883
2	0xbf21a89d	-0.6314791
3	0xbe8d8f16	-0.27648228
4	0xbf0ad192	-0.5422603
5	0xbe363c80	-0.17796516
6	0x3e79ffc6	0.24413976
7	0x3e37d0e0	0.17950773
8	0x3ed8dc0b	0.4235538
9	0xbf015cb3	-0.5053207
10	0x3e27357a	0.16328993
11	0xbeac2766	-0.3362381
12	0x3e4bc4a2	0.19899228
13	0xbe2bf256	-0.16791663
14	0xbecfaeb4	-0.40562975
15	0xbead5102	-0.33850867
16	0x3deb89ec	0.11500916
17	0x3e68d132	0.22736052
18	0x3c76d8f4	0.015066374
19	0x3e603781	0.21896173
20	0xbf30de30	-0.6908903
21	0x3ee08477	0.43851063
22	0xbeb2e383	-0.34939203
23	0xbd811b34	-0.06304017
24	0x3e0a3f54	0.1350072
25	0xbf176f40	-0.5915413
26	0xbe0745db	-0.13210241
27	0x3c3950eb	0.011310796
28	0x3e63c8e2	0.222446
29	0x3e967851	0.2938867
30	0xbe9e1c29	-0.3088086
31	0x3ccd062e	0.02502736
32	0x3e25472f	0.16140436
33	0xbe149f84	-0.14513975
34	0xbe837e8b	-0.25682482
35	0xbf713836	-0.94226396
36	0xbe521723	-0.20516638
37	0xbf5b8625	-0.85751563
38	0x3eaec45d	0.34134188
39	0x3eb8b8bb	0.36078438
40	0xbe7c3549	-0.24629702
41	0x3e002c8e	0.12516996
42	0x3e168d76	0.147024
43	0x3ee33cc0	0.44382286
44	0x3eb86e18	0.36021495
45	0xbef74d9b	-0.48301396
46	0xbefbbd09	-0.4916766
47	0x3f0a1979	0.5394512
48	0xbd553462	-0.05205191
49	0x3d8852d9	0.06656427
50	0xbdd55020	-0.10415673
51	0xbf0065e0	-0.5015545
52	0x3f083bfe	0.5321654
53	0x3dd75bb8	0.10515541
54	0x3eb8fb08	0.36129022
55	0xbe456dab	-0.19280116
56	0xbee37e00	-0.44432068
57	0x3e94c446	0.29055995
58	0x3ebbdd2b	0.36692175
59	0x3e35faa6	0.17771396
60	0xbd35ef58	-0.04441771
61	0xbe6d029c	-0.23145527
62	0x3ed0d86b	0.40790114
63	0xbee7715c	-0.45203674
64	0xbe4a292e	-0.19742271
65	0x3e6c612c	0.23083943
66	0x3edb41f0	0.42823744
67	0xbefff675	-0.4999272
68	0xbdf1bcf6	-0.118036196
69	0x3ef6d4a8	0.4820912
70	0xbd00dac2	-0.031458624
71	0xbe2dd5a6	-0.16976032
72	0x3d9adacf	0.07561266
73	0xbf02a5c5	-0.51034194
74	0x3d359c6a	0.04433862
75	0xbe199ac6	-0.15000448
76	0x3eb2860b	0.34867892
77	0x3e5c83f3	0.2153471
78	0x3db4d315	0.08829323
79	0xbeeb3284	-0.45936978
80	0x3e153479	0.14570798
81	0x3c79fde0	0.015258282
82	0xbe04fb50	-0.12986493
83	0xbe672336	-0.22572026
84	0xbe95e7b4	-0.29278338
85	0xbf076692	-0.52890885
86	0xbecdc1a8	-0.4018681
87	0xbd417887	-0.047234084
88	0x3e36b38a	0.17841926
89	0xbe602e6c	-0.21892709
90	0x3e17e7ac	0.1483447
91	0x3e270c37	0.16313253
92	0xbebd971c	-0.3702935
93	0x3ed20d72	0.41025883
94	0xbefd606d	-0.4948763
95	0xbdf0a47e	-0.117501244
96	0xbeda748d	-0.42667046
97	0x3e9d99eb	0.30781493
98	0xbec44108	-0.38330865
99	0x3efe04c4	0.4961301
100	0xbea10924	-0.31452286
101	0x3ded9d10	0.11602223
102	0x3e91db25	0.28487507
103	0xbe32f172	-0.17474917
104	0x3e8b69ad	0.27229062
105	0x3e2bad1d	0.16765256
106	0x3e24147a	0.16023436
107	0xbe79a0a9	-0.24377693
108	0x3ef462d9	0.47731665
109	0xbf0278d3	-0.50965613
110	0xbf10e9d2	-0.5660678
111	0x3ee45c87	0.44601843
112	0xbecd887f	-0.401432
113	0xbee3ee5d	-0.44517794
114	0xbe1e3292	-0.15448979
115	0xbe708149	-0.23486818
116	0xbe852e7e	-0.26012033
117	0xbe2fb701	-0.17159654
118	0x3ebcebf1	0.3689876
119	0xbef8512e	-0.48499435
120	0x3e8badd1	0.2728105
121	0x3de01366	0.109412
122	0x3eab2456	0.3342616
123	0x3e114d8d	0.1418974
124	0x3f03468a	0.5127951
125	0xbec742be	-0.38918108
126	0xbf0a7608	-0.5408635
127	0x3e57e303	0.21082692
128	0x3e9cfe36	0.30662698
129	0xbdc4337a	-0.09580131
130	0x3e8e0578	0.27738547
131	0xbefcf58e	-0.49406093
132	0xbed8b13a	-0.42322713
133	0xbe38a430	-0.18031383
134	0x3e9abfe8	0.30224538
135	0x3d0dbbdb	0.03460298
136	0xbf0da178	-0.55324507
137	0xbeb12546	-0.3459875
138	0xbf077d17	-0.52925247
139	0x3e8b44f6	0.2720105
140	0x3e83a9ce	0.25715488
141	0x3ea0b193	0.31385478
142	0xbed48584	-0.41508114
143	0xbef6c798	-0.48199153
144	0x3ecad46b	0.39615187
145	0xbe37dae4	-0.17954594
146	0x3da4c2d8	0.08044976
147	0x3e7da413	0.2476962
148	0x3d7132d5	0.058886368
149	0x3f02de06	0.5112003
150	0x3e3ff0da	0.18744221
151	0x3e283803	0.16427617
152	0xbeee9cc6	-0.46603984
153	0x3eab7b92	0.33492714
154	0xbe21e60d	-0.15810414
155	0x3ebf8c69	0.37411812
156	0x3e16ab40	0.14713764
157	0xbef54512	-0.4790426
158	0x3e1d39ba	0.15354052
159	0x3dfe5ea8	0.12420398
160	0x3db521cb	0.08844336
161	0x3ef7165d	0.4825925
162	0x3e0d8d02	0.13823321
163	0x3e140b5c	0.14457458
164	0xbe938443	-0.28811845
165	0xbddf4bd2	-0.109031335
166	0xbe834fab	-0.2564672
167	0xbee0e126	-0.43921775
168	0x3ec70c16	0.38876408
169	0x3e603a3a	0.21897212
170	0x3e4c8ad8	0.1997484
171	0xbd50bacb	-0.05095939
172	0xbed4ee78	-0.41588187
173	0xbf0eeb27	-0.55827564
174	0xbeb0f752	-0.3456369
175	0x3dff29ae	0.12459122
176	0x3e149027	0.14508115
177	0xbf12df15	-0.57371646
178	0xbf0c31b0	-0.5476332
179	0x3e031323	0.12800269
180	0x3d083a13	0.03325851
181	0xbde0648c	-0.10956678
182	0xbee82b4e	-0.4534554
183	0x3db95220	0.09048867
184	0x3b32de6a	0.0027293214
185	0xbe14fd54	-0.14549762
186	0xbeed84fc	-0.46390522
187	0x3e48af86	0.19598207
188	0xbec153d0	-0.37759256
189	0xbeddbc68	-0.43307805
190	0x3e73132b	0.23737781
191	0x3e09a6c0	0.13442516
192	0x3e6b9e50	0.2300961
193	0xbf04ea29	-0.519198
194	0xbe511151	-0.20416762
195	0x3e23fcb7	0.16014372
196	0xbf014052	-0.5048877
197	0x3daef0e5	0.08542041
198	0xbe5586d1	-0.2085221
199	0xbef76f8d	-0.48327294
200	0x3e6b143f	0.22956942
201	0xbeb3a0b4	-0.35083544
202	0xbe30e19a	-0.1727356
203	0x3b71bbf7	0.0036885717
204	0xbf126144	-0.57179666
205	0xbc4a0714	-0.012330789
206	0x3e1203ec	0.14259309
207	0xbe76fd55	-0.24120076
208	0x3e859de7	0.26097032
209	0xbe9cffd3	-0.30663928
210	0x3e580582	0.21095851
211	0x3e8840c2	0.26611906
212	0xbecbfbae	-0.39840454
213	0x3e81e4df	0.25369927
214	0xbef6e6dd	-0.4822301
215	0x3ecac60a	0.39604217
216	0x3e38696e	0.18008968
217	0x3e32554c	0.1741535
218	0x3edea035	0.43481603
219	0x3d0ae0f7	0.03390595
220	0xbf0f9719	-0.5608993
221	0xbd5b4868	-0.05353585
222	0xbdfd2905	-0.123613395
223	0x3e86d700	0.26335907
224	0x3e18f24f	0.14936183
225	0x3dda59f3	0.10661688
226	0xbe43cd6c	-0.19121331
227	0x3e76fbb2	0.24119452
228	0xbe7f0899	-0.24905623
229	0xbf00e156	-0.50343835
230	0x3d84526c	0.06461033
231	0xbf47ea24	-0.78091645
232	0x3ea8af3d	0.32946196
233	0x3eef4c60	0.46737957
234	0xbef8bffe	-0.48583978
235	0x3eb98ec3	0.3624173
236	0xbebcacdc	-0.3685063
237	0x3e789930	0.24277186
238	0x3e8e4563	0.27787313
239	0xbefaebb6	-0.49007958
240	0xbe12dbd0	-0.14341664
241	0xbf019752	-0.5062152
242	0x3e01a972	0.12662295
243	0x3ecf739e	0.40517896
244	0xbed8e55f	-0.42362496
245	0xbee6c670	-0.4507327
246	0xbea0644e	-0.31326526
247	0x3e785b87	0.24253665
248	0xbc91b9f4	-0.017788865
249	0xbe5f31c2	-0.21796325
250	0xbf11c7bb	-0.5694539
251	0xbf0a4c4e	-0.5402268
252	0x3cb9ba43	0.022671824
253	0xbe56df96	-0.20983729
254	0x3edd18ec	0.43183076
255	0x3ec1f417	0.37881538

fcs2.weight f4 [128, 256]
0	0xbd41b0a0	-0.047287583
1	0xbd5b3242	-0.053514726
2	0xbf074458	-0.5283866
3	0xbd4d7e45	-0.050169248
4	0xbd8c369a	-0.06846352
5	0xbd1cdb6c	-0.038295195
6	0x3d5b8946	0.05359771
7	0x3e10e0f4	0.14148313
8	0xbbed16f5	-0.0072354027
9	0xbe0b0c8e	-0.13579008
10	0x3d9f4c72	0.07778253
11	0x3c9f0364	0.019410796
12	0x3e1570fe	0.14593884
13	0x3e8fba7f	0.28071973
14	0xbd372946	-0.044717096
15	0xbd836b03	-0.06416895
16	0x3cfadd86	0.030623209
17	0xbe188a03	-0.14896397
18	0x3e710297	0.23536144
19	0x3cab9a5e	0.020947631
20	0xbf4abfc1	-0.79198843
21	0x3e2ee988	0.17081273
22	0x3d93a7eb	0.07209762
23	0x3d76ab1a	0.06022177
24	0x3d5c8872	0.053841062
25	0xc007ca06	-2.1217055
26	0x3e1d34d6	0.15352187
27	0x3e0149f5	0.12625869
28	0xbd3a2e9f	-0.045454618
29	0x3bbd64d9	0.0057798442
30	0x3d1e3b92	0.03863103
31	0xbe294235	-0.16529162
32	0x3e1d5b64	0.15366894
33	0x3e864438	0.26223922
34	0xbbd9efbb	-0.0066508926
35	0xbfa27647	-1.2692345
36	0x3dd07411	0.10178388
37	0x3f39cfd7	0.72582763
38	0x3d83af10	0.06429875
39	0xbe000bac	-0.12504452
40	0x3dc6f064	0.097138196
41	0x3e0a97bf	0.13534449
42	0x3da2f1a2	0.07956244
43	0x3e014a69	0.12626041
44	0xbcb6aaa7	-0.02229817
45	0x3d8f3b29	0.06993706
46	0x3d06c52c	0.03290288
47	0x3dc4f2dd	0.09616635
48	0x3e14bf8d	0.14526196
49	0x3e31c53a	0.17360392
50	0x3d1944d6	0.037419163
51	0xbcfc877a	-0.030826319
52	0x3deef076	0.11666958
53	0x3e4d99e0	0.2007823
54	0x3dad0322	0.08447863
55	0xbd8eb994	-0.0696899
56	0x3c95e698	0.018298432
57	0x3e1c1c66	0.15245208
58	0x3d8831c6	0.066501185
59	0x3e41bed7	0.18920456
60	0xbcbc0988	-0.022953764
61	0x3d120daa	0.035657562
62	0x3db86fbc	0.09005687
63	0xbf691ddb	-0.9106118
64	0x3f1c5239	0.6106296
65	0x3d435533	0.047688674
66	0x3d81906e	0.06326376
67	0xba5f7200	-0.0008523762
68	0xbcaedf83	-0.021346813
69	0xbe054798	-0.13015592
70	0xbd16af51	-0.03678829
71	0x3d67089f	0.056404706
72	0x3da0601a	0.0783083
73	0x3cafdf90	0.021468908
74	0xbea1ea4b	-0.31624064
75	0x3d8683fe	0.06568144
76	0x3d72ffc2	0.05932594
77	0x3e02b779	0.12765302
78	0xbbb15848	-0.0054121353
79	0xbd72913e	-0.059220545
80	0x3e1fc920	0.15604067
81	0x3e3b023c	0.18262571
82	0xbd8bda43	-0.068287395
83	0x3d828ae2	0.06374146
84	0x3d01637a	0.03158901
85	0xbd4d3db2	-0.050107665
86	0xbda7726a	-0.081761196
87	0x3d2581f3	0.040407132
88	0x3d184b30	0.03718108
89	0xbd2bd7f9	-0.041954014
90	0x3e0d9934	0.13827974
91	0x3e0fbbd9	0.14036502
92	0x3a945cc0	0.0011319146
93	0x3a24856f	0.00062759867
94	0xbd71d119	-0.0590373
95	0x3e34426c	0.17603463
96	0xbcdafd44	-0.026732095
97	0xbd52ec43	-0.051494848
98	0xbd957abf	-0.072988026
99	0x3c6027a6	0.013681328
100	0x3d65bf36	0.056090556
101	0x3e2fd81e	0.17172286
102	0x3db99f36	0.0906357
103	0xbe31557a	-0.17317763
104	0xbda65f1e	-0.08123611
105	0x3d9eb6aa	0.07749684
106	0xbe61eac1	-0.22062208
107	0x3ed0d3d7	0.4078662
108	0xbc1da621	-0.009622128
109	0x3e435681	0.19075967
110	0xbfc9f2af	-1.5777186
111	0x3b269d60	0.0025423393
112	0x3d31f859	0.043449733
113	0x3d876b77	0.06612294
114	0xbcbc41fa	-0.022980679
115	0xbe1c5ee8	-0.15270579
116	0x3db3aea4	0.087735444
117	0xbd100b2d	-0.035166908
118	0xbdab999c	-0.08378908
119	0xbca0b71b	-0.019618561
120	0x3d427466	0.047474287
121	0xbcc53f49	-0.024078028
122	0xbe97b727	-0.29631922
123	0x3e0f015c	0.13965362
124	0x3df7f8e6	0.121080205
125	0xbc803ae0	-0.015653074
126	0xbd3c8c34	-0.046032146
127	0xbd3c5574	-0.045979932
128	0xbd8e97f2	-0.06962575
129	0x3e7546d8	0.23952806
130	0x3dd7ce73	0.10537424
131	0x3b90a470	0.0044141337
132	0x3d3466ea	0.04404346
133	0x3cb88cc0	0.022528052
134	0x3ccae0a9	0.02476533
135	0x3c03d1e0	0.008045644
136	0xbc01a8f8	-0.00791382
137	0x3ce0650c	0.027391933
138	0xbd843e33	-0.06457176
139	0x3d80e353	0.06293359
140	0xbe553178	-0.20819652
141	0xbc367b80	-0.011137843
142	0xbefce33c	-0.49392116
143	0xbd4a557e	-0.049397938
144	0x3e07c8b5	0.13260157
145	0x3d5bbcae	0.053646736
146	0x3cbbd09f	0.022926627
147	0xbd011b50	-0.031520188
148	0x3d333c54	0.043758705
149	0xbdbaa1a4	-0.09112862
150	0x3d30f579	0.04320285
151	0xbecc4529	-0.39896515
152	0x3db91961	0.09038044
153	0x3d957cd0	0.07299197
154	0xbe73a5e9	-0.23793758
155	0xbb723a55	-0.0036961038
156	0x3e858da0	0.26084614
157	0x3c0d67e0	0.008630723
158	0x3da7c3ad	0.08191619
159	0x3dde6303	0.10858729
160	0x3dbd3c64	0.09240034
161	0x3d8d6dd9	0.069057174
162	0x3c92de26	0.017928194
163	0xbe920697	-0.28520653
164	0xbcc3c8b9	-0.023899423
165	0x3d839d76	0.06426518
166	0xbcc2f4d8	-0.023798391
167	0x3c0b6d20	0.008509904
168	0xbcd16bf0	-0.025564164
169	0xbd404a12	-0.04694564
170	0x3e70c08b	0.2351095
171	0x3c409c63	0.0117560355
172	0x3ca1ff3d	0.019775027
173	0x3c226c9e	0.009913592
174	0xbd434ac8	-0.04767874
175	0xbe94b073	-0.2904087
176	0xbeb57afa	-0.35445386
177	0x3d950faf	0.07278382
178	0x3c8a4109	0.016876714
179	0x3dbf5ece	0.093442544
180	0xbeeb21ca	-0.45924217
181	0xba1748c1	-0.0005771034
182	0xbd174f14	-0.03694065
183	0x3bd54b9c	0.0065092575
184	0x3d2ed7d6	0.042686306
185	0xbcef0b68	-0.029180244
186	0xbdaaa16d	-0.08331571
187	0x3dd8fd17	0.10595148
188	0xbe2a6723	-0.16640906
189	0xbd9e367a	-0.07725234
190	0x3e7e4aa9	0.24833168
191	0x3e5f6af6	0.21818146
192	0x3daca8e1	0.084306486
193	0xbc1d2040	-0.0095902085
194	0xbd7d2992	-0.061807223
195	0x3e009a38	0.1255883
196	0x3d7388d2	0.059456654
197	0xbba2b88f	-0.0049658488
198	0xbd5c5cd5	-0.05379947
199	0x3d554c9a	0.052075006
200	0xbce64056	-0.02810685
201	0xbced4cd5	-0.0289673
202	0x3da0310f	0.07821857
203	0x3e16f5f6	0.14742264
204	0xbf83d0ba	-1.0298073
205	0xbd5be4d9	-0.053685043
206	0xbe938096	-0.2880904
207	0x3daa5be4	0.08318308
208	0x3de96671	0.11396492
209	0x3d8ac947	0.06776672
210	0x3dc5dd5c	0.096613616
211	0x3d23d215	0.03999527
212	0x3d42717a	0.0474715
213	0x3d796782	0.06088973
214	0xbcc51a14	-0.024060287
215	0x3dfdfa4b	0.12401255
216	0x3e1681b6	0.14697918
217	0x3d98a548	0.074534
218	0x3e033481	0.12812997
219	0xbd94271b	-0.07234021
220	0xbb965430	-0.0045876727
221	0x3dda0e57	0.10647266
222	0x3ee0b672	0.43889195
223	0x3e18782f	0.14889596
224	0x3dcbe2cd	0.09955368
225	0xbdc5912b	-0.09646829
226	0x3e4249ab	0.18973415
227	0xbf1f538e	-0.6223687
228	0x3eab1ecb	0.3342193
229	0xbd042559	-0.03226218
230	0xbd13d845	-0.036094923
231	0x3eaf545e	0.34244055
232	0x3da4c4d0	0.080453515
233	0x3cdbbb2d	0.02682265
234	0xbc9ca51c	-0.019121699
235	0x3cf3012d	0.029663647
236	0x3e041c0d	0.12901326
237	0xbbfbbc1c	-0.0076823365
238	0x3d07572f	0.03304213
239	0x3d8afa9b	0.067860804
240	0xbcc39c2d	-0.023878181
241	0x3b83dc4c	0.004024064
242	0x3d49fb32	0.049311824
243	0x3e0141eb	0.12622802
244	0x3d1a759e	0.037709825
245	0x39b4b45d	0.00034466657
246	0xbdeadde2	-0.11468102
247	0xbef1ee5a	-0.4725216
248	0xbc2ea352	-0.010659056
249	0xbd74c6eb	-0.059760015
250	0xbc15f143	-0.00915176
251	0xbf7a8700	-0.97862244
252	0x3e168789	0.1470014
253	0xbd7d46e5	-0.06183519
254	0x3db7e4e6	0.08979206
255	0xbd0e7083	-0.03477527

fcs2.bias f4 [128]
0	0x3d06a7f1	0.032875005
1	0x3c814ff1	0.01578519
2	0x3e12940b	0.14314286
3	0xbd334238	-0.043764323
4	0x3dcb8ccd	0.09938965
5	0x3d933064	0.07186964
6	0x3de0be43	0.109737895
7	0x3da86a6c	0.08223423
8	0xbccd718b	-0.025078556
9	0x3c890919	0.01672797
10	0x3d2a6f6b	0.041610163
11	0x3d2c6d3f	0.042096373
12	0x3cace06d	0.021103108
13	0xbd800000	-0.0625
14	0x3da1350a	0.078714445
15	0xbdc0a317	-0.09406107
16	0x3d984f5b	0.07437011
17	0x3c32c148	0.01091034
18	0x3d10fe51	0.035398785
19	0x3b23847d	0.0024950795
20	0xbdaa5d5b	-0.083185874
21	0x3ddcecde	0.10787366
22	0xbc382348	-0.01123888
23	0x3cb4e33c	0.02208101
24	0xbdb690ef	-0.08914363
25	0x3ca00876	0.019535284
26	0xbd98cbbd	-0.07460735
27	0xbd3377f4	-0.043815568
28	0x3d06d763	0.032920253
29	0xbda0883c	-0.07838485
30	0x3ca77461	0.020441236
31	0xbcaf1db1	-0.021376463
32	0x3db29b63	0.08721044
33	0x3d303c37	0.043026175
34	0xbdaf7c69	-0.08568651
35	0x3dcecf6a	0.10098155
36	0x3d5f8570	0.054570615
37	0x3defdd06	0.11712079
38	0x3d8dd6ae	0.069257125
39	0x3cf8f156	0.030388515
40	0x3da9173c	0.08256385
41	0x3be5ee16	0.0070169074
42	0xbd3901f1	-0.045167867
43	0xbdb2723b	-0.08713194
44	0x3c3cc2e3	0.011521074
45	0xbdbe33e6	-0.092872426
46	0xbc2b80dd	-0.010467735
47	0x3d03671a	0.032080747
48	0x3db6def0	0.08929241
49	0x3d1bedf1	0.038068715
50	0xbca45cb7	-0.020063741
51	0xbd04595e	-0.03231179
52	0x3d55035d	0.05200516
53	0xbd81443a	-0.06311841
54	0x3d55f222	0.05223287
55	0xbca523f0	-0.020158738
56	0x3b8ca330	0.0042919144
57	0x3cacab76	0.021077853
58	0xbca7a87a	-0.020466078
59	0x3ce3bf7c	0.027801268
60	0xbaa2bea6	-0.0012416437
61	0xbd1e91b8	-0.038713187
62	0x3d3f7311	0.046740595
63	0xbd4c2859	-0.049843166
64	0x3ca80a21	0.020512642
65	0x3cfb4d27	0.030676438
66	0xbd103c4e	-0.03521376
67	0x3d7049b6	0.058664046
68	0xbccbb3c0	-0.024865985
69	0xbc9f9cb9	-0.01948391
70	0x3db5a938	0.088701665
71	0xbcf13d68	-0.029448226
72	0xbcaeefc8	-0.021354571
73	0x3c673ac8	0.014113136
74	0xbd562024	-0.052276745
75	0xbd4ac0f8	-0.049500436
76	0xba3204c3	-0.00067908707
77	0xbdd4d708	-0.103925765
78	0x3cdb37dd	0.026760036
79	0x3d200e05	0.03907587
80	0xbd3f9289	-0.046770606
81	0xbdddab8e	-0.10823737
82	0x3d24bba8	0.040218025
83	0x3cbda6bd	0.023150796
84	0x3d288113	0.04113872
85	0x3d58f1d3	0.052964997
86	0x3d24431e	0.04010307
87	0xbb04ec91	-0.0020282606
88	0xbd349b84	-0.044093624
89	0x3d856f5f	0.06515383
90	0x3db86426	0.09003477
91	0xbd98b065	-0.074555196
92	0xba8d273c	-0.0010769139
93	0x3cb8b323	0.022546357
94	0x3e010f2b	0.12603442
95	0x3d00f618	0.031484693
96	0x3dd6ddff	0.10491561
97	0x3d8f960a	0.070110396
98	0x3da1992f	0.078905456
99	0x3c1d6f68	0.009609081
100	0x3bb72734	0.00558939
101	0xbc914dbf	-0.017737268
102	0x3e01ba22	0.1266866
103	0x3dc981bf	0.098392
104	0x3d8d208b	0.06890973
105	0xbccdfd1a	-0.025145102
106	0xbd998b26	-0.074972436
107	0x3de52341	0.11188365
108	0xbda848a2	-0.082169786
109	0x3d358365	0.04431476
110	0x3d1393c8	0.036029607
111	0xbca29858	-0.019848034
112	0xbd4f0796	-0.050544344
113	0xbd8e1932	-0.069383994
114	0xbd758a3c	-0.059946284
115	0xbcada274	-0.021195628
116	0x3dcffb7d	0.101553895
117	0x3d64b30d	0.05583482
118	0xbd84da35	-0.06486932
119	0xbd8f59bd	-0.06999538
120	0xbd3cc754	-0.04608853
121	0xbd13f959	-0.03612647
122	0xbd54ee78	-0.051985234
123	0xbcc94dde	-0.024573263
124	0xbd1393c9	-0.03602961
125	0xbb29b960	-0.0025897846
126	0x3c136a9d	0.008997587
127	0x3d688934	0.056771472

fca1.weight f4 [128, 1]
0	0xbd63a685	-0.055578727
1	0xbd8cb387	-0.068701796
2	0xbd8a2914	-0.06746116
3	0xbe8947e2	-0.26812655
4	0x3d0a176e	0.03371375
5	0xbf060601	-0.5235291
6	0x3c2b5b38	0.01045876
7	0xbf13b4b7	-0.57697624
8	0xbeb4daf5	-0.353233
9	0x3cbeda0d	0.023297334
10	0xbd90c212	-0.07068266
11	0x3d8e3afa	0.06944843
12	0x3ba966f0	0.005169742
13	0x3d46103a	0.04835532
14	0xbbf0f270	-0.0073531196
15	0xbe81de29	-0.25364807
16	0xbd916d69	-0.071009465
17	0xbd93423e	-0.07190369
18	0x3ed99dd4	0.42503226
19	0xbea1f508	-0.31632257
20	0xbe8d580f	-0.27606246
21	0xbd197b85	-0.037471313
22	0x3d26fc06	0.040767692
23	0xbd8e86cd	-0.06959305
24	0xbef76ad0	-0.4832368
25	0x3e0b1991	0.13583972
26	0x3ef32dfc	0.4749602
27	0x3e7afb18	0.24509847
28	0xbd66be4c	-0.056333825
29	0x3e1e2cc7	0.15446769
30	0xbc5a17b0	-0.013311312
31	0xbea749a9	-0.32673386
32	0x3ee7fed9	0.4531162
33	0xbd8c2eae	-0.06844841
34	0xbe897d3f	-0.26853368
35	0x3dc5a48d	0.09650526
36	0x3d1603fe	0.0366249
37	0x3ab75e40	0.0013989881
38	0x3d9e2f43	0.07723858
39	0xbf2324bd	-0.63727933
40	0xbc84e814	-0.016223945
41	0x3dff727c	0.12473008
42	0xbd8601ea	-0.06543334
43	0x3d8c1a93	0.06841006
44	0x3e05cba9	0.13065971
45	0xbdfe6f53	-0.12423577
46	0xbc560120	-0.013061792
47	0xbec8d92e	-0.39228195
48	0x3cf4527c	0.029824488
49	0xbf226925	-0.6344169
50	0x3d2aa21b	0.041658502
51	0x3d8bd74a	0.068281725
52	0x3e8bc775	0.2730061
53	0xbc564250	-0.013077334
54	0xbd991fc5	-0.07476763
55	0x3ca407fc	0.020023338
56	0x3dbdee74	0.09273997
57	0xbc1ba7b0	-0.009500429
58	0xbcec3206	-0.028832447
59	0x3d193536	0.03740426
60	0x3e4e07f1	0.20120217
61	0x3da8a0df	0.08233809
62	0x3d866355	0.06561915
63	0xbe5909bd	-0.21195121
64	0x3e92d44d	0.28677598
65	0xbcd393b0	-0.025827259
66	0xbd0f26f4	-0.034949258
67	0xbce65104	-0.028114803
68	0x3e2d4947	0.16922484
69	0x3d20edd3	0.039289307
70	0x3e959073	0.29211769
71	0x3ea90d9c	0.33018196
72	0xbb1db800	-0.0024065971
73	0x3c158528	0.009125985
74	0xbd2511df	-0.040300246
75	0x3d0afdde	0.033933513
76	0x3da11b84	0.07866576
77	0x3c5f4c50	0.013629034
78	0xba891840	-0.0010459498
79	0xbe4d6b56	-0.20060477
80	0x3d5a3030	0.05326861
81	0xbd4c3d4c	-0.049863145
82	0x3978b400	0.00023718178
83	0xbd80b2ec	-0.06284127
84	0xbea25acb	-0.31709895
85	0xbe6be988	-0.23038304
86	0x3c03a1b4	0.0080341585
87	0xbedef6d7	-0.435477
88	0x3e7f21e7	0.24915276
89	0x3f015920	0.5052662
90	0x3ede7086	0.43445224
91	0x3cae1f20	0.021255076
92	0x3cf92114	0.03041128
93	0x3eb7931a	0.35854417
94	0x3e5bcf9a	0.21465912
95	0x3d14ea36	0.036356173
96	0x3d999b58	0.075003326
97	0x3b623680	0.0034517348
98	0x3e7faeb9	0.24968995
99	0xbd06b75a	-0.0328897
100	0xbef1cae5	-0.4722511
101	0x3ba96d9b	0.0051705367
102	0x3b215840	0.0024619251
103	0x3e87bc5e	0.265109
104	0x3e7bf30a	0.24604431
105	0x3d0624e6	0.032750033
106	0xbea52f3a	-0.32262594
107	0xbf17ad0b	-0.5924842
108	0xbd467b34	-0.04845734
109	0x3ab3d1cc	0.001371914
110	0xbc5f14a0	-0.013615757
111	0x3ee95adf	0.45577142
112	0xbd3bf58b	-0.045888465
113	0x3d8ee4ad	0.0697721
114	0xbd8ee7e7	-0.069778256
115	0x3ea5da00	0.32392883
116	0x3a87a50e	0.0010348873
117	0xbd349134	-0.04408379
118	0x3d80cfb1	0.06289614
119	0xbba761e8	-0.005108107
120	0xbc04fa18	-0.008116268
121	0x3e1ff199	0.15619506
122	0x3bec7b60	0.007216856
123	0x3dd2a23e	0.102848515
124	0xbcd6826d	-0.026185239
125	0x3e2f315f	0.17108677
126	0x3d8fb703	0.070173286
127	0x3ca27290	0.019830018

fca1.bias f4 [128]
0	0x3f6603f5	0.8984979
1	0xbf41eda6	-0.7575325
2	0xbf50cd34	-0.81563115
3	0x3efab78c	0.4896816
4	0xbf080e87	-0.53147167
5	0x3f2446d8	0.641706
6	0xbf2b0f95	-0.6682065
7	0x3d5f93b2	0.054584213
8	0x3f196a6c	0.5992801
9	0xbe8f0b9d	-0.27938548
10	0xbf4441f2	-0.76663125
11	0x3f2e7a54	0.6815541
12	0xbf3d7dc2	-0.74020016
13	0xbeabb648	-0.33537507
14	0xbde4f02e	-0.11178623
15	0x3ee78206	0.45216388
16	0x3f282cf1	0.65693575
17	0xbeb2bf98	-0.349118
18	0xbd47ebf0	-0.048808992
19	0x3f0fa780	0.5611496
20	0x3f01f781	0.50768286
21	0xbe69c292	-0.22828129
22	0x3e8977d6	0.2684924
23	0xbf2cb62c	-0.6746547
24	0x3f5a23d2	0.8521091
25	0x3f311061	0.6916562
26	0x3caa8d3c	0.020819299
27	0x3efa66b2	0.48906475
28	0xbf3d1104	-0.7385409
29	0x3f2baa2d	0.6705654
30	0xbf704148	-0.9384961
31	0x3f17a8d9	0.59242016
32	0x3e3a6e18	0.1820606
33	0xbebd35d0	-0.36955118
34	0x3ef418ed	0.47675267
35	0x3f0d2e05	0.55148345
36	0xbecb0258	-0.39650226
37	0xbf539ee0	-0.826643
38	0xbf3e0b54	-0.74236035
39	0x3de89d9e	0.11358188
40	0xbf0616c8	-0.5237851
41	0x3f1c9c07	0.6117558
42	0xbf34cd12	-0.7062541
43	0x3f2f00a1	0.68360335
44	0x3f4f239f	0.8091373
45	0x3f1ca0c2	0.61182797
46	0xbf415ab0	-0.75529003
47	0x3f29105f	0.66040605
48	0xbf4a704c	-0.790776
49	0xbd26892e	-0.04065817
50	0x3ecda092	0.40161568
51	0x3f213f25	0.62986976
52	0x3f074dee	0.52853286
53	0xbdc14728	-0.094374
54	0x3ee281f3	0.44239768
55	0xbf2014f2	-0.6253196
56	0x3ec35525	0.38150898
57	0xbf1f57fa	-0.62243617
58	0xbe0d73e8	-0.13813746
59	0xbf2902e0	-0.6602001
60	0x3f5c5999	0.86074215
61	0xbf261621	-0.64877516
62	0xbf064834	-0.52453923
63	0x3e96164e	0.29313892
64	0x3f449bb1	0.76800066
65	0xbf52c9e2	-0.823393
66	0xbe544a68	-0.20731509
67	0xbe86bbd8	-0.26315188
68	0x3f4b6f57	0.79466766
69	0x3f31e46a	0.6948916
70	0x3f151c74	0.5824654
71	0x3ed0eecc	0.40807188
72	0xbf12bfbc	-0.57323813
73	0xbdfede70	-0.1244477
74	0x3f3862fd	0.72026044
75	0xbebc48a8	-0.36774182
76	0x3f11c49a	0.56940615
77	0xbf79dbb7	-0.97600883
78	0xbf210daa	-0.62911475
79	0x3eb524b4	0.35379565
80	0x3e5f73bf	0.21821497
81	0xbf23ebd4	-0.6403172
82	0xbe265890	-0.16244721
83	0xbf19f308	-0.6013646
84	0x3f511bea	0.8168322
85	0x3ecda784	0.40166867
86	0xbf08feb4	-0.53513646
87	0x3f51757e	0.81819904
88	0x3efee6f3	0.49785575
89	0xbe9e04b6	-0.3086297
90	0x3d278ed5	0.0409077
91	0xbe014052	-0.12622193
92	0xbf65ceee	-0.89768875
93	0x3f36098d	0.71108323
94	0x3f723876	0.946174
95	0xbe5b35d8	-0.21407259
96	0x3f3b8fec	0.7326648
97	0xbe659a40	-0.22422123
98	0x3efcc3af	0.49368045
99	0x3ef89e72	0.48558384
100	0x3f66de87	0.901833
101	0xbdd05040	-0.101715565
102	0xbd8a02f0	-0.067388415
103	0x3f076c9a	0.5290009
104	0x3efb276f	0.49053523
105	0x3e736730	0.23769832
106	0x3f1cab7e	0.61199176
107	0x3f80dff8	1.006835
108	0xbf6649ba	-0.8995625
109	0xbea1e094	-0.31616652
110	0xbeefe0ff	-0.46851346
111	0x3eef7440	0.4676838
112	0x3f6e872d	0.9317501
113	0xbf615f90	-0.8803644
114	0xbf327726	-0.69713056
115	0x3e814ce4	0.25253975
116	0xbca2bea6	-0.019866299
117	0xbe6ea0ae	-0.23303482
118	0xbf6b46cc	-0.919049
119	0x3eb8bb0a	0.360802
120	0xbe91463c	-0.28373897
121	0x3e9fd7ca	0.3121932
122	0xbf28342e	-0.6570462
123	0x3f26c4f6	0.6514429
124	0x3ea34fd3	0.3189684
125	0x3f580a10	0.84390354
126	0xbecdfb14	-0.4023062
127	0xbe90e248	-0.2829764

fc2.weight f4 [128, 256]
0	0xbd97d1bd	-0.07413051
1	0x3dab678b	0.08369359
2	0xbd38bf88	-0.045104533
3	0x3d3e98ba	0.04653237
4	0xbdc53313	-0.09628882
5	0xbd251450	-0.040302575
6	0x3ca1b8ec	0.019741498
7	0xbdc3a0ba	-0.095521405
8	0xbde9a352	-0.11408104
9	0x3d4b2687	0.04959729
10	0x3ccd496a	0.02505942
11	0xbdb1800a	-0.08667
12	0x3d237bae	0.039912872
13	0x3d891c10	0.066948056
14	0xbdb77767	-0.08958321
15	0xbb1c7be0	-0.0023877546
16	0xbc98374d	-0.018581057
17	0xbdb0078d	-0.0859519
18	0xbd05534d	-0.032550145
19	0x3ce0bdf1	0.027434321
20	0xbd94104a	-0.072296694
21	0xbced0a6d	-0.028935635
22	0xbcc83200	-0.024437904
23	0x3d4e118a	0.050309695
24	0xbd34f3bc	-0.044177756
25	0x3d0032c8	0.03129843
26	0x3d3d1d9a	0.04617081
27	0x3d65f78a	0.056144275
28	0xbd938041	-0.07202197
29	0x3d7ff63c	0.062490687
30	0x3b3fdbdd	0.0029275336
31	0xbdade23f	-0.08490419
32	0xbd57480a	-0.052558936
33	0xbcd4002f	-0.025878994
34	0xbda342d7	-0.07971733
35	0xbd4d7c32	-0.05016727
36	0x3d230332	0.03979797
37	0x3b2fb318	0.002680963
38	0x3cd0a8b4	0.025471069
39	0x3d81dfb7	0.06341498
40	0x3c93ca78	0.01804088
41	0xbda58c27	-0.080833726
42	0xbcc77488	-0.024347559
43	0xbd5f01a8	-0.05444494
44	0x3daacf5b	0.08340331
45	0xbd9ee25b	-0.07758018
46	0xbd99d062	-0.07510449
47	0x3cadc12c	0.021210276
48	0xbdd2f68f	-0.103009336
49	0x3c2483c6	0.010041183
50	0xbda83347	-0.082129054
51	0xbafd94da	-0.0019346729
52	0xbdbc7c94	-0.09203449
53	0xbd5285e6	-0.051397227
54	0x3c78495d	0.01515421
55	0xbd89f9a5	-0.06737069
56	0xbd6ccfd4	-0.057815388
57	0xbd08e4b0	-0.03342122
58	0x3c645a40	0.013937533
59	0xbd83112e	-0.06399761
60	0xbd40a022	-0.047027715
61	0xbd9ef9cb	-0.07762488
62	0xbdd13555	-0.102152504
63	0xbd80437e	-0.06262873
64	0x3d3c48fe	0.04596805
65	0xbd2f0350	-0.04272777
66	0x3d12d0c4	0.035843626
67	0xbd909df7	-0.070613794
68	0xbb567519	-0.0032723604
69	0x3ce8341f	0.028345166
70	0x3d127a87	0.035761382
71	0x3d16a3fe	0.03677749
72	0x3d066788	0.03281358
73	0xbdd0470c	-0.10169801
74	0xbcccc881	-0.024997951
75	0x3d88bab7	0.06676238
76	0xbd13ab39	-0.036051963
77	0xbb73c132	-0.003719401
78	0xbd84c7d6	-0.06483428
79	0x3cacf7dd	0.021114284
80	0x3d506a33	0.05088253
81	0xbdb1baa2	-0.086781755
82	0xbbcad098	-0.006189417
83	0xbcbb9233	-0.022896862
84	0x3d5b89e5	0.053598303
85	0xbda68a81	-0.08131886
86	0xbdc6f44c	-0.09714565
87	0xbcdd6677	-0.027026398
88	0xbd4ce01f	-0.050018426
89	0x3c8aa2b0	0.016923279
90	0xbd344ae5	-0.044016737
91	0x3daa41fb	0.08313366
92	0xbc66a7c8	-0.014078088
93	0xbd1aac37	-0.037761893
94	0xbd34c3fd	-0.04413222
95	0xbd5f1cd6	-0.05447086
96	0xbd24ca18	-0.040231794
97	0x3d58fd8b	0.052976172
98	0xbd9cc361	-0.07654453
99	0x3ccadc4f	0.024763254
100	0xbd60d17a	-0.054887272
101	0xbc2d13d8	-0.010563813
102	0xbc4c2859	-0.0124607915
103	0x3ba1cc74	0.004937703
104	0x3c085ca7	0.008322871
105	0x3cc691b4	0.024239399
106	0x3d75714e	0.05992251
107	0x3b92e3ff	0.0044827457
108	0xbda3c210	-0.07995999
109	0xbccf7d78	-0.025328383
110	0x3d825c7b	0.063652955
111	0xbdaa3d4d	-0.083124734
112	0xbd2dd29f	-0.042437192
113	0x3d811d29	0.0630439
114	0x3d7ce1aa	0.061738648
115	0xbd9766cf	-0.07392656
116	0xbca0612c	-0.019577585
117	0x3d19cd8d	0.037549544
118	0xbd8bccb2	-0.06826152
119	0x3d45aee6	0.0482625
120	0x3d5aa466	0.05337944
121	0x3d01349a	0.031544305
122	0x3ca6244c	0.02028098
123	0x3c21caf8	0.009875052
124	0xbb864c90	-0.0040984824
125	0x3d8b96f7	0.06815904
126	0xbd862256	-0.06549518
127	0xbd813c6a	-0.06310351
128	0x3d1f2c92	0.038860865
129	0x3c184410	0.009293571
130	0xbd292b8a	-0.041301288
131	0xbd66d48f	-0.056355055
132	0xbd53de95	-0.051725943
133	0x3c72ea58	0.01482638
134	0x3d2a8346	0.0416291
135	0x3d134d78	0.03596255
136	0xbddc3d96	-0.10753934
137	0xbd298138	-0.041383
138	0x3d9a62db	0.075383864
139	0xbd90b567	-0.0706585
140	0x3d40b506	0.047047637
141	0xbcfe7f3b	-0.031066528
142	0x3ce20b84	0.027593382
143	0xbb7c2991	-0.0038476924
144	0x3d2527d7	0.040321197
145	0x3d373f72	0.04473824
146	0xbdd2527e	-0.102696404
147	0x3c966a5a	0.01836126
148	0x3d7e2562	0.06204737
149	0x3c81e28c	0.015855096
150	0x3d2fca88	0.04291776
151	0x3d3468ee	0.04404538
152	0x3c0c062a	0.0085463915
153	0x3d34663c	0.04404281
154	0xbb08f500	-0.0020897985
155	0xbd886090	-0.06659043
156	0xbdaf2a60	-0.08553004
157	0x3c266ff8	0.010158531
158	0x3d8d9c79	0.069146104
159	0x3ca42dd6	0.020041388
160	0xbd8b17e2	-0.06791665
161	0x3daf4adb	0.085591994
162	0xbd12c4c0	-0.035832167
163	0xbcdaf575	-0.026728371
164	0x3d32ccf2	0.043652482
165	0x3da7605b	0.08172675
166	0xbd6eff93	-0.058349203
167	0xbd855b1d	-0.06511519
168	0xbd87822a	-0.06616624
169	0xb9c5cf53	-0.00037729237
170	0x3d79d26a	0.060991682
171	0x3d04ce7c	0.03242348
172	0xbdc031cf	-0.093845
173	0xbda24d5d	-0.07924912
174	0xbd51c095	-0.05120905
175	0x3ce7900f	0.028266935
176	0x3c42c5f9	0.011888021
177	0x39ddc437	0.00042298596
178	0xbd138041	-0.036010984
179	0xbdb6332e	-0.088964805
180	0xbbe45bbd	-0.006968944
181	0x3d84d789	0.064864226
182	0x3d5c223d	0.05374359
183	0x3c619120	0.013767511
184	0x3cebfce3	0.02880711
185	0x3d471bc2	0.048610456
186	0x3d74e45a	0.059788086
187	0xbc98b2d8	-0.018639967
188	0xbc6dc5ed	-0.014512521
189	0x3d42d34e	0.047564797
190	0xbd00049f	-0.031254407
191	0xbc804651	-0.01565853
192	0xbd0f3e65	-0.034971613
193	0x3cf3b962	0.029751483
194	0x3d76fdfa	0.060300805
195	0x3ce5dadc	0.028058462
196	0xbc27ac62	-0.01023397
197	0xbd68e001	-0.05685425
198	0xbd8b239a	-0.067939
199	0xbc5bdfd6	-0.013420066
200	0xbba8cde0	-0.0051514953
201	0xbd9af287	-0.0756579
202	0xbdcf29e3	-0.10115411
203	0xbc1e12c8	-0.0096480325
204	0xbdd03b54	-0.10167566
205	0xbd3a576f	-0.04549354
206	0xbda58007	-0.0808106
207	0xbc81f402	-0.015863422
208	0xbde10442	-0.1098714
209	0xbc9422d8	-0.018083021
210	0x3d693a32	0.056940265
211	0x3d3f9d5e	0.046780936
212	0xbd9f4403	-0.07776644
213	0xbd6332dc	-0.055468425
214	0xbd246198	-0.040132135
215	0x3cf6ce74	0.030127741
216	0xbbb0ff22	-0.005401508
217	0x3af80add	0.0018924136
218	0xbcc26451	-0.023729475
219	0xbd81d6fa	-0.06339832
220	0x3d94e495	0.07270161
221	0x3d1c80f8	0.03820893
222	0xbc00cb21	-0.00786093
223	0x3da4c8a3	0.08046081
224	0xbd73387a	-0.059380032
225	0x3d618926	0.055062436
226	0x3cadf1de	0.021233495
227	0x3d29dee3	0.041472327
228	0xbca28bde	-0.019842084
229	0x3db043a1	0.08606649
230	0xb9e52b00	-0.0004371032
231	0xbdae382f	-0.0850681
232	0x3ca9cf43	0.020728713
233	0x3b0e5bd4	0.0021722214
234	0x3c47520c	0.012165558
235	0x3d589412	0.052875586
236	0xbcca263c	-0.024676435
237	0x3d6d77cd	0.05797558
238	0xba8dbe40	-0.0010814145
239	0xbd8b90fa	-0.068147615
240	0xbd99b236	-0.07504694
241	0x3c037df0	0.008025631
242	0xbb98e1f0	-0.0046656057
243	0xbc971e0c	-0.018446945
244	0xbd86a33e	-0.06574105
245	0xbcfc2fde	-0.030784544
246	0xbccc4b81	-0.024938347
247	0xbc4c7a61	-0.012480349
248	0x3c2b4088	0.010452397
249	0x3d46b5cb	0.048513215
250	0xbd6be9ec	-0.057596132
251	0xbd88ca08	-0.066791594
252	0xbd8bc7aa	-0.06825192
253	0xbdc4f87b	-0.096177064
254	0x3d83accb	0.06429442
255	0x3d93f959	0.07225294

fc2.bias f4 [128]
0	0xbcad0396	-0.021119874
1	0xbc926030	-0.017868131
2	0xbd98950d	-0.07450304
3	0xbc288666	-0.010285949
4	0xbd42ae89	-0.04752973
5	0x3d8958ec	0.067064136
6	0xbd48ace2	-0.048993
7	0xbe1e1f0a	-0.15441528
8	0x3d501035	0.050796706
9	0x3c7ec972	0.015550958
10	0xbc060ece	-0.008182241
11	0x3c29cca0	0.010363728
12	0x3d0dac0b	0.0345879
13	0xbe328d93	-0.17436819
14	0xbdb50a4d	-0.08839855
15	0xbc8a0ae2	-0.016850892
16	0xbb000bac	-0.0019538207
17	0xbd20d993	-0.039269995
18	0xbd35d956	-0.04439672
19	0x3d9c1a14	0.076221615
20	0xbc909ba4	-0.01765234
21	0xbe011941	-0.1260729
22	0xbd921110	-0.07132161
23	0x3e57727e	0.21039769
24	0x3c9c0d10	0.019049197
25	0x3d978d92	0.07400049
26	0x3d98d48d	0.07462416
27	0x3d5d8f74	0.054091886
28	0xbdc90ac0	-0.098165035
29	0x3d1f6163	0.038911235
30	0xbd862e0e	-0.06551753
31	0x3c02c01c	0.007980373
32	0xbd78977e	-0.06069135
33	0x3e0fb930	0.14035487
34	0x3d9205f8	0.07130045
35	0x3d9d6da8	0.07686931
36	0x3d711ca4	0.058865204
37	0x3cd8cac2	0.02646387
38	0x3df0e957	0.11763256
39	0xbce7b338	-0.0282837
40	0x3b4b4d97	0.003102159
41	0x3d44da46	0.048059724
42	0x3d29531c	0.041339025
43	0xbe3b867b	-0.18313019
44	0xbdaa9294	-0.08328739
45	0x3dc1d883	0.094651245
46	0xbda28fc6	-0.07937579
47	0x3db31d66	0.08745842
48	0xbd27ffa5	-0.041015286
49	0x3c81aed8	0.015830442
50	0xbe0802cf	-0.13282321
51	0xbd2b59cd	-0.041833688
52	0xbb5dfc00	-0.0033872128
53	0x3d3e08cd	0.04639511
54	0x3d27f15f	0.041001674
55	0x3d09417d	0.03350972
56	0xbd22552d	-0.03963201
57	0x3c97927b	0.018502465
58	0x3a6241eb	0.00086310384
59	0x3ca54502	0.020174507
60	0x3d88654e	0.06659947
61	0x3c77d7a5	0.015127097
62	0x3c7d69e1	0.015467138
63	0x3d8ced01	0.068811424
64	0xbc397b09	-0.011320838
65	0xbbf6fc91	-0.0075374325
66	0xbd2f28a5	-0.04276337
67	0x3e046988	0.12930882
68	0x3db685fb	0.089122735
69	0xbe0f0b9d	-0.13969274
70	0xbcbcf5ac	-0.023066364
71	0x3c9d28f0	0.01918456
72	0xbd98a4ad	-0.074532844
73	0xbd72afc1	-0.059249643
74	0xbaf3e601	-0.0018607975
75	0x3b5dcb0a	0.0033842945
76	0xbd091384	-0.033465877
77	0x3b30e539	0.0026992096
78	0xbc16808d	-0.009185922
79	0xbc3ff4cc	-0.011716079
80	0xbd963b7b	-0.07335564
81	0x3e07e0c5	0.13269337
82	0x3bb2a11a	0.0054513337
83	0xbe0ca26b	-0.13733833
84	0x3a7efeb5	0.00097272854
85	0xbc449aba	-0.01199978
86	0x3cbc86fd	0.023013586
87	0x3cf839bd	0.03030097
88	0xbc67819d	-0.014130023
89	0x3bcc40ca	0.0062333094
90	0x3d03333d	0.032031287
91	0x3d721eb3	0.05911131
92	0x3c0f4e04	0.008746628
93	0x3c06f15d	0.008236256
94	0xbce814e0	-0.028330266
95	0x3c8343f2	0.01602361
96	0x3d4f935b	0.05067764
97	0xbcf8ddce	-0.030379202
98	0xbd69c4bd	-0.05707239
99	0xbad68af4	-0.0016368316
100	0x3cfd9974	0.030956961
101	0xbcd55fc1	-0.026046636
102	0xbcc6d8f4	-0.024273373
103	0xbc7641d4	-0.015030343
104	0x3c06de6d	0.008231741
105	0x3cfba4de	0.030718263
106	0x3b05c956	0.0020414195
107	0xbcbd0934	-0.023075677
108	0x3d8f9717	0.0701124
109	0xbd3fbcd2	-0.046810932
110	0xbb64732d	-0.003485869
111	0x3cc9aa00	0.024617195
112	0xbd580f43	-0.05274893
113	0x3cbd0f4e	0.023078587
114	0x3ce1d4f8	0.027567372
115	0xbc16f796	-0.0092143025
116	0x3d83dc59	0.06438512
117	0xbc74611a	-0.014915729
118	0x3b70244a	0.0036642724
119	0xbe1f0583	-0.15529446
120	0x3db79cf6	0.08965485
121	0xbd91b737	-0.071150236
122	0x3c722ed8	0.014781676
123	0xbc597913	-0.013273495
124	0x3d0b6328	0.03403011
125	0xbe0ccdc6	-0.13750371
126	0x3d81b87b	0.06334015
127	0x3d80a2ee	0.06281076

fc3.weight f4 [1, 128]
0	0x3cbf2ffe	0.023338314
1	0xbb17ddee	-0.0023173052
2	0xbc04229c	-0.008064892
3	0xbe351b24	-0.17686135
4	0x3c61bbdb	0.013777698
5	0xbe48fcf1	-0.1962774
6	0x3c083d67	0.008315421
7	0xbdb5d955	-0.088793434
8	0xbe2cc6e3	-0.16872744
9	0x3c1dc91a	0.009630466
10	0xba731d21	-0.0009274055
11	0xbe4cfdf2	-0.20018747
12	0x3cbc1aeb	0.022962054
13	0xbd2b8330	-0.041873157
14	0xbc093768	-0.008375026
15	0xbf48c4a2	-0.7842504
16	0xbe448f29	-0.19195236
17	0xbf11378a	-0.5672537
18	0x3bc7578c	0.0060834344
19	0xbed3584c	-0.41278303
20	0xbe32ef09	-0.17473997
21	0xbdafde10	-0.08587277
22	0xbe24d9b7	-0.16098677
23	0x3fcfa31c	1.6221652
24	0xbe2ff835	-0.17184527
25	0xbe42da56	-0.19028601
26	0xbe4bb912	-0.19894817
27	0xbe46e6ba	-0.19423953
28	0xbc082a61	-0.008310885
29	0xbe35431e	-0.17701384
30	0xbd979723	-0.07401874
31	0xbebcc67a	-0.36870176
32	0xbcefe0ff	-0.029282091
33	0xbe5c2264	-0.21497494
34	0xbe3a6c9a	-0.1820549
35	0xbe244c5f	-0.16044758
36	0xbe45713c	-0.19281477
37	0xbcd8f5bc	-0.026484363
38	0xbe38fb8f	-0.18064712
39	0xbbd09915	-0.006365905
40	0x3bf9bc77	0.0076213437
41	0xbe473b16	-0.19456133
42	0xbe375bd8	-0.1790613
43	0xbd7fd6fb	-0.06246088
44	0x3ca3e787	0.020007862
45	0xbe3e7c2e	-0.18602058
46	0xbdd38717	-0.10328501
47	0xbe320613	-0.1738513
48	0xbe4f2d51	-0.2023213
49	0xbe4aa916	-0.19791064
50	0xbd73f011	-0.059555117
51	0xbd6169d3	-0.055032562
52	0x3b1853e6	0.0023243367
53	0xbe5112d8	-0.20417345
54	0xbe57ad3c	-0.21062177
55	0xbe319c85	-0.17344864
56	0xbb90dc76	-0.0044208122
57	0xbe48188d	-0.19540615
58	0xbe56dc93	-0.2098258
59	0xbf1cc564	-0.61238694
60	0xbe40b7fc	-0.18820184
61	0xbe64f89d	-0.22360463
62	0x3ce4fbe6	0.027952146
63	0xbe2734ba	-0.16328707
64	0xb9099cf9	-0.00013123815
65	0xbbac4f6b	-0.005258491
66	0xbe63d923	-0.222508
67	0xbfecd44d	-1.8502289
68	0xbf07dbdf	-0.5306987
69	0xbd97645b	-0.07392188
70	0x3cf8fd0f	0.030394105
71	0xbb5ed991	-0.0034004191
72	0x3ce61cf7	0.028089983
73	0xbd9174ce	-0.07102357
74	0xbe4dff6a	-0.20116964
75	0xbe4ae546	-0.19814023
76	0x3ce5e364	0.02806253
77	0xbe6585e1	-0.22414352
78	0xbe4abe63	-0.1979919
79	0xbe5f3b58	-0.21799982
80	0xbdae20bf	-0.085023396
81	0xbff545d3	-1.9161934
82	0xbb9b6ba0	-0.0047430545
83	0xbdcf7fd4	-0.10131803
84	0xbe42316a	-0.18964162
85	0xbc8dcf34	-0.017310716
86	0xbe2a375d	-0.16622682
87	0xbccbd650	-0.024882466
88	0xbd27bc02	-0.040950783
89	0xbe2cec5b	-0.16887037
90	0xbe38de73	-0.18053608
91	0xbf92fb73	-1.1482986
92	0x3be993b2	0.0071282024
93	0xbce5ea2e	-0.028065767
94	0x3cc3c7ca	0.023898978
95	0xbcf3d4ba	-0.029764522
96	0x3bc8637e	0.006115376
97	0xbb23c846	-0.0024991198
98	0xbe565d19	-0.20933951
99	0xbe5c9b7a	-0.21543685
100	0xbe48fb40	-0.19627094
101	0xbbc99817	-0.0061521637
102	0xbcfbdf59	-0.030746149
103	0xbcd86533	-0.026415443
104	0xbe4a16ad	-0.19735213
105	0xbe296fa9	-0.16546501
106	0xbe3e0ee3	-0.18560366
107	0x3cba6d3a	0.022757161
108	0xbe44b051	-0.19207884
109	0xbfe57daf	-1.792898
110	0x3c774f5d	0.015094605
111	0xbca990a6	-0.020698857
112	0x3bfe0a0b	0.007752662
113	0xbe2da6bc	-0.16958135
114	0xbe5010e0	-0.20318937
115	0x3f8ae6e0	1.0851707
116	0xbe37ad61	-0.17937233
117	0xbeb298e1	-0.34882262
118	0xbe344ab3	-0.1760662
119	0xbdbde00c	-0.09271249
120	0xbe21c808	-0.15798962
121	0xbceedf2e	-0.029159155
122	0xbcacd89e	-0.021099385
123	0xbe8f9ba6	-0.28048438
124	0xbe238aa4	-0.15970856
125	0xbd78c35d	-0.060733188
126	0xbe3fcecd	-0.18731232
127	0xbf26ab3d	-0.6510504
