Actor-Critic/PyTorch-ActorCriticRL/Models/200_actor.pt (torch_old, 170218 bytes, 7 tensors)

fc1.weight f4 [256, 3]
-0.14627382 0.34233785 0.26048648 -0.23636343 -0.5047626 -0.16761589 -0.12580384 0.27148888
0.23930824 0.058912423 -0.2582446 0.07378088 -0.31927213 0.31621978 -0.20847185 -0.13930345
0.54296255 -0.079031914 -0.23894711 -0.733068 -0.28204626 0.023170032 -0.06001126 -0.018731527
0.5124274 -0.06464144 -0.17590435 -0.24169508 -0.75175434 -0.029055703 -0.45897993 -0.1285026
-0.16799839 0.26764026 -0.5616699 0.2818847 -0.14306408 0.47740856 0.043684565 0.41241553
0.22761261 -0.1511367 -0.0010221526 -0.049710542 0.025349565 0.12809263 -0.064101316 -0.49729073
-0.054373443 0.062371477 -0.00616543 -0.23176396 -0.77038354 -0.017181363 0.3114227 -0.6071884
-0.18525285 0.09252982 -0.8500946 -0.0100656245 0.5550562 -0.2714018 0.21425311 0.10054111
-0.66660434 0.16302659 -0.045149483 0.03376088 0.0035370216 0.4534731 0.12788396 -0.1860002
-0.27644175 0.23208593 0.28754848 -0.051970333 -0.026484363 0.052880213 0.06163623 0.009609759
-0.022328869 0.5026345 -0.5088392 0.11122534 -0.32571754 0.48457694 -0.1342648 0.5215923
-0.24521804 0.17375629 0.058749106 -0.639307 -0.0074660783 -0.019400422 0.7404469 -0.12354699
0.54249966 -0.42106274 0.17195714 0.18841644 -0.44158846 -0.046823516 -0.012395981 -1.0862848
-0.29354823 0.020383827 0.058108583 -0.052551664 0.05750991 -0.004742831 -0.02233097 -0.02876613
0.039911408 0.006357522 0.28585377 -0.39383513 0.09361386 -0.19710971 -0.9347027 -0.05532084
-0.43155137 -0.19261712 -0.15398201 0.402235 0.37511143 0.105866335 0.22761016 -0.1801248
0.39290246 0.39049003 -0.17505583 0.043201476 0.37509212 -0.51543003 -0.17720476 0.044881277
-1.0725604 -0.25238505 0.39654824 0.2341776 -0.22818099 0.43470117 -0.24752717 -0.13686468
0.3088461 -0.59307075 -0.19865647 -0.06632774 0.807898 -0.12720534 0.5340648 0.15954767
-0.2133452 -0.028907694 0.066352 0.020829296 -0.25047886 -0.7316692 -0.025854759 -0.41169497
0.41111237 0.024731655 -0.02318766 0.0006474231 0.010830201 0.50780946 0.02458843 -0.15865432
0.1287162 0.30403098 -0.09025564 0.059836067 -0.037963063 0.018106103 0.119092055 1.1331359
0.21391508 0.14702453 -0.2080227 0.1262148 0.5784548 0.09157134 -0.19513005 -0.05480256
0.027111247 -0.02514556 -0.088205524 -0.26707214 0.32873684 0.30952853 0.50379163 -0.2219271
-0.20846365 0.46278226 -0.10925431 0.013149046 -0.014555363 0.006035281 -0.118295565 0.60618645
-0.09655995 0.3581646 -0.51365596 -0.17833515 -0.021628382 0.026793564 -0.036733694 -0.0015886821
-0.005693481 -0.012674067 -0.19951776 0.4879597 -0.045543753 -0.11854474 -0.96639395 -0.0072257556
0.049364313 0.019737775 -0.010423645 0.050190583 0.0055379486 0.010356907 0.010937128 0.04279482
-0.00014922454 -0.30140123 0.43821588 -0.2115892 0.3137116 -0.34946826 -0.04243221 0.08577702
0.27070346 -0.13658535 0.025170766 0.017891586 -0.007935479 0.25682676 -0.78870404 -0.23935409
-0.041439176 0.057409327 -0.021597013 0.038663425 -0.056877755 0.00962913 0.2878138 0.67054147
-0.03538215 -0.45018464 -0.05818815 -0.09621416 -0.0023216382 0.014073863 0.0003876537 0.6651936
00000000: cec8 15be e846 af3e 7c5e 853e 4109 72be
00000010: 1f38 01bf 80a3 2bbe b9d2 00be 9700 8b3e
00000020: 380d 753e 274e 713d a338 84be 6e1a 973d
00000030: a377 a3be 8fe7 a13e a579 55be 90a5 0ebe
00000040: 98ff 0a3f 7cdb a1bd 8dae 74be 58aa 3bbf
00000050: 5e68 90be 14cf bd3c 5ece 75bd dc72 99bc
00000060: 712e 033f bb62 84bd 4520 34be ea7e 77be
00000070: f972 40bf 3a06 eebc 6bff eabe 3096 03be
00000080: c507 2cbe 2508 893e 99c9 0fbf 3153 903e
00000090: 647f 12be e56e f43e 96ee 323d 2128 d33e
000000a0: 4813 693e 94c3 1abe c0f9 85ba 489d 4bbd
000000b0: e4a9 cf3c b72a 033e 8d47 83bd e49c febe
000000c0: b0b6 5ebd 3c79 7f3d 6007 cabb 8853 6dbe
000000d0: db37 45bf eebf 8cbc cc72 9f3e b370 1bbf
000000e0: ecb2 3dbe 4680 bd3d cd9f 59bf 4aea 24bc
000000f0: 2a18 0e3f 2df5 8abe 2b65 5b3e 7fe8 cd3d
00000100: 95a6 2abf 71f0 263e aaee 38bd d948 0a3d
00000110: 60cd 673b a02d e83e 03f4 023e d676 3ebe
00000120: c689 8dbe efa7 6d3e 8e39 933e d8de 54bd
00000130: bcf5 d8bc ec98 583d 4676 7c3d 4072 1d3c
00000140: 08eb b6bc a8ac 003f 4943 02bf 1cca e33d
00000150: 73c4 a6be 781a f83e b67c 09be 1387 053f
00000160: 701a 7bbe 2bed 313e e7a2 703d a0a9 23bf
00000170: 01a6 f4bb a2ed 9ebc ee8d 3d3f 3406 fdbd
00000180: 42e1 0a3f 8995 d7be 8815 303e 3df0 403e
00000190: e217 e2be 04ca 3fbd 8318 4bbc 610b 8bbf
000001a0: f44b 96be fcfb a63c 4403 6e3d 6a40 57bd
000001b0: 838f 6b3d c069 9bbb 70ef b6bc f2a6 ebbc
000001c0: 257a 233d c352 d03b 6d5b 923e c2a4 c9be
000001d0: a0b8 bf3d 21d7 49be ad48 6fbf 1b98 62bd
000001e0: 4df4 dcbe 6c3d 45be 76ad 1dbe bff1 cd3e
000001f0: 9b0e c03e 73d0 d83d a312 693e a372 38be
00000200: 832a c93e 4fee c73e d641 33be 08f4 303d
00000210: 130c c03e 39f3 03bf 2a75 35be 6ed5 373d
00000220: a949 89bf 9d38 81be 5f08 cb3e 41cc 6f3e
00000230: 47a8 69be 2791 de3e c377 7dbe 4126 0cbe
00000240: 1321 9e3e 7cd3 17bf 9a6c 4bbe d7d6 87bd
00000250: 67d2 4e3f 1e42 02be 79b8 083f 7760 233e
00000260: 2a77 5abe d4cf ecbc 8fe3 873d 33a2 aa3c
00000270: c43e 80be ac4e 3bbf 5ccd d3bc afc9 d2be
00000280: 527d d23e 0a9a ca3c 0cf4 bdbc d4b7 293a
00000290: 2871 313c cdff 013f ad6d c93c 4776 22be
000002a0: 2ece 033e f3a9 9b3e f3d7 b8bd aa16 753d
000002b0: 287f 1bbd 4053 943c 89e6 f33d 990a 913f
000002c0: 8e0c 5b3e 998d 163e e703 55be 743e 013e
000002d0: 9d15 143f c189 bb3d 2cd0 47be a678 60bd
000002e0: 6818 de3c 10fe cdbc 19a5 b4bd aebd 88be
000002f0: 3250 a83e 867a 9e3e 7df8 003f dc40 63be
00000300: 7f77 55be ccf1 ec3e b9c0 dfbd 196f 573c
00000310: 9e79 6ebc 9bc3 c53b f244 f2bd 092f 1b3f
00000320: 39c1 c5bd 5a61 b73e f57e 03bf 7d9d 36be
00000330: 012e b1bc 2d7e db3c 1276 16bd 533b d0ba
00000340: 6190 babb e4a6 4fbc 624e 4cbe dbd5 f93e
00000350: 168c 3abd 96c7 f2bd 9865 77bf 08c6 ecbb
00000360: 3c32 4a3d 1db1 a13c f0c7 2abc a494 4d3d
00000370: ae77 b53b 04b0 293c a431 333c 9f49 2f3d
00000380: 2879 1cb9 4351 9abe d55d e03e d7aa 58be
00000390: cf9e a03e 81ed b2be 66cd 2dbd ddab af3d
000003a0: a599 8a3e 08dd 0bbe ec32 ce3c 6091 923c
000003b0: d003 02bc cc7e 833e 82e8 49bf 3d19 75be
000003c0: 20bc 29bd 0b26 6b3d 38ec b0bc 8a5d 1e3d
000003d0: a6f8 68bd 80c3 1d3c 555c 933e 9ba8 2b3f
000003e0: e0ec 10bd 9a7e e6be b356 6ebd ee0b c5bd
000003f0: a026 18bb 0f96 663c 003e cb39 214a 2a3f

fc1.bias f4 [256]
0.0767876 0.11709274 -0.07862552 -0.36296 -0.060109723 -0.030609567 0.29837275 -0.27531493
-0.19111052 0.17271334 0.095541984 0.054695595 0.042068336 -0.22728628 -0.32045504 0.17721793
-0.28019893 0.16128935 -0.21967803 0.15264262 -0.15869322 -0.14538322 -0.56676966 -0.5065976
0.13463354 -0.5293517 -0.2854837 -0.32480076 0.22424987 -0.18485476 0.08074881 0.16307278
-0.23169072 -0.19273226 0.1213853 -0.5737742 -0.37881377 -0.18849467 -0.19157638 0.34051028
0.035702243 -0.08424231 0.1561608 -0.06479344 -0.23553987 0.09504326 -0.24437627 -0.023736726
-0.2545798 0.22807838 -0.5897075 -0.2551261 0.17830725 0.2804074 -0.45091337 -0.05601083
-0.20466569 -0.4137525 0.16966675 -0.75119734 -0.2705176 -0.38329333 0.124796435 -0.24746677
0.29220808 -0.084099516 0.28379488 -0.27405658 -0.3919801 -0.1590049 0.027350303 0.053957354
-0.22591424 -0.2353366 -0.112076804 -0.036907133 -0.161233 -0.24514271 -0.47771204 -0.1928026
-0.48562658 -0.20431991 -0.09429085 0.17611241 -0.5203649 -0.09114367 0.10732548 -0.13727371
-0.2972638 -0.055461694 -0.2929457 0.037138514 0.16522457 -0.53525245 0.29812542 -0.025211297
-0.38593015 -0.49826816 -0.051471174 -0.54160976 -0.55141807 -0.10880261 0.26836157 -0.013291933
-0.24455158 -0.044580575 -0.0141356755 0.2654103 -0.16332968 0.22837895 -0.1413468 -0.3865262
-0.36968768 0.010185634 -0.5553893 0.18285315 -0.41681018 -0.19126904 0.35065165 -0.15591343
-0.10399436 -0.20484827 -0.5605785 -0.31056955 -0.23803551 -0.35091197 0.17434004 0.13145027
-0.1707232 0.073185906 0.10866481 0.3107992 0.375669 0.07777897 -0.3622434 -0.46236333
0.1996193 0.23138884 -0.10976127 -0.5120319 -0.4612714 -0.36949527 -0.109000936 -0.34097397
0.0031407927 -0.23408385 -0.04387057 -0.5241692 -0.55077547 0.07995499 0.0815253 -0.35252133
-0.48017842 -0.6613596 0.08005262 -0.4626125 -0.37500814 -0.22259721 0.16922636 0.17613947
0.022305677 -0.1161988 -0.2107424 -0.5152806 -0.02986417 -0.27299136 -0.032279715 0.33399257
-0.038767025 -0.13267764 -0.5924429 -0.46207607 0.26503205 -0.21265101 -0.20424274 -0.21683612
0.24581937 0.017339395 0.20773171 -0.22692527 0.12640752 -0.03482259 -0.18111828 0.13284507
0.20345488 0.17336875 -0.06993712 -0.51208913 -0.329007 -0.21794654 0.08019369 -0.35815847
-0.16998719 -0.35934487 -0.050097775 0.048156034 -0.19183862 -0.06614776 0.35931545 -0.115418576
0.2545665 0.2398172 -0.34089828 -0.28743222 -0.467679 -0.040175486 -0.012613826 -0.4521535
-0.08623041 0.3906251 0.041593105 -0.024730913 -0.5346775 0.16898632 -0.2843191 -0.13759707
-0.6553039 0.17246917 0.033285093 -0.49831116 -0.33569688 0.2840844 -0.40276867 0.14403033
0.07833495 -0.12160622 -0.44057745 -0.73684204 0.23126805 -0.38759303 -0.14775437 0.13418582
-0.4655617 -0.021961724 0.4025643 -0.3098789 -0.18589015 0.014431182 0.21654996 -0.29064137
-0.27980027 0.31137994 -0.3381207 -0.14293683 -0.09480226 -0.14984754 -0.08915108 -0.072290875
-0.7431601 -0.3600018 0.06901865 -0.64437276 0.3258716 0.13255033 -0.34723422 -0.043815393
00000000: d142 9d3d 52ce ef3d 6b06 a1bd e5d5 b9be
00000010: 9d35 76bd eac0 fabc 50c4 983e 14f6 8cbe
00000020: 7ab2 43be c4db 303e 84ab c33d 7d08 603d
00000030: d94f 2c3d bcbd 68be af12 a4be 9e78 353e
00000040: 3c76 8fbe 0929 253e 47f3 60be 594e 1c3e
00000050: 7a80 22be 57df 14be d117 11bf 61b0 01bf
00000060: 60dd 093e 9883 07bf eb2a 92be 494c a6be
00000070: c2a1 653e 914a 3dbe a25f a53d 8dfc 263e
00000080: 5540 6dbe 9b5b 45be db98 f83d dee2 12bf
00000090: e1f3 c1be bf04 41be 992c 44be 5d57 ae3e
000000a0: 843c 123d 3b87 acbd 9ee8 1f3e 6cb2 84bd
000000b0: 5d31 71be 0aa6 c23d c63d 7abe 8673 c2bc
000000c0: 4958 82be 618d 693e 12f7 16bf e39f 82be
000000d0: 2d96 363e 8f91 8f3e 1ede e6be 9d6b 65bd
000000e0: e293 51be 5ed7 d3be 1fbd 2d3e 784e 40bf
000000f0: 4881 8abe 063f c4be 4695 ff3d ee67 7dbe
00000100: 4c9c 953e 5e3c acbd 904d 913e 2551 8cbe
00000110: 9eb1 c8be 2ed2 22be be0d e03c 6302 5d3d
00000120: 1056 67be 14fc 70be 8688 e5bd ef2b 17bd
00000130: 431a 25be b106 7bbe ac96 f4be 0b6e 45be
00000140: 0ca4 f8be 3d39 51be 901b c1bd d056 343e
00000150: a236 05bf 88a9 babd 76cd db3d 7b91 0cbe
00000160: f632 98be cd2b 63bd fbfc 95be 8e1e 183d
00000170: a130 293e 4e06 09bf e5a3 983e ec87 cebc
00000180: a398 c5be 011d ffbe 70d3 52bd f0a6 0abf
00000190: bc29 0dbf e7d3 debd b066 893e 68c6 59bc
000001a0: bb6b 7abe 1f9a 36bd 5299 67bc dce3 873e
000001b0: e53f 27be 2cdc 693e 37bd 10be c3e6 c5be
000001c0: b447 bdbe a5e1 263c fe2d 0ebf db3d 3b3e
000001d0: 2568 d5be 08dc 43be 9d88 b33e c5a7 1fbe
000001e0: fffa d4bd bfc3 51be 1382 0fbf f902 9fbe
000001f0: 95bf 73be bcaa b3be 3286 323e e69a 063e
00000200: 10d2 2ebe 7ee2 953d a88b de3d 1321 9f3e
00000210: b057 c03e 954a 9f3d f877 b9be e3ba ecbe
00000220: 0069 4c3e 32f1 6c3e 84ca e0bd 8614 03bf
00000230: c42b ecbe 7c2e bdbe e23b dfbd 2494 aebe
00000240: c2d5 4d3b adb3 6fbe a0b1 33bd f42f 06bf
00000250: 9fff 0cbf 71bf a33d bdf6 a63d ad7d b4be
00000260: f2d9 f5be dd4e 29bf a1f2 a33d 8cdb ecbe
00000270: 1101 c0be 86f0 63be ad49 2d3e e85d 343e
00000280: 65ba b63c a3f9 edbd dbcc 57be 6ee9 03bf
00000290: b4a5 f4bc 86c5 8bbe bc37 04bd 1301 ab3e
000002a0: 2cca 1ebd a6dc 07be 57aa 17bf 3c95 ecbe
000002b0: 48b2 873e 30c1 59be 0225 51be 4a0a 5ebe
000002c0: 13b8 7b3e 590b 8e3c 9fb7 543e 195f 68be
000002d0: f970 013e 22a2 0ebd 1277 39be 8a08 083e
000002e0: 7a56 503e 9487 313e 313b 8fbd 4618 03bf
000002f0: 9b73 a8be 612d 5fbe 973c a43d 8c60 b7be
00000300: 1f11 2ebe 0dfc b7be 5333 4dbd 433f 453d
00000310: 5871 44be 7a78 87bd 32f8 b73e 9360 ecbd
00000320: 8a56 823e a492 753e 388a aebe 512a 93be
00000330: 9f73 efbe 0d8f 24bd 39aa 4ebc aa80 e7be
00000340: 9299 b0bd 0300 c83e 885d 2a3d 7c98 cabc
00000350: a0e0 08bf c00a 2d3e 4692 91be 3fe6 0cbe
00000360: ffc1 27bf c29b 303e f355 083d a422 ffbe
00000370: 76e0 abbe 8373 913e b237 cebe b07c 133e
00000380: 136e a03d af0c f9bd 5e93 e1be aea1 3cbf
00000390: 88d1 6c3e 9872 c6be ec4c 17be 0268 093e
000003a0: 1a5e eebe 13e9 b3bc e81c ce3e 72a8 9ebe
000003b0: fd59 3ebe c470 6c3c 46bf 5d3e f2ce 94be
000003c0: fb41 8fbe 316d 9f3e 281e adbe 085e 12be
000003d0: b027 c2bd a271 19be d794 b6bd 3d0d 94bd
000003e0: be3f 3ebf 2852 b8be a659 8d3d 9df5 24bf
000003f0: a4d8 a63e 46bb 073e afc8 b1be c577 33bd

fc2.weight f4 [128, 256]
-0.07096397 -0.042906586 -0.026353976 0.0047076633 -0.080254965 -0.10735308 0.033522453 0.020688146
-0.05178779 0.04413967 -0.14642815 0.012164626 -0.21226233 0.06711941 0.0062187538 0.036860358
-0.059037723 -0.07205177 0.03185723 -0.091155306 -0.10716681 0.04362557 -0.024865702 -0.09647509
-0.05338596 0.041323684 -0.019489236 -0.07153022 0.03331011 -0.096020594 -0.00998903 -0.059096906
0.022129439 -0.0026695542 -0.10577353 -0.052141983 0.04758561 0.0905071 0.04901241 -0.0048659905
-0.22978632 0.0067649814 -0.05450729 0.04465749 -0.05480904 -0.027795682 -0.013315757 -0.059000045
0.09636332 -0.06347604 0.0017641223 -0.0038097405 0.007389907 -0.14984056 0.01929446 0.04668035
0.01435885 0.05667054 0.01765531 -0.19533439 -0.011611414 0.03185471 0.100073755 0.17106007
-0.040716086 0.016500454 0.017245522 0.038216382 0.024996089 0.09708604 -0.1557713 -0.03683056
-0.049634546 0.05884731 -0.03702055 -0.1524185 0.020855375 -0.05615389 0.013208653 0.027890675
0.03691887 -0.08769682 -0.012185116 -0.25697386 0.07278206 0.071947455 0.0362196 -0.09001535
-0.0016083566 -0.06201012 0.085559845 -0.102607 -0.056884054 -0.035403755 -0.15291025 -0.13526703
0.09043259 -0.04298124 0.039963566 -0.18996991 0.018085586 -0.036659192 -0.17547089 0.021730829
-0.0036434974 0.025070595 -0.12559606 -0.065957114 0.013431241 -0.08375678 0.035895497 -0.103814006
-0.02743246 0.039106738 0.021124907 -0.049798463 0.22771502 0.025092946 -0.08985889 -0.01415582
-0.0010610812 -0.029926574 0.08055159 0.0669441 0.004771925 -0.059740007 0.0017500358 -0.020123348
0.018188033 0.045044925 -0.06922051 -0.19810605 -0.023530168 -0.08918833 -0.058282506 0.008256747
-0.1208984 -0.10847068 0.01677054 0.016337685 -0.028114196 0.07975157 -0.00020752026 -0.0367599
0.014933484 0.21366304 0.026797289 0.0353546 0.052514233 -0.015513706 0.12425865 -0.02165446
-0.027738001 -0.22263367 -0.12159132 -0.019613646 -0.077423885 0.031092605 -0.25682482 0.027810581
-0.015350723 0.0076325196 -0.046125274 -0.056499146 -0.0074453214 0.053970836 0.030142643 0.021475643
0.03667409 -0.017752169 -0.0039784284 -0.005757743 -0.11030354 0.068803266 -0.11559352 0.02175318
0.0582289 -0.027961459 -0.07961421 0.024128085 0.11031844 0.020469802 -0.0032863305 -0.024541598
0.001348165 -0.097697 -0.055099618 -0.05416501 -0.095469244 -0.018808303 0.049794734 -0.2085966
0.039870434 0.08737035 -0.0026593097 -0.3576772 0.022576481 -0.06322272 -0.09166195 -0.094970055
-0.04717955 -0.13416433 0.07086564 -0.057234555 -0.06070625 0.016394282 -0.07651473 -0.063495986
0.010530135 0.10917848 -0.11389477 -0.061008003 0.03191211 -0.03654371 -0.010748416 -0.06308861
-0.30620793 -0.04518277 -0.036260583 0.052756377 -0.08502801 -0.0994181 -0.033200916 0.084300674
-0.03663684 0.03476672 0.0054330453 -0.25804675 0.03742661 -0.03282504 -0.009000883 -0.2708321
-0.24458337 -0.14587681 0.01913613 -0.023541935 -0.0861857 -0.033589516 -0.109387115 0.01623223
-0.047481302 -0.08922558 -0.048833597 0.030477922 0.021165356 0.06629094 -0.040954504 -0.092787005
-0.24798088 0.0126228435 0.015921164 -0.25134113 -0.15478781 -0.07723744 0.24377868 -0.095655516
00000000: 8f55 91bd d1be 2fbd 4be4 d7bc be42 9a3b
00000010: b75c a4bd eedb dbbd d74e 093d 307a a93c
00000020: 6f1f 54bd cccb 343d 43f1 15be 244e 473c
00000030: 4c5b 59be e775 893d b0c6 cb3b e3fa 163d
00000040: 8ad1 71bd e18f 93bd ba7c 023d a2af babd
00000050: 467a dbbd bab0 323d 28b3 cbbc bb94 c5bd
00000060: 3dab 5abd 0643 293d e4a7 9fbc 707e 92bd
00000070: 2f70 083d 72a6 c4bd 07a9 23bc 990f 72bd
00000080: cc48 b53c b0f3 2ebb cb9f d8bd d592 55bd
00000090: 21e9 423d c95b b93d 3dc1 483d e372 9fbb
000000a0: 1b4d 6bbe c7ac dd3b 0943 5fbd c6ea 363d
000000b0: 727f 60bd c5b3 e3bc 552a 5abc 08aa 71bd
000000c0: 225a c53d baff 81bd 1f3a e73a d7ac 79bb
000000d0: 0827 f23b ce6f 19be 6a0f 9e3c e533 3f3d
000000e0: 6241 6b3c 5e1f 683d dea1 903c bd05 48be
000000f0: cd3d 3ebc 167a 023d 78f3 cc3d 5f2a 2f3e
00000100: e9c5 26bd f62b 873c 7b46 8d3c c888 1c3d
00000110: 99c4 cc3c 0cd5 c63d 8382 1fbe a4db 16bd
00000120: 984d 4bbd e009 713d dca2 17bd 9813 1cbe
00000130: e4d8 aa3c 9f01 66bd 1b69 583c fc7a e43c
00000140: 3e38 173d 649a b3bd 15a4 47bc 1492 83be
00000150: c30e 953d 3059 933d 015b 143d f859 b8bd
00000160: 7ecf d2ba 53fe 7dbd 003a af3d 9e23 d2bd
00000170: 41ff 68bd 8703 11bd 8194 1cbe 7183 0abe
00000180: b934 b93d 190d 30bd d6b0 233d 7987 42be
00000190: 3928 943c f327 16bd a4ae 33be da04 b23c
000001a0: bec7 6ebb d960 cd3c 419c 00be 8614 87bd
000001b0: b50e 5c3c ad88 abbd 2807 133d 709c d4bd
000001c0: 0aba e0bc 632e 203d 240e ad3c 79f9 4bbd
000001d0: 202e 693e b98f cd3c f007 b8bd d0ed 67bc
000001e0: fa13 8bba 9328 f5bc 3bf8 a43d fd19 893d
000001f0: cf5d 9c3b f0b1 74bd 7561 e53a b8d9 a4bc
00000200: 12ff 943c 0781 383d 7cc3 8dbd 50dc 4abe
00000210: 57c2 c0bc 5fa8 b6bd a3b9 6ebd 4f47 073c
00000220: 9599 f7bd e025 debd 5f62 893c 9cd6 853c
00000230: be4f e6bc cb54 a33d cc99 59b9 8d91 16bd
00000240: 92ab 743c 7cca 5a3e fd85 db3c fccf 103d
00000250: 2a19 573d 332d 7ebc 527b fe3d b264 b1bc
00000260: ce3a e3bc 15fa 63be df04 f9bd ccac a0bc
00000270: 6a90 9ebd ebb5 fe3c 8b7e 83be 04d3 e33c
00000280: 9981 7bbc 371a fa3b dbed 3cbd a66b 67bd
00000290: e2f7 f3bb 8610 5d3d b4ed f63c b0ed af3c
000002a0: 9237 163d ff6c 91bc 7a5d 82bb 73ab bcbb
000002b0: d3e6 e1bd bae8 8c3d 4cbc ecbd ba33 b23c
000002c0: 6d81 6e3d 6e0f e5bc c60c a3bd 43a8 c53c
000002d0: a2ee e13d 49b0 a73c 7a5f 57bb 760b c9bc
000002e0: e9b4 b03a 5d15 c8bd 23b0 61bd 21dc 5dbd
000002f0: 6185 c3bd df13 9abc 90f5 4b3d 599a 55be
00000300: 2e4f 233d 3aef b23d d047 2ebb 7721 b7be
00000310: 50f2 b83c ea7a 81bd 43b9 bbbd a97f c2bd
00000320: 583f 41bd 6062 09be 0122 913d c86e 6abd
00000330: 1ea7 78bd 4d4d 863c c1b3 9cbd 2f0a 82bd
00000340: 9686 2c3c f898 df3d a941 e9bd 87e3 79bd
00000350: 46b6 023d dbae 15bd 201a 30bc 9a34 81bd
00000360: 49c7 9cbe 9111 39bd fa85 14bd 1217 583d
00000370: 2a23 aebd b89b cbbd affd 07bd d5a5 ac3d
00000380: 8310 16bd 8c67 0e3d b007 b23b b41e 84be
00000390: a54c 193d 8d73 06bd 7178 13bc 81aa 8abe
000003a0: 1074 7abe bb60 15be 60c3 9c3c 04db c0bc
000003b0: 2182 b0bd 2995 09bd 5a06 e0bd 74f9 843c
000003c0: c17b 42bd e7bb b6bd bd05 48bd d6ac f93c
000003d0: f862 ad3c 8bc3 873d e9bf 27bd 1d07 bebd
000003e0: b3ee 7dbe 0bd0 4e3c 1a6d 823c c9af 80be
000003f0: b280 1ebe aa2e 9ebd 1ea1 793e 0ae7 c3bd

fc2.bias f4 [128]
-0.11210661 0.009764455 -0.0781996 -0.23367515 0.09883546 0.046531335 -0.06196169 -0.0013393174
-0.2441428 -0.10003539 -0.0794356 -0.09007496 -0.1447443 0.051679753 -0.18283166 0.101407066
-0.31306857 -0.10101255 -0.18709686 -0.06084409 -0.13988991 -0.08520666 -0.102845415 -0.04121042
-0.045716047 -0.06720138 -0.15185665 -0.049969826 -0.0016248374 -0.011698959 -0.27818182 -0.061972868
-0.08024006 -0.046665452 -0.08044124 0.01778942 -0.04643448 -0.05644819 -0.047734622 -0.2912828
0.008198072 -0.22170122 -0.12384142 -0.037560724 -0.054939426 -0.032669354 -0.024059894 -0.04891391
-0.10036196 0.031979647 -0.09296051 -4.9177015e-05 -0.038901847 0.012762543 -0.03957613 -0.084455125
0.030604584 -0.02749531 -0.08200187 -0.07664884 -0.09109896 -0.13455671 -0.04751221 0.03483938
-0.006707239 -0.08297446 -0.112118274 -0.00460382 0.024835898 0.025055693 -0.09860598 -0.10966255
-0.025607044 -0.007018305 -0.043674003 0.022097774 0.025210295 -0.11718797 -0.055636067 0.026864344
-0.18191272 -0.058776528 -0.06603908 -0.014763051 -0.062028747 -0.05826243 -0.20190558 0.045753524
-0.050312556 0.06891483 -0.010114759 -0.060326267 0.041733287 -0.07585162 0.048366517 0.044806503
-0.0339993 -0.0045894887 -0.0019019599 -0.02165446 -0.15466033 -0.05862006 -0.049947474 0.026994731
-0.0568468 -0.08768161 -0.06591656 -0.029768951 -0.041997604 -0.028678587 -0.15940514 -0.062850185
-0.30413017 0.034058902 0.0069325706 -0.037240345 -0.1038819 -0.039615188 0.023913877 -0.040060427
-0.19278169 -0.06866916 0.034178115 -0.18746647 -0.050033156 -0.055908017 -0.12884456 0.015313468
00000000: 2698 e5bd 18fb 1f3c 1d27 a0bd 8a48 6fbe
00000010: 3f6a ca3d a497 3e3d 8bcb 7dbd 098c afba
00000020: 9200 7abe 5bdf ccbd 22af a2bd 3879 b8bd
00000030: da37 14be 26ae 533d 3938 3bbe 82ae cf3d
00000040: 864a a0be abdf cebd 5296 3fbe a737 79bd
00000050: 4d3f 0fbe d480 aebd 9ea0 d2bd 42cc 28bd
00000060: c040 3bbd e1a0 89bd 4f80 1bbe 29ad 4cbd
00000070: 7ff8 d4ba feac 3fbc d96d 8ebe 43d7 7dbd
00000080: e754 a4bd 4624 3fbd 60be a4bd 1ebb 913c
00000090: 1532 3ebd 3836 67bd 6185 43bd 0523 95be
000000a0: 3551 063c a505 63be 92a0 fdbd 46d9 19bd
000000b0: 2a08 61bd 4dd0 05bd 4119 c5bc f459 48bd
000000c0: 928a cdbd 17fd 023d 1462 bebd 6b43 4eb8
000000d0: 8b57 1fbd fc19 513c 951a 22bd cff6 acbd
000000e0: 77b6 fa3c d83d e1bc 99f0 a7bd 11fa 9cbd
000000f0: 1792 babd 3cc9 09be 2a9c 42bd bdb3 0e3d
00000100: 66c8 dbbb 84ee a9bd 449e e5bd a4db 96bb
00000110: a774 cb3c 9941 cd3c eff1 c9bd c296 e0bd
00000120: ddc5 d1bc cff9 e5bb 83e3 32bd 6406 b53c
00000130: d285 ce3c 3f00 f0bd a5e2 63bd 9d12 dc3c
00000140: 5447 3abe a8bf 70bd 7f3f 87bd b9e0 71bc
00000150: db11 7ebd 96a4 6ebd 56c0 4ebe 0c68 3b3d
00000160: 8a14 4ebd 3823 8d3d 60b8 25bc ad18 77bd
00000170: 86f0 2a3d 1858 9bbd f81b 463d 0687 373d
00000180: da42 0bbd 6c63 96bb 2f4b f9ba b264 b1bc
00000190: 475f 1ebe 971b 70bd b995 4cbd 0e24 dd3c
000001a0: 31d8 68bd 6a92 b3bd 43ff 86bd 04de f3bc
000001b0: ae05 2cbd 5bef eabc 1a3b 23be 99b7 80bd
000001c0: f3b6 9bbe 5981 0b3d 9e2a e33b 5589 18bd
000001d0: 09c0 d4bd 8943 22bd 09e7 c33c 6716 24bd
000001e0: 9068 45be 6ba2 8cbd 5afe 0b3d 36f7 3fbe
000001f0: 91ef 4cbd ceff 64bd d4ef 03be 57e5 7a3c

fc3.weight f4 [64, 128]
-0.0011921665 -0.06097075 -0.10988739 -0.1469381 -0.029136803 0.06561439 -0.024267785 -0.08132041
-0.011683039 -0.11061899 -0.034643494 0.0661089 -0.12523843 -0.051646605 -0.03484868 -0.020359764
0.048436645 0.0030774176 0.08436607 -0.111413695 0.056522693 -0.11456492 0.034193017 -0.17444867
-0.17944786 -0.082230225 0.042571303 -0.120317295 0.12212031 -0.03955576 -0.10172781 0.009996479
-0.08150668 0.059772357 -0.0105225 0.08439753 0.06469794 0.037555397 -0.03242721 0.04206658
0.08492896 -0.15103506 0.0129957795 0.00550442 0.051743083 0.11389476 -0.0789958 -0.069076665
-0.008350751 -0.018821364 0.035020843 0.011473577 0.00035575524 -0.11220528 0.11736739 -0.01855498
-0.05471666 0.04368272 0.015289432 0.010292128 -0.10292737 -0.0047966726 -0.03288223 -0.049124174
-0.067797646 0.014746286 0.051156476 0.060538612 0.044672392 0.038783416 -0.08167804 -0.16939114
-0.0013066042 -0.10033454 0.098732635 -0.03662939 0.05336003 -0.08810798 0.02035618 0.09770444
0.09400146 0.09657194 0.09487319 -0.07337296 -0.06450793 -0.060617253 -0.23519179 -0.04160358
-0.031183876 0.043303747 0.03757935 -0.122568354 -0.18044473 0.00016151369 -0.15052634 0.023710845
-0.0057952255 0.07895109 0.009565272 -0.036137644 0.0027078462 -0.057445377 0.11903381 0.13249539
0.10338588 -0.029910214 0.02045814 0.05518157 -0.088972256 0.009555028 -0.124057494 0.07108317
0.053494815 -0.04905712 -0.06890759 -0.022196498 -0.23570605 -0.16328159 0.012968368 -0.10194987
-0.16660458 -0.12151781 -0.007423901 0.092198394 -0.11003134 0.10736053 -0.10781502 -0.10251759
0.034889653 -0.26560548 0.2107607 -0.28373563 -0.12623172 0.09937339 -0.08374933 0.009840015
-0.15372795 -0.16130328 0.2633734 -0.07588631 0.022453545 0.12493667 0.5218065 0.2430902
-0.359618 0.07363132 -0.027411971 0.06679904 -0.03193436 -0.14827745 0.0027356788 0.2712423
0.0035618825 0.012102023 0.07049039 0.08131296 -0.06672146 -0.032844447 -0.022764849 0.0406155
-0.072089024 0.10677937 0.06569634 -0.041625068 0.014504138 0.091259606 0.038831063 -0.04590544
0.012546271 -0.07830473 0.08357052 -0.056947384 -0.036819384 0.07654453 0.0071542156 0.14598855
-0.051357582 0.22239627 0.015720094 0.10049845 -0.16869077 -0.015609633 -0.07169846 0.12354339
-0.09175317 -0.16731013 0.02599422 -0.09690723 -0.06957069 -0.16390368 -0.022332475 -0.23329923
0.019076988 0.006341224 -0.53798485 0.03700192 -0.053833004 -0.025951639 0.08219959 -0.26055562
-0.042921487 -0.011250055 0.08368842 0.030278618 -0.043576404 -0.019624151 0.10658565 -0.048937906
-0.11537514 -0.058698293 -0.12663916 0.11744129 -0.04531688 0.022894999 -0.043456092 -0.052313063
0.093017966 0.15641263 0.045181707 0.008843487 -0.091976315 0.035560213 0.010721202 -0.10841107
0.01355353 0.02220581 -0.0008019507 -0.041349392 0.064362444 -0.06590399 -0.019326821 0.09295091
-0.11234082 0.062706344 -0.14635365 -0.028166352 -0.053214595 -0.019737773 0.3012415 0.088525206
-0.17573461 0.05666053 -0.13440202 -0.041461155 0.21966536 -0.0588583 -0.126058 0.12626663
-0.059711333 -0.041818127 -0.034725744 -0.15012367 0.09296581 0.012661029 -0.016219193 -0.1203545
00000000: 7842 9cba 77bc 79bd a40c e1bd f176 16be
00000010: 4eb0 eebc d660 863d 3ccd c6bc 518b a6bd
00000020: 386a 3fbc 368c e2bd 56e6 0dbd 1a64 873d
00000030: 813e 00be 648b 53bd 7dbd 0ebd 85c9 a6bc
00000040: 8165 463d 80ae 493b 1ec8 ac3d dd2c e4bd
00000050: 5784 673d 03a1 eabd fa0d 0c3d aca2 32be
00000060: 2ec1 37be 5268 a8bd 3f5f 2e3d ea68 f6bd
00000070: 371a fa3d 3805 22bd ac56 d0bd 46c8 233c
00000080: f9ec a6bd dcd3 743d 9066 2cbc 9dd8 ac3d
00000090: 5b80 843d b0d3 193d 65d2 04bd 024e 2c3d
000000a0: 3cef ad3d efa8 1abe 40ec 543c 6c5e b43b
000000b0: 8ef0 533d a841 e93d 8dc8 a1bd 1178 8dbd
000000c0: 97d1 08bc 432f 9abc 0472 0f3d abfb 3b3c
000000d0: a984 ba39 e2cb e5bd 505e f03d 9d00 98bc
000000e0: 941e 60bd a7ec 323d 8780 7a3c 50a0 283c
000000f0: 96cb d2bd 682d 9dbb 84af 06bd 6e36 49bd
00000100: 7ed9 8abd 689a 713c 7489 513d 56f7 773d
00000110: 66fa 363d 5cdb 1e3d d146 a7bd df74 2dbe
00000120: 5d42 abba 327c cdbd 5634 ca3d b308 16bd
00000130: 0c90 5a3d f571 b4bd 01c2 a63c 4419 c83d
00000140: d683 c03d 82c7 c53d e04c c23d 9044 96bd
00000150: bc1c 84bd cc49 78bd 1ed6 70be 8468 2abd
00000160: 5475 ffbc 455f 313d ceec 193d 1e05 fbbd
00000170: 81c6 38be 005c 2939 9423 1abe 3f3d c23c
00000180: e0e5 bdbb 1cb1 a13d a9b7 1c3c 1105 14bd
00000190: 1f76 313b d84b 6bbd 00c8 f33d dfac 073e
000001a0: fabb d33d 4406 f5bc d497 a73c 1206 623d
000001b0: 1637 b6bd b18c 1c3c db11 febd 0e94 913d
000001c0: 611d 5b3d 1ef0 48bd 6c1f 8dbd 6ed5 b5bc
000001d0: ed5c 71be 4a33 27be 4779 543c 18cb d0bd
000001e0: 649a 2abe 54de f8bd 3244 f3bb 83d2 bc3d
000001f0: 1c58 e1bd d6df db3d 1fce dcbd bef4 d1bd
00000200: 74e8 0e3d 71fd 87be a7d1 573e cc45 91be
00000210: e342 01be 4784 cb3d c584 abbd 0438 213c
00000220: dc6a 1dbe b02c 25be e1d8 863e 486a 9bbd
00000230: 7ff0 b73c ccde ff3d 1c95 053f a3ec 783e
00000240: da1f b8be 04cc 963d 128f e0bc efcd 883d
00000250: 9acd 02bd 0bd6 17be 1349 333b 45e0 8a3e
00000260: 796e 693b 9047 463c 445d 903d 6987 a63d
00000270: 43a5 88bd e687 06bd 597d babc 705c 263d
00000280: 69a3 93bd 24af da3d cd8b 863d 0c7f 2abd
00000290: c4a2 6d3c 51e6 ba3d 520d 1f3d 5807 3cbd
000002a0: e08e 4d3c 3b5e a0bd 0527 ab3d a941 69bd
000002b0: eccf 16bd 61c3 9c3d e96d ea3b 067e 153e
000002c0: 545c 52bd d9bb 633e 6dc7 803c 22d2 cd3d
000002d0: 46bd 2cbe 8cbf 7fbc a4d6 92bd 5104 fd3d
000002e0: 16e9 bbbd 5953 2bbe d5f1 d43c 4c77 c6bd
000002f0: 147b 8ebd 5ed6 27be 98f2 b6bc fee5 6ebe
00000300: 5847 9c3c 0bca cf3b 60b9 09bf 538f 173d
00000310: ff7f 5cbd 8898 d4bc 4258 a83d 8c67 85be
00000320: 71ce 2fbd 2752 38bc d664 ab3d dd0a f83c
00000330: 2c7d 32bd d4c2 a0bc 9449 da3d 1d73 48bd
00000340: cd49 ecbd 9f6d 70bd b2ad 01be 0f85 f03d
00000350: 319e 39bd 4b8e bb3c 04ff 31bd 3946 56bd
00000360: 3480 be3d a22a 203e 7410 393d 46e4 103c
00000370: 145e bcbd 96a7 113d fba7 2f3c a006 debd
00000380: a00f 5e3c f5e8 b53c 003a 52ba fb5d 29bd
00000390: 75d0 833d acf8 86bd 4853 9ebc 0c5d be3d
000003a0: f212 e6bd 2f6c 803d bbdd 15be 1fbd e6bc
000003b0: 8cf7 59bd 1cb1 a1bc 533c 9a3e b44c b53d
000003c0: c6f3 33be df14 683d afa0 09be 2cd3 29bd
000003d0: f5ef 603e 6715 71bd 5915 01be 0a4c 013e
000003e0: df93 74bd 7c49 2bbd 953c 0ebd 05ba 19be
000003f0: dc64 be3d 3470 4f3c 1dde 84bc 6c7c f6bd

fc3.bias f4 [64]
-0.13745093 0.20127243 -0.17031948 0.037799235 -0.047190942 0.0695576 -0.09310497 -0.07897345
-0.11157761 -0.012172119 0.022271967 0.1724379 0.14686465 -0.07098547 -0.008975704 0.05664435
0.093315884 -0.17125756 0.007021342 -0.077259794 -0.15496662 -0.16849516 -0.13292752 0.043052837
-0.14518806 0.027104376 -0.21197794 -0.19567433 -0.3312029 -0.21945697 0.081004426 -0.027834931
0.33134198 0.20551454 -0.10902021 0.1890363 -0.04257483 -0.26194143 -0.16929491 0.00552549
-0.023595413 -0.06793401 -0.07097142 0.09863728 -0.132557 -0.013421484 -0.09599396 -0.111217834
-0.26385346 -0.0010024416 0.112592444 0.0073899725 -0.03498654 -0.048834678 0.14788797 0.09267586
-0.027400998 0.11162021 -0.012576814 -0.15002523 -0.14844629 -0.10507703 -0.033774942 -0.089817755
00000000: f0bf 0cbe 5c1a 4e3e 3b68 2ebe 5fd3 1a3d
00000010: 4a4b 41bd 3774 8e3d d2ad bebd d5bc a1bd
00000020: cd82 e4bd 916d 47bc b373 b63c 9093 303e
00000030: b063 163e d560 91bd d50e 13bc e803 683d
00000040: 661c bf3d 245e 2fbe 4913 e63b 623a 9ebd
00000050: 92af 1ebe ff89 2cbe 271e 08be 2c58 303d
00000060: 2eac 14be ff09 de3c bf10 59be da5e 48be
00000070: 6d93 a9be 54b9 60be a6e5 a53d 1506 e4bc
00000080: a8a5 a93e 6772 523e fd45 dfbd bb92 413e
00000090: f262 2ebd 301d 86be a55b 2dbe 2b0f b53b
000000a0: 2b4b c1bc fc20 8bbd 7759 91bd 5802 ca3d
000000b0: 06bd 07be c9e5 5bbc 7b98 c4bd 2dc6 e3bd
000000c0: cd17 87be 5c64 83ba de96 e63d 9527 f23b
000000d0: 0c4e 0fbd df06 48bd f26f 173e d7cc bd3d
000000e0: 0f78 e0bc 2399 e43d fb0e 4ebc 37a0 19be
000000f0: 4e02 18be a032 d7bd 9857 0abd 5ff2 b7bd

fc4.weight f4 [1, 64]
0.0036870583 -0.39112875 -1.0249866 0.5834822 0.0030394164 -1.4405001 0.005843589 0.025091086
0.006267541 0.6042598 1.0033303 -1.6254551 0.89736456 0.045726188 0.6029329 0.5788843
-0.053042967 -0.10271793 0.20560256 0.01600871 -0.00011130539 -0.11487643 -0.013233799 0.03270923
-0.6955308 -0.8045219 0.015403536 0.16986871 -0.111530654 -0.055797264 -1.0433424 0.45005387
-0.109016575 -0.035393756 -0.027755687 0.15350468 0.3521865 0.021053277 -1.4152735 0.666411
0.13393041 0.017086329 -0.0097710965 0.989256 0.013409847 0.19613422 0.79832596 1.2612901
0.25751826 -0.007530484 -1.5386542 1.2633513 0.6957179 0.020392686 -0.63988143 0.6447438
1.1131202 -0.44268328 -0.103673816 -0.042374164 0.014340137 0.082038075 0.47108352 0.82159394
00000000: 93a2 713b 0742 c8be c332 83bf 175f 153f
00000010: f230 473b 4f62 b8bf 947b bf3b d28b cd3c
00000020: f25f cd3b c5b0 1a3f 216d 803f ea0e d0bf
00000030: afb9 653f 624b 3b3d cf59 1a3f c331 143f
00000040: 9543 59bd c75d d2bd 7a89 523e b324 833c
00000050: a06c e9b8 5544 ebbd 93d2 58bc 1dfa 053d
00000060: 4e0e 32bf 26f5 4dbf 1d5f 7c3c 10f2 2d3e
00000070: 2f6a e4bd ac8b 64bd 3e8c 85bf 766d e63e
00000080: 1544 dfbd 0bf9 10bd e55f e3bc 5530 1d3e
00000090: ca51 b43e ec77 ac3c af27 b5bf e999 2a3f
000000a0: 0e25 093e a1f8 8b3c f316 20bc e23f 7d3f
000000b0: fab4 5b3c 69d7 483e 175f 4c3f f471 a13f
000000c0: 6fd9 833e 47c2 f6bb 9ff2 c4bf 7fb5 a13f
000000d0: 911a 323f 900e a73c 45cf 23bf ee0d 253f
000000e0: b97a 8e3f 62a7 e2be f052 d4bd 8890 2dbd
000000f0: e5f2 6a3c 9403 a83d dc31 f13e fb53 523f
