Actor-Critic/PyTorch-ActorCriticRL/Models/300_critic.pt (torch_old, 270303 bytes, 9 tensors)

fcs1.weight f4 [256, 3]
0	0xbc805a54	-0.015668072
1	0xbcb9cd11	-0.022680791
2	0xbb7a5d00	-0.0038202405
3	0xbd1cae04	-0.03825189
4	0x3c921f58	0.017837211
5	0xbbd3eb90	-0.00646729
6	0x3f17401b	0.5908219
7	0xbf612a06	-0.8795475
8	0xbe773b1b	-0.2414364
9	0xbc9f2520	-0.019426882
10	0x3d317484	0.04332401
11	0x3cb20d50	0.021734864
12	0x3d4b6bee	0.049663477
13	0x3d6ab208	0.05729869
14	0xbbb42310	-0.005497344
15	0xbc9681cb	-0.018372437
16	0x3a467900	0.0007571131
17	0x3c0d3078	0.008617513
18	0x3e9271ba	0.2860239
19	0xbea045f9	-0.31303385
20	0x3dc9e3af	0.0985788
21	0xbe627d4a	-0.22118106
22	0xbd7c76cd	-0.061636735
23	0xbd074fc6	-0.033035062
24	0x3e2911ca	0.16510692
25	0x3f065746	0.5247692
26	0x3dfd4bb9	0.123679586
27	0x3f02c0d4	0.5107548
28	0xbe9f1eb4	-0.31078112
29	0x3e43bac8	0.1911422
30	0xbe6a5413	-0.22883634
31	0xbef09c3e	-0.46994203
32	0xbda0b16c	-0.078463405
33	0xbd4fd8d2	-0.050743885
34	0xbcdfc009	-0.02731325
35	0x3d00f6c4	0.031485334
36	0xbe730db2	-0.23735693
37	0xbbb1073c	-0.0054024737
38	0x3d45141e	0.04811489
39	0xbbb6f995	-0.0055839517
40	0x3f5a1d8f	0.8520135
41	0xbe2a5d07	-0.1663705
42	0xbce75578	-0.028238997
43	0xbd15d5ea	-0.036580957
44	0x3d0829de	0.033243053
45	0xbcf02a3c	-0.029317014
46	0x3c8f80ce	0.017517474
47	0xbd08538a	-0.033282794
48	0x3dd170b2	0.10226573
49	0xbf0e4274	-0.5557015
50	0xbdf291d3	-0.1184422
51	0x3e32e12f	0.17468713
52	0x3ea9b8e1	0.33148864
53	0xbdc9558e	-0.098307714
54	0xbebd9802	-0.37030035
55	0x3e20131a	0.15632287
56	0xbb8edb8b	-0.0043596677
57	0xbdf5fb8a	-0.12010868
58	0xbeb7b4e5	-0.358802
59	0x3d86b03b	0.06576582
60	0x3f39a0ec	0.7251117
61	0x3ec182fa	0.3779524
62	0x3e9eac27	0.30990717
63	0xbe15d5ed	-0.14632387
64	0xbdd5b005	-0.10433964
65	0x3d932fdd	0.071868636
66	0x3d4f5cab	0.050625484
67	0xbd07acde	-0.033123843
68	0xbc22070c	-0.009889375
69	0xbdcf779d	-0.10130236
70	0x3f10cff9	0.5656734
71	0x3d69fa3c	0.057123408
72	0xbe539889	-0.20663656
73	0xbec84f93	-0.3912321
74	0xbd9363ed	-0.07196794
75	0x3f2ad054	0.66724133
76	0xbe13f6b0	-0.14449573
77	0x3d9f7801	0.07786561
78	0xbde771ca	-0.113010004
79	0x3ee9f1a0	0.45692158
80	0xbd4f8501	-0.05066395
81	0x3ec8f41c	0.3924874
82	0xbf415f85	-0.75536376
83	0xbe2f9f79	-0.17150678
84	0xbc8ba9cd	-0.01704874
85	0xbb85dca1	-0.004085139
86	0xbdd0719b	-0.101779185
87	0xbdd8e13e	-0.105898365
88	0x3dcd7c7f	0.10033511
89	0xbce765ab	-0.028246721
90	0x3d6d6cf6	0.05796524
91	0xbd6250cc	-0.055252835
92	0xbbab06a0	-0.0052192956
93	0x3ef583c3	0.4795209
94	0xbef3385a	-0.4750393
95	0xbe3b2fe6	-0.1827999
96	0xbe8ab0da	-0.27088052
97	0x3e921073	0.28528175
98	0x3dd3be59	0.1033904
99	0xbeef8493	-0.46780834
100	0x3d23d36d	0.039996553
101	0x3c8ce8e1	0.017200889
102	0xbd3db514	-0.046315268
103	0xbd1c4a47	-0.038156774
104	0x3c5a68d4	0.013330657
105	0x3f4fc2f2	0.8115684
106	0xbf039469	-0.5139833
107	0xbeb16f79	-0.3465536
108	0x3de05cb6	0.10955183
109	0xbf4bccb4	-0.7960923
110	0xbe1a2d8d	-0.15056439
111	0x3f69070b	0.9102637
112	0xbe09cc27	-0.13456784
113	0xbe4fef70	-0.20306182
114	0xbd4c3b16	-0.049861036
115	0xbe94b0b2	-0.29041058
116	0x3e067f4a	0.13134494
117	0x3d1e0c78	0.03858611
118	0x3f878d27	1.0589951
119	0x3e37c43c	0.17945951
120	0xbc5a3ddc	-0.0133204125
121	0xbcab9c34	-0.020948507
122	0xbcb11e61	-0.021620931
123	0x3ea56f62	0.3231154
124	0xbf0359f2	-0.5130912
125	0xbe2c9f8d	-0.16857739
126	0xbe2b06e8	-0.16701853
127	0xbd40ef54	-0.04710324
128	0x3cf0b2f8	0.029382214
129	0xbe6ebecd	-0.23314972
130	0xbf265e0a	-0.6498724
131	0x3f25a168	0.6469941
132	0x3e17c5b9	0.14821519
133	0x3ded5fd5	0.11590544
134	0x3c0ded87	0.008662588
135	0xbd6777c6	-0.05651071
136	0xbd7f1970	-0.06228012
137	0x3ce47e14	0.02789215
138	0xbce857e8	-0.02836223
139	0x3d4a6d94	0.049420908
140	0x3d4bffd0	0.04980451
141	0x3e0ffdeb	0.14061706
142	0xbc8e6632	-0.017382715
143	0xbe36cbea	-0.17851225
144	0xbde69368	-0.11258584
145	0x3f0b7abc	0.5448415
146	0x3d803a0a	0.0626107
147	0x3f30530b	0.68876714
148	0xbf1b686f	-0.6070623
149	0xbdb7639a	-0.08954544
150	0xbd5afd44	-0.05346419
151	0xbca51067	-0.020149423
152	0xbacf50f3	-0.0015816971
153	0xbd5fcd8e	-0.05463939
154	0xbcad47f8	-0.021152481
155	0x3c7800b0	0.015136883
156	0x3e82cc72	0.25546604
157	0xbe24a197	-0.16077267
158	0x3da328f2	0.07966794
159	0x3ea41635	0.32048193
160	0xbf5423fb	-0.828674
161	0xbe1b89bc	-0.1518926
162	0x3e9137bb	0.2836283
163	0x3f341c00	0.70355225
164	0x3e287550	0.16451001
165	0x3a170a83	0.0005761759
166	0x3d4a865e	0.04944455
167	0x3be6dc5e	0.007045313
168	0x3ccdd004	0.025123604
169	0x3cd97fb8	0.026550159
170	0xbcf887de	-0.030338224
171	0xbe452da8	-0.19255698
172	0x3dd942f1	0.10608471
173	0xbd00894c	-0.031380937
174	0x3de12f5b	0.109953605
175	0x3d5c2e0a	0.053754844
176	0x3c114ded	0.008868677
177	0xbe9bab9e	-0.3040437
178	0xbe89762a	-0.26847965
179	0xbd7a0ffb	-0.061050396
180	0xbe07208f	-0.13196014
181	0xbf87f041	-1.0620195
182	0xbd1df102	-0.03855992
183	0xbd72b7fc	-0.059257492
184	0x3d6c606e	0.05770915
185	0xbc944660	-0.018099964
186	0xbc8890f4	-0.016670682
187	0xbcc290b2	-0.023750637
188	0x3c234141	0.009964288
189	0x3f78036c	0.9688022
190	0x3f83f933	1.0310425
191	0x3eaf9720	0.34294987
192	0xbe738aad	-0.2378337
193	0xbec15c5a	-0.3776577
194	0xbd0d6c45	-0.034527082
195	0xbd941078	-0.07229704
196	0xbed6e1de	-0.41969198
197	0x3c326317	0.010887883
198	0x3cf27da0	0.029600918
199	0xbeacc0f7	-0.3374097
200	0xbd88412c	-0.066530555
201	0x3d0ec7ae	0.0348584
202	0xbbd60ba1	-0.006532148
203	0xbd08222a	-0.033235706
204	0x3c91162f	0.017710773
205	0x3f2a1f57	0.6645407
206	0x3c613c3a	0.013747269
207	0xbe8e9e6c	-0.2785524
208	0xbd07ea00	-0.033182144
209	0xbe1419a4	-0.14462906
210	0x3d88c744	0.06678632
211	0x3f322a1b	0.695955
212	0x3e7b9c6b	0.24571387
213	0xbdf8c8c0	-0.12147665
214	0xbf5956b9	-0.84897953
215	0xbdf9189d	-0.12162898
216	0xbed5f64a	-0.41789466
217	0x3de2cfa3	0.1107476
218	0xbda88125	-0.08227757
219	0xbcb4c41c	-0.022066168
220	0xbcec3be4	-0.028837152
221	0x3d22c08a	0.0397344
222	0x3ed2ebcc	0.41195524
223	0x3f9ec8cd	1.240503
224	0x3d77ecd7	0.060528602
225	0xbd1cd300	-0.038287163
226	0x3c94ff11	0.018188031
227	0xbba56a3f	-0.005048066
228	0x3e0bdd3f	0.13658617
229	0x3f3238e7	0.69618076
230	0x3df67050	0.12033141
231	0x3ec37584	0.38175595
232	0xbe5e31e5	-0.21698721
233	0xbcb9e13d	-0.02269041
234	0xbe8e99d5	-0.2785174
235	0xbed479d1	-0.4149919
236	0xbdb54619	-0.08851261
237	0xbd76c6ac	-0.060248062
238	0xbd4794c0	-0.048725843
239	0xbd32994b	-0.043603223
240	0xbe78864d	-0.24269982
241	0x3e96456e	0.29349846
242	0x3dc675eb	0.0969046
243	0xbe5933d3	-0.21211176
244	0x3f06cc5f	0.52655596
245	0x3d9de1ed	0.077091075
246	0xbd41d8cb	-0.04732589
247	0xbe825d99	-0.25462034
248	0x3e87694a	0.26447517
249	0x3f18531d	0.5950182
250	0xbf1f98f4	-0.6234276
251	0xbe65f32b	-0.22456042
252	0x3cfa2dc0	0.030539393
253	0x3c991c98	0.018690392
254	0x3cf99a78	0.030469164
255	0x3b842ec0	0.0040338933

fcs1.bias f4 [256]
0	0xbec92e9e	-0.3929338
1	0xbe3a87d8	-0.18215883
2	0xbf3dc834	-0.7413361
3	0xbe8d8f16	-0.27648228
4	0xbf0ad192	-0.5422603
5	0xbe363c80	-0.17796516
6	0x3e881e8a	0.265858
7	0x3e4322b8	0.19056213
8	0x3e709fd9	0.23498477
9	0xbee93626	-0.45549124
10	0x3dedd7a5	0.116133966
11	0xbeac2766	-0.3362381
12	0x3e4cc490	0.19996858
13	0xbe8fb43a	-0.2806719
14	0xbecfaeb4	-0.40562975
15	0xbead5102	-0.33850867
16	0x3e0df07f	0.13861273
17	0x3e7368a6	0.23770389
18	0x3cdd12ac	0.026986443
19	0x3e5e2f91	0.21697833
20	0xbf4bde93	-0.79636496
21	0x3ee7281d	0.45147792
22	0xbeb2e383	-0.34939203
23	0xbdc87d4e	-0.09789525
24	0x3de39035	0.1111149
25	0xbf27bedc	-0.65525603
26	0xbe98a441	-0.29812816
27	0xbd4951e9	-0.04915038
28	0x3e3ef1be	0.18646905
29	0x3e8e5ce3	0.27805242
30	0xbe9e1c29	-0.3088086
31	0xbe4abc77	-0.19798456
32	0x3e44127b	0.19147675
33	0xbe0c0e9f	-0.13677453
34	0xbe837e8b	-0.25682482
35	0xbf783129	-0.9695001
36	0xbe814938	-0.25251174
37	0xbf599342	-0.8499032
38	0x3eaef1a8	0.34168744
39	0x3e8c1efc	0.2736739
40	0xbe7c3549	-0.24629702
41	0xbd5fe1b6	-0.054658614
42	0x3da74cdd	0.081689574
43	0x3ee0ffd7	0.4394519
44	0x3e5677e7	0.20944177
45	0xbef74d9b	-0.48301396
46	0xbefbbd09	-0.4916766
47	0x3ef2d75c	0.4742993
48	0xbda48f3a	-0.08035131
49	0xbd1ab653	-0.037771534
50	0xbdd55020	-0.10415673
51	0xbf0065e0	-0.5015545
52	0x3efd07d6	0.4942004
53	0x3d268ec5	0.0406635
54	0x3eb2125f	0.3477964
55	0xbe456dab	-0.19280116
56	0xbee37e00	-0.44432068
57	0x3e8ec2fc	0.27883136
58	0x3dfbf70d	0.123029806
59	0x3e47709b	0.1947655
60	0xbd569d20	-0.05239594
61	0xbe6d029c	-0.23145527
62	0x3e9bb7fb	0.30413803
63	0xbef0c29a	-0.4702347
64	0xbe0c932d	-0.13728018
65	0x3e1a614e	0.15076181
66	0x3e93454d	0.2876381
67	0xbefff675	-0.4999272
68	0xbe9082e9	-0.28224877
69	0x3ef4ac20	0.4778757
70	0xbd0cbfc8	-0.034362584
71	0xbdfeaad2	-0.12434925
72	0x3db5a51f	0.08869385
73	0xbf02a5c5	-0.51034194
74	0x3d718cd4	0.058972195
75	0xbe199ac6	-0.15000448
76	0x3e67531a	0.22590294
77	0x3e6f03e5	0.2334133
78	0x3e191d7a	0.1495265
79	0xbeeb3284	-0.45936978
80	0x3e2d47f4	0.16921979
81	0x3c97571b	0.018474152
82	0xbd88ce38	-0.06679958
83	0xbe9306f0	-0.2871623
84	0xbe95e7b4	-0.29278338
85	0xbf076692	-0.52890885
86	0xbecdc1a8	-0.4018681
87	0xbddf1ce2	-0.10894181
88	0x3dade3d1	0.08490718
89	0xbe602e6c	-0.21892709
90	0x3e3c11c8	0.18366158
91	0x3e0cea91	0.13761355
92	0xbebd971c	-0.3702935
93	0x3eac4068	0.33642888
94	0xbefd606d	-0.4948763
95	0xbe208e05	-0.15679176
96	0xbeda748d	-0.42667046
97	0x3ec03c9e	0.37546247
98	0xbec44108	-0.38330865
99	0x3ed1e7e5	0.40997234
100	0xbea10924	-0.31452286
101	0x3de90365	0.113776006
102	0x3e6f8ee9	0.2339436
103	0xbe4c067d	-0.1992435
104	0x3e6ddbd4	0.23228389
105	0x3e362412	0.17787197
106	0x3e0f94cd	0.14021607
107	0xbe85badf	-0.26119134
108	0x3ed84363	0.42238912
109	0xbf0278d3	-0.50965613
110	0xbf2068fc	-0.62660193
111	0x3ec1bc92	0.3783918
112	0xbee2129e	-0.4415483
113	0xbee3ee5d	-0.44517794
114	0xbe1e3292	-0.15448979
115	0xbe92eec4	-0.2869779
116	0xbe852e7e	-0.26012033
117	0xbe2fb701	-0.17159654
118	0x3e963219	0.29335096
119	0xbef8512e	-0.48499435
120	0x3e0ec1dd	0.1394114
121	0x3d6c298d	0.057656813
122	0x3ea60d74	0.3243214
123	0x3e0b313e	0.13593003
124	0x3ee1f448	0.44131684
125	0xbec742be	-0.38918108
126	0xbf0a7608	-0.5408635
127	0x3db7a1f6	0.089664385
128	0x3e297c38	0.16551292
129	0xbdc83c45	-0.097771205
130	0x3e4a29be	0.19742486
131	0xbefcf58e	-0.49406093
132	0xbed8b13a	-0.42322713
133	0xbe38a430	-0.18031383
134	0x3e498f8a	0.19683662
135	0x3d446ea3	0.047957074
136	0xbf0da178	-0.55324507
137	0xbeb12546	-0.3459875
138	0xbf077d17	-0.52925247
139	0x3e84d0d0	0.2594056
140	0x3e0d8d06	0.13823327
141	0x3e146b3a	0.14494029
142	0xbef1be45	-0.47215477
143	0xbef6c798	-0.48199153
144	0x3eba7d2c	0.36423624
145	0xbe37dae4	-0.17954594
146	0x3d1d10e4	0.038346186
147	0x3e56adab	0.20964687
148	0x3d24920c	0.040178344
149	0x3ee07122	0.43836313
150	0x3df280c5	0.11840967
151	0x3d1e6723	0.038672578
152	0xbeee9cc6	-0.46603984
153	0x3e8ea89b	0.2786301
154	0xbe659694	-0.22420722
155	0x3eae4956	0.34040326
156	0x3c6788bf	0.014131724
157	0xbef54512	-0.4790426
158	0x3e0bfbe4	0.13670307
159	0x3d913fb5	0.07092229
160	0x3d26e37f	0.0407443
161	0x3ee42c93	0.44565257
162	0x3dec220d	0.11529932
163	0x3db05249	0.08609445
164	0xbec80cb7	-0.390722
165	0xbd8cefaf	-0.068816535
166	0xbe834fab	-0.2564672
167	0xbee0e126	-0.43921775
168	0x3e96a2a8	0.29420972
169	0x3e6499f5	0.22324355
170	0x3e17b8a9	0.14816536
171	0xbdb03a80	-0.08604908
172	0xbed4ee78	-0.41588187
173	0xbf0eeb27	-0.55827564
174	0xbeb0f752	-0.3456369
175	0x3dae935d	0.08524201
176	0x3de898fa	0.11357303
177	0xbf12df15	-0.57371646
178	0xbf0c31b0	-0.5476332
179	0x3dc014ef	0.09378993
180	0xbda07c36	-0.07836191
181	0xbdfeefdc	-0.12448093
182	0xbee82b4e	-0.4534554
183	0x3e03f34a	0.12885776
184	0xbd0c0347	-0.034182813
185	0xbe14fd54	-0.14549762
186	0xbeed84fc	-0.46390522
187	0x3e47c446	0.19508466
188	0xbed3e537	-0.41385815
189	0xbeddbc68	-0.43307805
190	0x3e8262e6	0.2546608
191	0x3e365643	0.17806344
192	0x3ea081e5	0.31349102
193	0xbf04ea29	-0.519198
194	0xbe856a29	-0.26057556
195	0x3e078027	0.1323248
196	0xbf014052	-0.5048877
197	0xbe1b4bb9	-0.15165605
198	0xbe5586d1	-0.2085221
199	0xbef76f8d	-0.48327294
200	0x3e6db519	0.23213615
201	0xbeb3a0b4	-0.35083544
202	0xbe30e19a	-0.1727356
203	0xbd799440	-0.060932398
204	0xbf206253	-0.6265003
205	0xbd7f87e5	-0.06238546
206	0x3dd84459	0.10559911
207	0xbe76fd55	-0.24120076
208	0x3e7d7895	0.2475303
209	0xbe9cffd3	-0.30663928
210	0xbd31459e	-0.043279283
211	0x3e2b3934	0.1672104
212	0xbecbfbae	-0.39840454
213	0x3cd4c077	0.02597068
214	0xbef6e6dd	-0.4822301
215	0x3eb452ac	0.35219324
216	0x3e33c487	0.17555438
217	0x3e42683e	0.18985078
218	0x3eb6e9f0	0.35725355
219	0xbdc37bec	-0.095451206
220	0xbf0f9719	-0.5608993
221	0xbd83724e	-0.06418286
222	0xbe08e005	-0.13366707
223	0x3dd0f101	0.10202218
224	0x3e4131d0	0.18866658
225	0x3d7f754c	0.062367722
226	0xbe4acc59	-0.19804515
227	0x3e6515d6	0.22371611
228	0xbe9999db	-0.30000195
229	0xbf00e156	-0.50343835
230	0xbd7edaa6	-0.06222024
231	0xbf4af1ef	-0.7927541
232	0x3e1fbb56	0.15598807
233	0x3ecb87dd	0.39752093
234	0xbef8bffe	-0.48583978
235	0x3eadbbf1	0.3393245
236	0xbf206a42	-0.62662137
237	0x3e19fc71	0.15037705
238	0x3e710bf2	0.23539713
239	0xbefaebb6	-0.49007958
240	0xbe7616de	-0.2403216
241	0xbf019752	-0.5062152
242	0xbd4e2d72	-0.05033631
243	0x3ec990e9	0.3936837
244	0xbed8e55f	-0.42362496
245	0xbee6c670	-0.4507327
246	0xbee80428	-0.4531567
247	0x3e5443e3	0.20729022
248	0xbe5bbdbd	-0.21459098
249	0xbe5f31c2	-0.21796325
250	0xbf11c7bb	-0.5694539
251	0xbf237f14	-0.6386578
252	0xbd9799a6	-0.07402353
253	0xbe56df96	-0.20983729
254	0x3eae3f60	0.34032726
255	0x3ea72a2e	0.32649368

fcs2.weight f4 [128, 256]
0	0xbd41b0a0	-0.047287583
1	0xbd5b3242	-0.053514726
2	0xbeeffb66	-0.4687149
3	0xbd4d7e45	-0.050169248
4	0xbd8c369a	-0.06846352
5	0xbd1cdb6c	-0.038295195
6	0x3d9f668a	0.0778323
7	0x3e3666df	0.1781268
8	0x3d37693e	0.0447781
9	0xbdf535cb	-0.11973151
10	0x3e5b7e95	0.21435006
11	0x3c9f0364	0.019410796
12	0x3e2dae3c	0.16960996
13	0x3e820973	0.25397834
14	0xbd372946	-0.044717096
15	0xbd836b03	-0.06416895
16	0xbda40223	-0.0800822
17	0x3be85de8	0.0070912726
18	0x3ea4606c	0.32104814
19	0xbbea840a	-0.0071568536
20	0xbf9b8ba5	-1.2151991
21	0x3e43cfb4	0.19122201
22	0x3d93a7eb	0.07209762
23	0x3d93a17a	0.072085336
24	0x3e217bb2	0.15769842
25	0xc031344d	-2.7688172
26	0x3e3860da	0.18005696
27	0x3dba86b7	0.09107726
28	0xbda7609f	-0.08172726
29	0x3d89e26a	0.06732638
30	0x3d1e3b92	0.03863103
31	0xbe258e5a	-0.16167584
32	0x3e36ac0a	0.17839065
33	0x3eb4ae41	0.35289195
34	0xbbd9efbb	-0.0066508926
35	0xbf820e94	-1.0160699
36	0x3dd5b6b4	0.104352385
37	0x3fee323d	1.8609082
38	0x3d70fb55	0.05883344
39	0xbdb37a3a	-0.08763547
40	0x3dc6f064	0.097138196
41	0x3dedfc74	0.11620417
42	0x3dc9af8b	0.09847935
43	0x3c79f126	0.015255248
44	0x3d56dbf9	0.052455876
45	0x3d8f3b29	0.06993706
46	0x3d06c52c	0.03290288
47	0x3e0ecb8d	0.13944836
48	0x3e0f9f9c	0.1402573
49	0x3e3d46a7	0.18483983
50	0x3d1944d6	0.037419163
51	0xbcfc877a	-0.030826319
52	0x3e0c56fd	0.13705058
53	0x3e436884	0.19082838
54	0x3e2ca672	0.16860369
55	0xbd8eb994	-0.0696899
56	0x3c95e698	0.018298432
57	0x3e53b5c5	0.20674808
58	0x3e0968b4	0.13418847
59	0x3e5d353a	0.21602336
60	0xbe0e3a9f	-0.1388955
61	0x3d120daa	0.035657562
62	0x3e06ab14	0.13151199
63	0xbf0e9afc	-0.5570524
64	0x3e9466a1	0.2898455
65	0x3dd35d10	0.10320485
66	0x3e24085d	0.16018815
67	0xba5f7200	-0.0008523762
68	0x3c206ec6	0.009792035
69	0xbbf962a4	-0.007610636
70	0xbe684894	-0.22683936
71	0xbe6f836d	-0.23389979
72	0x3e379104	0.17926413
73	0x3cafdf90	0.021468908
74	0xbee0436f	-0.43801448
75	0x3d8683fe	0.06568144
76	0x3ddfb9c6	0.10924105
77	0x3e5fe0bb	0.21863072
78	0x3d8dd886	0.06926064
79	0xbd72913e	-0.059220545
80	0x3e35937f	0.17732047
81	0x3e3df5ed	0.18550844
82	0xbdd2306d	-0.10263143
83	0x3d447f63	0.047973048
84	0x3d01637a	0.03158901
85	0xbd4d3db2	-0.050107665
86	0xbda7726a	-0.081761196
87	0xbd53b0b8	-0.051682204
88	0x3d18d0b0	0.037308395
89	0xbd2bd7f9	-0.041954014
90	0x3e231025	0.15924127
91	0x3d931fb4	0.07183781
92	0x3a945cc0	0.0011319146
93	0x3c8da070	0.017288417
94	0xbd71d119	-0.0590373
95	0x3e4b86c8	0.19875634
96	0xbcdafd44	-0.026732095
97	0xbde4c626	-0.11170606
98	0xbd957abf	-0.072988026
99	0x3da49ee5	0.08038119
100	0x3d65bf36	0.056090556
101	0x3dc24862	0.09486462
102	0x3dd0bd10	0.10192311
103	0xbe290da8	-0.16509116
104	0xbe30915f	-0.17242955
105	0xbd86a701	-0.06574822
106	0xbea819a2	-0.32832056
107	0x3f12fbf8	0.57415724
108	0x3ce32c65	0.02773113
109	0x3e435681	0.19075967
110	0xbfbbc8ff	-1.4670714
111	0x3d8757f5	0.06608573
112	0xbed02f6a	-0.40661174
113	0x3d876b77	0.06612294
114	0xbcbc41fa	-0.022980679
115	0xbf1e586b	-0.61853665
116	0x3db3aea4	0.087735444
117	0xbd100b2d	-0.035166908
118	0xbcab2684	-0.02089239
119	0xbca0b71b	-0.019618561
120	0x3dc0ebbb	0.09419962
121	0xbb70a8a8	-0.003672162
122	0xbe86cf50	-0.26330042
123	0x3e5e72fa	0.21723548
124	0x3e225fd7	0.15856872
125	0xbc803ae0	-0.015653074
126	0xbd3c8c34	-0.046032146
127	0xbd64a2f7	-0.055819478
128	0xbee09f66	-0.4387161
129	0x3e935be8	0.28781056
130	0xbc71ac1c	-0.014750507
131	0x3b90a470	0.0044141337
132	0x3d3466ea	0.04404346
133	0x3cb88cc0	0.022528052
134	0x3d66d4fa	0.056355454
135	0xba32c54f	-0.00068195624
136	0xbc01a8f8	-0.00791382
137	0x3ce0650c	0.027391933
138	0xbd843e33	-0.06457176
139	0x3ddc0724	0.107435495
140	0xbe852fd7	-0.2601306
141	0x3ccb1dd2	0.024794493
142	0xbfea2a3a	-1.8294137
143	0xbd4a557e	-0.049397938
144	0x3e44b836	0.19210896
145	0x3d5bbcae	0.053646736
146	0x3ceea442	0.029131059
147	0xbb4aa6cf	-0.003092218
148	0xbde9564c	-0.11393413
149	0xbc94cdce	-0.018164542
150	0x3d47d74a	0.0487893
151	0xbf36a12b	-0.7133967
152	0x3db91961	0.09038044
153	0xbd46647b	-0.04843567
154	0xbec8a93f	-0.39191625
155	0x3d9f5428	0.077797234
156	0x3e6963e4	0.22792011
157	0x3c0d67e0	0.008630723
158	0x3e21a545	0.15785702
159	0x3dd9c48c	0.106331915
160	0x3dcb983b	0.09941145
161	0x3df4c823	0.119522355
162	0x3cbd37ce	0.023097899
163	0xbf49c3b7	-0.7881426
164	0xbe920292	-0.28517586
165	0xbe655612	-0.22396114
166	0xbcc2f4d8	-0.023798391
167	0x3c0b6d20	0.008509904
168	0x3c0c7b3d	0.008574304
169	0xbea788b7	-0.32721493
170	0x3e077762	0.13229135
171	0xbf22ac0d	-0.6354378
172	0x3ca1ff3d	0.019775027
173	0x3c226c9e	0.009913592
174	0xbd434ac8	-0.04767874
175	0xbed17457	-0.40909073
176	0xbf559ebb	-0.8344533
177	0x3d950faf	0.07278382
178	0x3c8a4109	0.016876714
179	0x3dee914e	0.116488084
180	0xbf30893c	-0.68959403
181	0xbe912e27	-0.28355524
182	0xbd174f14	-0.03694065
183	0xbbd1d270	-0.00640326
184	0xbc0525a2	-0.008126648
185	0xbcef0b68	-0.029180244
186	0xbdaaa16d	-0.08331571
187	0x3e0fad17	0.14030872
188	0xbf470496	-0.7774137
189	0xbd9e367a	-0.07725234
190	0x3e7acb1a	0.2449154
191	0x3e171f50	0.14758039
192	0x3e43a8b8	0.1910733
193	0xbc1d2040	-0.0095902085
194	0x3eaa90ed	0.33313695
195	0x3e59b5ff	0.21260832
196	0x3d7388d2	0.059456654
197	0xbdf6703a	-0.12033124
198	0xbd5c5cd5	-0.05379947
199	0x3d554c9a	0.052075006
200	0xbcb8cb65	-0.022557924
201	0xbced4cd5	-0.0289673
202	0x3da0310f	0.07821857
203	0x3e21d085	0.158022
204	0xbdb86a38	-0.090046346
205	0x3ca0ec44	0.01964391
206	0xbf27c35b	-0.65532464
207	0x3daa5be4	0.08318308
208	0x3de124b0	0.10993326
209	0x3d8ac947	0.06776672
210	0x3c8b73ff	0.017023085
211	0x3dca9c4d	0.09893093
212	0x3d42717a	0.0474715
213	0x3dfc279a	0.12312241
214	0xbcc51a14	-0.024060287
215	0x3e0ec858	0.13943613
216	0x3e2e3bfd	0.17015071
217	0x3db0d6cd	0.0863472
218	0x3e447490	0.1918509
219	0xbdb72129	-0.08941872
220	0xbb965430	-0.0045876727
221	0x3d5acf57	0.05342039
222	0x3efb68d6	0.4910342
223	0x3d020aaf	0.03174847
224	0x3dfd8b6a	0.12380107
225	0xbd638696	-0.055548273
226	0x3de78986	0.113055274
227	0xbf04f13c	-0.51930594
228	0x3f1660d5	0.58741504
229	0xbd042559	-0.03226218
230	0xbd747776	-0.05968424
231	0x3ecc7070	0.39929533
232	0x3e1e7427	0.15473996
233	0x3daee46d	0.085396625
234	0xbc9ca51c	-0.019121699
235	0x3db9806c	0.09057698
236	0x3ec0cdc3	0.37656984
237	0x3d81b16c	0.06332669
238	0x3d9b81ac	0.07593092
239	0x3d8afa9b	0.067860804
240	0xbe5de57d	-0.21669574
241	0x3b83dc4c	0.004024064
242	0x3e0ac5c1	0.13552
243	0x3e08f9df	0.13376568
244	0x3d1a759e	0.037709825
245	0x39b4b45d	0.00034466657
246	0xbecaf831	-0.3964248
247	0xbf37e789	-0.7183767
248	0x3c8328fc	0.016010754
249	0xbd74c6eb	-0.059760015
250	0xbc15f143	-0.00915176
251	0xbf95b030	-1.1694393
252	0x3e46c49b	0.19410937
253	0xbd7d46e5	-0.06183519
254	0x3e066039	0.13122644
255	0xbb6af47a	-0.0035851286

fcs2.bias f4 [128]
0	0x3dbba35d	0.091620184
1	0x3c814ff1	0.01578519
2	0x3e0e6894	0.13907081
3	0xbd334238	-0.043764323
4	0x3def4925	0.11683873
5	0x3d9b0e8f	0.07571136
6	0x3de2394a	0.11046083
7	0x3dbaff9f	0.09130787
8	0xbd7e3543	-0.062062513
9	0xbb945450	-0.0045266524
10	0x3d2a6f6b	0.041610163
11	0x3d6613cd	0.056171227
12	0x3cace06d	0.021103108
13	0xbd800000	-0.0625
14	0x3e08fdaf	0.13378023
15	0xbdc0a317	-0.09406107
16	0x3dfb53f8	0.12271875
17	0x3c32c148	0.01091034
18	0x3cf5fccc	0.03002777
19	0x3d6ac07e	0.05731248
20	0xbdae95f0	-0.08524692
21	0x3dfa128c	0.12210569
22	0xbc382348	-0.01123888
23	0x3cb4e33c	0.02208101
24	0xbdb690ef	-0.08914363
25	0xb9050940	-0.00012687314
26	0xbd98cbbd	-0.07460735
27	0xbd3377f4	-0.043815568
28	0x3d5d0406	0.053958915
29	0xbda0883c	-0.07838485
30	0x3cc78d50	0.024359375
31	0xbbc28756	-0.0059365435
32	0x3df1e2b9	0.11810822
33	0x3dce0541	0.10059596
34	0xbdaf7c69	-0.08568651
35	0x3e0c4352	0.13697556
36	0x3d5f8570	0.054570615
37	0x3e271c37	0.16319357
38	0x3dee3220	0.11630654
39	0x3cf8f156	0.030388515
40	0x3de38389	0.11109073
41	0x3be5ee16	0.0070169074
42	0xbd3901f1	-0.045167867
43	0xbdb2723b	-0.08713194
44	0x3c3cc2e3	0.011521074
45	0xbddb7036	-0.10714762
46	0xbc2b80dd	-0.010467735
47	0x3d03671a	0.032080747
48	0x3dde9ac4	0.10869363
49	0x3d84d161	0.06485248
50	0xbca45cb7	-0.020063741
51	0x3c8e51bc	0.017372958
52	0x3d6f2474	0.058384374
53	0xbd81443a	-0.06311841
54	0x3d6d31ad	0.057908703
55	0xbca523f0	-0.020158738
56	0x3cb31fac	0.021865688
57	0x3cac7add	0.02105468
58	0xbca7a87a	-0.020466078
59	0x3ce3bf7c	0.027801268
60	0xbaa2bea6	-0.0012416437
61	0xbd06d96b	-0.03292219
62	0x3d7cade9	0.06168929
63	0xbd4c2859	-0.049843166
64	0x3ca80a21	0.020512642
65	0x3c9e0631	0.019290062
66	0xbd103c4e	-0.03521376
67	0x3de20246	0.1103559
68	0xbc34954d	-0.011021924
69	0x3d40075c	0.04688202
70	0x3dbcfabd	0.09227512
71	0xbcf13d68	-0.029448226
72	0xbd5511f0	-0.05201906
73	0x3c89fa78	0.016843066
74	0xbdd8ca1b	-0.105854236
75	0xbd4ac0f8	-0.049500436
76	0x3c2e3b5c	0.01063427
77	0xbdd4d708	-0.103925765
78	0xbba260e6	-0.004955399
79	0x3d523c39	0.051326964
80	0xbdd676a4	-0.10471848
81	0xbdb6f665	-0.08933715
82	0x3c5b2bb1	0.013377116
83	0x3c918a24	0.017766066
84	0x3d493bb6	0.04912921
85	0x3d58f1d3	0.052964997
86	0x3d6e1237	0.05812284
87	0x3cb0a1f5	0.021561602
88	0xbd349b84	-0.044093624
89	0x3d899a8b	0.0671893
90	0x3da03c90	0.078240514
91	0xbd98b065	-0.074555196
92	0xbc9641e3	-0.018341964
93	0x3d53509c	0.051590547
94	0x3e0ce3f0	0.13758826
95	0xb9612b52	-0.0002147381
96	0x3dd4a638	0.10383266
97	0x3df89061	0.12136913
98	0xbc9d5c65	-0.019209096
99	0x3c148d6d	0.009066922
100	0x3c861db6	0.01637159
101	0xbc914dbf	-0.017737268
102	0x3e0468ff	0.12930678
103	0x3dd2ed0d	0.1029912
104	0x3de16263	0.11005094
105	0xbccdfd1a	-0.025145102
106	0xbd998b26	-0.074972436
107	0x3e189bd2	0.1490319
108	0xbda848a2	-0.082169786
109	0x3cda630d	0.02665856
110	0x3d1393c8	0.036029607
111	0xbca29f66	-0.019851398
112	0x3c778a30	0.01510863
113	0xbd8fbb66	-0.07018165
114	0xbd758a3c	-0.059946284
115	0xbd1053be	-0.035236113
116	0x3dc58e20	0.09646249
117	0x3db73093	0.08944812
118	0xbd84da35	-0.06486932
119	0xbd8f59bd	-0.06999538
120	0xbd40b2b7	-0.047045436
121	0xbd13f959	-0.03612647
122	0xbd54ee78	-0.051985234
123	0xbcc94dde	-0.024573263
124	0xbd1393c9	-0.03602961
125	0xbb29b960	-0.0025897846
126	0x3c98c9ee	0.018650975
127	0x3e13edcc	0.14446181

fca1.weight f4 [128, 1]
0	0xbd5f4002	-0.054504402
1	0xbd8cb387	-0.068701796
2	0xbd8a2914	-0.06746116
3	0xbeac45e5	-0.33647075
4	0x3d0a176e	0.03371375
5	0xbf3c1e5f	-0.7348384
6	0x3c2b5b38	0.01045876
7	0xbf1a29b4	-0.60219884
8	0xbef134e4	-0.47110665
9	0x3cbeda0d	0.023297334
10	0xbd90c212	-0.07068266
11	0x3c5e0fe2	0.013553591
12	0x3ba966f0	0.005169742
13	0x3d46103a	0.04835532
14	0xbbf0f270	-0.0073531196
15	0xbeb22824	-0.3479625
16	0xbe057c58	-0.13035715
17	0xbd93423e	-0.07190369
18	0x3f01ee34	0.50754094
19	0xbec4727c	-0.38368595
20	0xbe9b98c3	-0.30389985
21	0xbd197b85	-0.037471313
22	0xbcd72005	-0.026260385
23	0xbd8e86cd	-0.06959305
24	0xbf161646	-0.58627737
25	0x3d8e764e	0.069561586
26	0x3f110405	0.5664676
27	0x3e6e7694	0.23287421
28	0xbd66be4c	-0.056333825
29	0x3e1b7d5f	0.15184544
30	0xbc5a17b0	-0.013311312
31	0xbed10c84	-0.4082986
32	0x3f0b9248	0.5452008
33	0xbd8c2eae	-0.06844841
34	0xbeae7898	-0.3407638
35	0x3d3884e6	0.045048617
36	0x3d1603fe	0.0366249
37	0x3ab75e40	0.0013989881
38	0x3d9e2f43	0.07723858
39	0xbf291343	-0.66045016
40	0xbc84e814	-0.016223945
41	0x3dc1e051	0.09466613
42	0xbd8601ea	-0.06543334
43	0x3d833fdd	0.06408665
44	0x3dd59dd0	0.10430491
45	0xbe102a67	-0.14078675
46	0xbc560120	-0.013061792
47	0xbefee60e	-0.49784893
48	0x3cf4527c	0.029824488
49	0xbf2c8d38	-0.6740298
50	0xbd79d952	-0.06099827
51	0x3d693035	0.05693074
52	0x3e956ae3	0.2918311
53	0xbc564250	-0.013077334
54	0xbdab4560	-0.083628416
55	0x3ca407fc	0.020023338
56	0x3d921c5f	0.071343176
57	0xbc1ba7b0	-0.009500429
58	0xbcec3206	-0.028832447
59	0x3d193536	0.03740426
60	0x3e4899e7	0.19589959
61	0x3da8a0df	0.08233809
62	0x3d866355	0.06561915
63	0xbeb38bd5	-0.3506762
64	0x3e5bd0ea	0.21466413
65	0xbcd393b0	-0.025827259
66	0xbd0f26f4	-0.034949258
67	0xbce65104	-0.028114803
68	0x3e0320f3	0.12805538
69	0xbd92248c	-0.07135877
70	0x3e8f8cb3	0.28037032
71	0x3ebd788e	0.37006038
72	0xbb1db800	-0.0024065971
73	0x3c158528	0.009125985
74	0xbe1179b5	-0.14206584
75	0x3d0afdde	0.033933513
76	0x3dbed4f4	0.09317961
77	0x3c5f4c50	0.013629034
78	0xba891840	-0.0010459498
79	0xbe91ddb6	-0.28489465
80	0xbc0f14c6	-0.00873298
81	0xbd4c3d4c	-0.049863145
82	0x3978b400	0.00023718178
83	0xbd80b2ec	-0.06284127
84	0xbee78d90	-0.4522519
85	0xbe979e7a	-0.29613096
86	0x3c03a1b4	0.0080341585
87	0xbf04ad14	-0.51826596
88	0x3e76e420	0.2411046
89	0x3f17156a	0.5901705
90	0x3f135479	0.5755077
91	0x3cae1f20	0.021255076
92	0x3cf92114	0.03041128
93	0x3ec698ef	0.38788554
94	0x3e5a5d7b	0.21324722
95	0x3d14ea36	0.036356173
96	0x3c807f09	0.015685575
97	0x3b623680	0.0034517348
98	0x3e87021f	0.26368806
99	0xbd9b8218	-0.07593173
100	0xbf0f8521	-0.56062514
101	0x3ba96d9b	0.0051705367
102	0x3b215840	0.0024619251
103	0x3e747faa	0.23876825
104	0x3e788c29	0.24272217
105	0xb94e0ec4	-0.00019651192
106	0xbec50dfe	-0.38487238
107	0xbf3b1218	-0.73074484
108	0xbd467b34	-0.04845734
109	0x3ab3d1cc	0.001371914
110	0xbc5f14a0	-0.013615757
111	0x3eef2ce9	0.4671395
112	0xbde5ba2d	-0.11217151
113	0x3d8ee4ad	0.0697721
114	0xbd8ee7e7	-0.069778256
115	0x3eb60574	0.35551035
116	0x3a87a50e	0.0010348873
117	0xbd349134	-0.04408379
118	0x3d80cfb1	0.06289614
119	0xbd16d269	-0.036821757
120	0xbc04fa18	-0.008116268
121	0x3e1c4ed5	0.15264447
122	0x3bec7b60	0.007216856
123	0x3cd92445	0.026506552
124	0xbd4b66db	-0.049658637
125	0x3dcd776e	0.10032545
126	0x3d8fb703	0.070173286
127	0x3ca27290	0.019830018

fca1.bias f4 [128]
0	0x3f4df01f	0.8044452
1	0xbf41eda6	-0.7575325
2	0xbf50cd34	-0.81563115
3	0x3f024a54	0.50894666
4	0xbf080e87	-0.53147167
5	0x3f2f2adf	0.6842479
6	0xbf2b0f95	-0.6682065
7	0x3e0d7096	0.1381248
8	0x3f28ba02	0.65908825
9	0xbe8f0b9d	-0.27938548
10	0xbf4441f2	-0.76663125
11	0x3f1c6e0c	0.6110542
12	0xbf3d7dc2	-0.74020016
13	0xbeabb648	-0.33537507
14	0xbde4f02e	-0.11178623
15	0x3f01ccc4	0.5070307
16	0x3f14168b	0.578469
17	0xbeb2bf98	-0.349118
18	0xbe9bebe5	-0.3045341
19	0x3f19642b	0.5991847
20	0x3f190e3e	0.59787357
21	0xbe69c292	-0.22828129
22	0x3e0bdf18	0.13659322
23	0xbf2cb62c	-0.6746547
24	0x3f5ddcfa	0.8666531
25	0x3f1ebee1	0.6201001
26	0xbe9c4a22	-0.3052531
27	0x3f0377f1	0.5135489
28	0xbf3d1104	-0.7385409
29	0x3f1fe3f0	0.6245718
30	0xbf704148	-0.9384961
31	0x3f1fe50e	0.62458885
32	0x3ec8bfb2	0.39208752
33	0xbebd35d0	-0.36955118
34	0x3f000ad4	0.5001652
35	0x3ef21887	0.47284338
36	0xbecb0258	-0.39650226
37	0xbf539ee0	-0.826643
38	0xbf3e0b54	-0.74236035
39	0x3e692330	0.22767329
40	0xbf0616c8	-0.5237851
41	0x3f0ecd82	0.5578233
42	0xbf34cd12	-0.7062541
43	0x3f201a9a	0.6254059
44	0x3f43b7ed	0.76452523
45	0x3f16ae31	0.58859545
46	0xbf415ab0	-0.75529003
47	0x3f3adf40	0.729969
48	0xbf4a704c	-0.790776
49	0xbd9d4e1d	-0.076809146
50	0x3e9dc683	0.30815515
51	0x3f0bf57d	0.5467146
52	0x3f0c5eef	0.5483236
53	0xbdc14728	-0.094374
54	0x3ec70015	0.3886725
55	0xbf2014f2	-0.6253196
56	0x3ea0ef22	0.31432444
57	0xbf1f57fa	-0.62243617
58	0xbe0d73e8	-0.13813746
59	0xbf2902e0	-0.6602001
60	0x3f5232fa	0.82109034
61	0xbf261621	-0.64877516
62	0xbf064834	-0.52453923
63	0x3ed1ecba	0.4100092
64	0x3f392bfe	0.7233275
65	0xbf52c9e2	-0.823393
66	0xbe544a68	-0.20731509
67	0xbe86bbd8	-0.26315188
68	0x3f4259cb	0.75918263
69	0x3f18ab71	0.596366
70	0x3f1978e3	0.59950083
71	0x3f13bb03	0.5770723
72	0xbf12bfbc	-0.57323813
73	0xbdfede70	-0.1244477
74	0x3f232f15	0.63743716
75	0xbebc48a8	-0.36774182
76	0x3f02e0e9	0.51124436
77	0xbf79dbb7	-0.97600883
78	0xbf210daa	-0.62911475
79	0x3ec759ce	0.38935703
80	0x3d8d0bd7	0.06887024
81	0xbf23ebd4	-0.6403172
82	0xbe265890	-0.16244721
83	0xbf19f308	-0.6013646
84	0x3f37f4ad	0.7185772
85	0x3edc8f27	0.43077967
86	0xbf08feb4	-0.53513646
87	0x3f5107ae	0.81652343
88	0x3f051299	0.519815
89	0xbec8d244	-0.3922292
90	0xbd7fb91e	-0.0624324
91	0xbe014052	-0.12622193
92	0xbf65ceee	-0.89768875
93	0x3f3dbbe1	0.74114805
94	0x3f6964e5	0.9116958
95	0xbe5b35d8	-0.21407259
96	0x3f201ff5	0.6254876
97	0xbe659a40	-0.22422123
98	0x3f041888	0.5159993
99	0x3ecb06ef	0.39653727
100	0x3f5f97f1	0.8734122
101	0xbdd05040	-0.101715565
102	0xbd8a02f0	-0.067388415
103	0x3f0deab0	0.5543623
104	0x3f023d88	0.5087514
105	0x3c94a6ea	0.018145997
106	0x3f1b695a	0.6070763
107	0x3f8545f0	1.0411968
108	0xbf6649ba	-0.8995625
109	0xbea1e094	-0.31616652
110	0xbeefe0ff	-0.46851346
111	0x3f379871	0.7171698
112	0x3f5bfd46	0.8593334
113	0xbf615f90	-0.8803644
114	0xbf327726	-0.69713056
115	0x3ed4a78d	0.4153408
116	0xbca2bea6	-0.019866299
117	0xbe6ea0ae	-0.23303482
118	0xbf6b46cc	-0.919049
119	0x3e4216e1	0.1895404
120	0xbe91463c	-0.28373897
121	0x3ea85915	0.32880464
122	0xbf28342e	-0.6570462
123	0x3f0767bd	0.5289267
124	0x3e792ebc	0.24334234
125	0x3f4d48b4	0.8018906
126	0xbecdfb14	-0.4023062
127	0xbe90e248	-0.2829764

fc2.weight f4 [128, 256]
0	0xbd97d1bd	-0.07413051
1	0x3dab678b	0.08369359
2	0xbd38bf88	-0.045104533
3	0x3d3e98ba	0.04653237
4	0xbdc53313	-0.09628882
5	0xbd251450	-0.040302575
6	0x3ca1b8ec	0.019741498
7	0xbdc3a0ba	-0.095521405
8	0xbde9a352	-0.11408104
9	0x3d4b2687	0.04959729
10	0x3ccd496a	0.02505942
11	0xbdb1800a	-0.08667
12	0x3d237bae	0.039912872
13	0x3d891c10	0.066948056
14	0xbdb77767	-0.08958321
15	0xbb1c7be0	-0.0023877546
16	0xbc98374d	-0.018581057
17	0xbdb0078d	-0.0859519
18	0xbd05534d	-0.032550145
19	0x3ce0bdf1	0.027434321
20	0xbd94104a	-0.072296694
21	0xbced0a6d	-0.028935635
22	0xbcc83200	-0.024437904
23	0x3d4e118a	0.050309695
24	0xbd34f3bc	-0.044177756
25	0x3d0032c8	0.03129843
26	0x3d3d1d9a	0.04617081
27	0x3d65f78a	0.056144275
28	0xbd938041	-0.07202197
29	0x3d7ff63c	0.062490687
30	0x3b3fdbdd	0.0029275336
31	0xbdade23f	-0.08490419
32	0xbd57480a	-0.052558936
33	0xbcd4002f	-0.025878994
34	0xbda342d7	-0.07971733
35	0xbd4d7c32	-0.05016727
36	0x3d230332	0.03979797
37	0x3b2fb318	0.002680963
38	0x3cd0a8b4	0.025471069
39	0x3d81dfb7	0.06341498
40	0x3c93ca78	0.01804088
41	0xbda58c27	-0.080833726
42	0xbcc77488	-0.024347559
43	0xbd5f01a8	-0.05444494
44	0x3daacf5b	0.08340331
45	0xbd9ee25b	-0.07758018
46	0xbd99d062	-0.07510449
47	0x3cadc12c	0.021210276
48	0xbdd2f68f	-0.103009336
49	0x3c2483c6	0.010041183
50	0xbda83347	-0.082129054
51	0xbafd94da	-0.0019346729
52	0xbdbc7c94	-0.09203449
53	0xbd5285e6	-0.051397227
54	0x3c78495d	0.01515421
55	0xbd89f9a5	-0.06737069
56	0xbd6ccfd4	-0.057815388
57	0xbd08e4b0	-0.03342122
58	0x3c645a40	0.013937533
59	0xbd83112e	-0.06399761
60	0xbd40a022	-0.047027715
61	0xbd9ef9cb	-0.07762488
62	0xbdd13555	-0.102152504
63	0xbd80437e	-0.06262873
64	0x3d3c48fe	0.04596805
65	0xbd2f0350	-0.04272777
66	0x3d12d0c4	0.035843626
67	0xbd909df7	-0.070613794
68	0xbb567519	-0.0032723604
69	0x3ce8341f	0.028345166
70	0x3d127a87	0.035761382
71	0x3d16a3fe	0.03677749
72	0x3d066788	0.03281358
73	0xbdd0470c	-0.10169801
74	0xbcccc881	-0.024997951
75	0x3d88bab7	0.06676238
76	0xbd13ab39	-0.036051963
77	0xbb73c132	-0.003719401
78	0xbd84c7d6	-0.06483428
79	0x3cacf7dd	0.021114284
80	0x3d506a33	0.05088253
81	0xbdb1baa2	-0.086781755
82	0xbbcad098	-0.006189417
83	0xbcbb9233	-0.022896862
84	0x3d5b89e5	0.053598303
85	0xbda68a81	-0.08131886
86	0xbdc6f44c	-0.09714565
87	0xbcdd6677	-0.027026398
88	0xbd4ce01f	-0.050018426
89	0x3c8aa2b0	0.016923279
90	0xbd344ae5	-0.044016737
91	0x3daa41fb	0.08313366
92	0xbc66a7c8	-0.014078088
93	0xbd1aac37	-0.037761893
94	0xbd34c3fd	-0.04413222
95	0xbd5f1cd6	-0.05447086
96	0xbd24ca18	-0.040231794
97	0x3d58fd8b	0.052976172
98	0xbd9cc361	-0.07654453
99	0x3ccadc4f	0.024763254
100	0xbd60d17a	-0.054887272
101	0xbc2d13d8	-0.010563813
102	0xbc4c2859	-0.0124607915
103	0x3ba1cc74	0.004937703
104	0x3c085ca7	0.008322871
105	0x3cc691b4	0.024239399
106	0x3d75714e	0.05992251
107	0x3b92e3ff	0.0044827457
108	0xbda3c210	-0.07995999
109	0xbccf7d78	-0.025328383
110	0x3d825c7b	0.063652955
111	0xbdaa3d4d	-0.083124734
112	0xbd2dd29f	-0.042437192
113	0x3d811d29	0.0630439
114	0x3d7ce1aa	0.061738648
115	0xbd9766cf	-0.07392656
116	0xbca0612c	-0.019577585
117	0x3d19cd8d	0.037549544
118	0xbd8bccb2	-0.06826152
119	0x3d45aee6	0.0482625
120	0x3d5aa466	0.05337944
121	0x3d01349a	0.031544305
122	0x3ca6244c	0.02028098
123	0x3c21caf8	0.009875052
124	0xbb864c90	-0.0040984824
125	0x3d8b96f7	0.06815904
126	0xbd862256	-0.06549518
127	0xbd813c6a	-0.06310351
128	0x3d1f2c92	0.038860865
129	0x3c184410	0.009293571
130	0xbd292b8a	-0.041301288
131	0xbd66d48f	-0.056355055
132	0xbd53de95	-0.051725943
133	0x3c72ea58	0.01482638
134	0x3d2a8346	0.0416291
135	0x3d134d78	0.03596255
136	0xbddc3d96	-0.10753934
137	0xbd298138	-0.041383
138	0x3d9a62db	0.075383864
139	0xbd90b567	-0.0706585
140	0x3d40b506	0.047047637
141	0xbcfe7f3b	-0.031066528
142	0x3ce20b84	0.027593382
143	0xbb7c2991	-0.0038476924
144	0x3d2527d7	0.040321197
145	0x3d373f72	0.04473824
146	0xbdd2527e	-0.102696404
147	0x3c966a5a	0.01836126
148	0x3d7e2562	0.06204737
149	0x3c81e28c	0.015855096
150	0x3d2fca88	0.04291776
151	0x3d3468ee	0.04404538
152	0x3c0c062a	0.0085463915
153	0x3d34663c	0.04404281
154	0xbb08f500	-0.0020897985
155	0xbd886090	-0.06659043
156	0xbdaf2a60	-0.08553004
157	0x3c266ff8	0.010158531
158	0x3d8d9c79	0.069146104
159	0x3ca42dd6	0.020041388
160	0xbd8b17e2	-0.06791665
161	0x3daf4adb	0.085591994
162	0xbd12c4c0	-0.035832167
163	0xbcdaf575	-0.026728371
164	0x3d32ccf2	0.043652482
165	0x3da7605b	0.08172675
166	0xbd6eff93	-0.058349203
167	0xbd855b1d	-0.06511519
168	0xbd87822a	-0.06616624
169	0xb9c5cf53	-0.00037729237
170	0x3d79d26a	0.060991682
171	0x3d04ce7c	0.03242348
172	0xbdc031cf	-0.093845
173	0xbda24d5d	-0.07924912
174	0xbd51c095	-0.05120905
175	0x3ce7900f	0.028266935
176	0x3c42c5f9	0.011888021
177	0x39ddc437	0.00042298596
178	0xbd138041	-0.036010984
179	0xbdb6332e	-0.088964805
180	0xbbe45bbd	-0.006968944
181	0x3d84d789	0.064864226
182	0x3d5c223d	0.05374359
183	0x3c619120	0.013767511
184	0x3cebfce3	0.02880711
185	0x3d471bc2	0.048610456
186	0x3d74e45a	0.059788086
187	0xbc98b2d8	-0.018639967
188	0xbc6dc5ed	-0.014512521
189	0x3d42d34e	0.047564797
190	0xbd00049f	-0.031254407
191	0xbc804651	-0.01565853
192	0xbd0f3e65	-0.034971613
193	0x3cf3b962	0.029751483
194	0x3d76fdfa	0.060300805
195	0x3ce5dadc	0.028058462
196	0xbc27ac62	-0.01023397
197	0xbd68e001	-0.05685425
198	0xbd8b239a	-0.067939
199	0xbc5bdfd6	-0.013420066
200	0xbba8cde0	-0.0051514953
201	0xbd9af287	-0.0756579
202	0xbdcf29e3	-0.10115411
203	0xbc1e12c8	-0.0096480325
204	0xbdd03b54	-0.10167566
205	0xbd3a576f	-0.04549354
206	0xbda58007	-0.0808106
207	0xbc81f402	-0.015863422
208	0xbde10442	-0.1098714
209	0xbc9422d8	-0.018083021
210	0x3d693a32	0.056940265
211	0x3d3f9d5e	0.046780936
212	0xbd9f4403	-0.07776644
213	0xbd6332dc	-0.055468425
214	0xbd246198	-0.040132135
215	0x3cf6ce74	0.030127741
216	0xbbb0ff22	-0.005401508
217	0x3af80add	0.0018924136
218	0xbcc26451	-0.023729475
219	0xbd81d6fa	-0.06339832
220	0x3d94e495	0.07270161
221	0x3d1c80f8	0.03820893
222	0xbc00cb21	-0.00786093
223	0x3da4c8a3	0.08046081
224	0xbd73387a	-0.059380032
225	0x3d618926	0.055062436
226	0x3cadf1de	0.021233495
227	0x3d29dee3	0.041472327
228	0xbca28bde	-0.019842084
229	0x3db043a1	0.08606649
230	0xb9e52b00	-0.0004371032
231	0xbdae382f	-0.0850681
232	0x3ca9cf43	0.020728713
233	0x3b0e5bd4	0.0021722214
234	0x3c47520c	0.012165558
235	0x3d589412	0.052875586
236	0xbcca263c	-0.024676435
237	0x3d6d77cd	0.05797558
238	0xba8dbe40	-0.0010814145
239	0xbd8b90fa	-0.068147615
240	0xbd99b236	-0.07504694
241	0x3c037df0	0.008025631
242	0xbb98e1f0	-0.0046656057
243	0xbc971e0c	-0.018446945
244	0xbd86a33e	-0.06574105
245	0xbcfc2fde	-0.030784544
246	0xbccc4b81	-0.024938347
247	0xbc4c7a61	-0.012480349
248	0x3c2b4088	0.010452397
249	0x3d46b5cb	0.048513215
250	0xbd6be9ec	-0.057596132
251	0xbd88ca08	-0.066791594
252	0xbd8bc7aa	-0.06825192
253	0xbdc4f87b	-0.096177064
254	0x3d83accb	0.06429442
255	0x3d93f959	0.07225294

fc2.bias f4 [128]
0	0xbcad0396	-0.021119874
1	0xbc926030	-0.017868131
2	0xbdd82e83	-0.105557464
3	0x3a25cee6	0.0006325081
4	0xbd42ae89	-0.04752973
5	0x3da5c734	0.080946356
6	0xbd48adb6	-0.04899379
7	0xbe1e1f0a	-0.15441528
8	0x3d8a07d4	0.06739774
9	0x3c7ec972	0.015550958
10	0xbc060ece	-0.008182241
11	0x3c2d2b1d	0.010569361
12	0x3d0dac0b	0.0345879
13	0xbe328d93	-0.17436819
14	0xbdb50a4d	-0.08839855
15	0xbc8c18cb	-0.017101666
16	0xbbe0b30b	-0.006857281
17	0xbd355869	-0.044273768
18	0xbd35d956	-0.04439672
19	0x3d859319	0.06522197
20	0xb98a0617	-0.00026325948
21	0xbe011941	-0.1260729
22	0xbd921110	-0.07132161
23	0x3e8696d4	0.26286948
24	0x3d3d29bd	0.046182383
25	0x3de394d3	0.1111237
26	0x3d89df51	0.06732047
27	0x3d673dc2	0.05645538
28	0xbdc90f5e	-0.09817384
29	0x3d7baf16	0.06144627
30	0xbd862e0e	-0.06551753
31	0x3d275867	0.04085579
32	0xbd78977e	-0.06069135
33	0x3e4260a2	0.18982175
34	0x3d9bcd05	0.07607464
35	0x3da21f36	0.07916109
36	0x3d71a0b6	0.058991157
37	0x3cd8cac2	0.02646387
38	0x3e186ee1	0.14886047
39	0xbce7b338	-0.0282837
40	0x3b4b4d97	0.003102159
41	0x3d2a1e79	0.041532967
42	0x3d4f8eeb	0.050673407
43	0xbe3b867b	-0.18313019
44	0xbdaa9294	-0.08328739
45	0x3e02f037	0.12786947
46	0xbde39485	-0.11112312
47	0x3df4132a	0.11917718
48	0xbd2f0a34	-0.04273434
49	0x3cfc78e2	0.03081936
50	0xbe0802cf	-0.13282321
51	0xbd2b59cd	-0.041833688
52	0xbb5dfc00	-0.0033872128
53	0x3d3619ca	0.044458188
54	0x3d149435	0.036274154
55	0x3d42c50d	0.047551204
56	0xbd22552d	-0.03963201
57	0x3cf5f295	0.030022899
58	0xbbe33eab	-0.006934961
59	0x3cc696c9	0.024241822
60	0x3db431c5	0.08798555
61	0x3c89f6b6	0.016841274
62	0x3c7d69e1	0.015467138
63	0x3ddd9f9d	0.108214594
64	0xbc397b09	-0.011320838
65	0xbc8f618d	-0.01750257
66	0xbd4e4280	-0.050356388
67	0x3e1e062a	0.15432039
68	0x3daf2373	0.08551683
69	0xbe2f4d6f	-0.17119382
70	0xbcbcf5ac	-0.023066364
71	0x3c9d28f0	0.01918456
72	0xbd98a4ad	-0.074532844
73	0xbd72afc1	-0.059249643
74	0xbb97d33a	-0.0046333345
75	0xbbdb7440	-0.0066972077
76	0xbd8559c7	-0.06511264
77	0xbc6a6eed	-0.014308673
78	0xbc011731	-0.007879064
79	0xbc8cef20	-0.017203867
80	0xbd963b7b	-0.07335564
81	0x3e159d51	0.14610793
82	0xbc186a37	-0.009302667
83	0xbe0ca26b	-0.13733833
84	0x3c13336f	0.008984431
85	0xbc449aba	-0.01199978
86	0x3d149e3f	0.036283728
87	0x3cf839bd	0.03030097
88	0xbc678458	-0.014130674
89	0x3cc63065	0.024192998
90	0x3d68a072	0.056793638
91	0x3db41d7e	0.08794688
92	0xbcbb191a	-0.022839118
93	0x3c06f15d	0.008236256
94	0xbce814e0	-0.028330266
95	0x3c8343f2	0.01602361
96	0x3d4f935b	0.05067764
97	0xbcf8ddce	-0.030379202
98	0xbd7efddb	-0.062253814
99	0xbc0e4643	-0.008683744
100	0x3d1a7d60	0.037717223
101	0xbcd55fc1	-0.026046636
102	0xbcc6d8f4	-0.024273373
103	0xbc7641d4	-0.015030343
104	0x3cbd98b0	0.023144096
105	0x3d3f6174	0.046723798
106	0x3a72687b	0.0009247136
107	0xbcbd0934	-0.023075677
108	0x3dbb478a	0.09144504
109	0xbd5c084b	-0.053718846
110	0xbb64732d	-0.003485869
111	0x3cc9a3ce	0.024614241
112	0xbda343a2	-0.07971884
113	0x3ce9ba43	0.0285312
114	0x3cea7341	0.02861941
115	0x3cc61760	0.024181068
116	0x3d8306e7	0.06397801
117	0xbd2a59e0	-0.041589618
118	0x3cb2a187	0.021805538
119	0xbe1f0583	-0.15529446
120	0x3dd4b425	0.10385922
121	0xbd91b737	-0.071150236
122	0x3c722ed8	0.014781676
123	0xbc2569d8	-0.010096036
124	0x3d99ab04	0.07503322
125	0xbe1e1b22	-0.15440038
126	0x3da92572	0.08259095
127	0x3d411d89	0.047147308

fc3.weight f4 [1, 128]
0	0x3cbf2ffe	0.023338314
1	0xbb17ddee	-0.0023173052
2	0x3cb7449f	0.022371588
3	0xbe2ea660	-0.17055655
4	0x3c61bbdb	0.013777698
5	0xbe50189d	-0.20321889
6	0x3c083d67	0.008315421
7	0xbdb5d955	-0.088793434
8	0xbe2e480f	-0.17019676
9	0x3c1dc91a	0.009630466
10	0xba731d21	-0.0009274055
11	0xbe53ac1f	-0.20671128
12	0x3cbc1aeb	0.022962054
13	0xbd2b7cf4	-0.04186721
14	0xbc093768	-0.008375026
15	0xbfab9bdb	-1.3406938
16	0xbe4efbba	-0.20213214
17	0xbf13b5b4	-0.5769913
18	0x3bc76595	0.0060851076
19	0xbf01b8f1	-0.50672823
20	0xbe33d216	-0.1756061
21	0xbdafde10	-0.08587277
22	0xbe24d9b7	-0.16098677
23	0x3ff171c8	1.8862848
24	0xbe277bc6	-0.1635581
25	0xbe467ccc	-0.19383544
26	0xbe530925	-0.20608957
27	0xbe57f00b	-0.21087663
28	0xbc085ca8	-0.008322872
29	0xbe357850	-0.17721677
30	0xbd979723	-0.07401874
31	0xbeb9433c	-0.36184108
32	0xbcefe0ff	-0.029282091
33	0xbe41c6f3	-0.1892355
34	0xbe3250a0	-0.17413568
35	0xbe2213b5	-0.1582783
36	0xbe6c20eb	-0.23059432
37	0xbcd8f5bc	-0.026484363
38	0xbe2f7b18	-0.171368
39	0xbbd09915	-0.006365905
40	0x3bf9bc77	0.0076213437
41	0xbe6d35d0	-0.23165059
42	0xbe2e35e5	-0.17012747
43	0xbd7fd6fb	-0.06246088
44	0x3ca3e787	0.020007862
45	0xbe3d9359	-0.1851324
46	0xbd928a27	-0.07155257
47	0xbe1ef62d	-0.15523596
48	0xbe5a5445	-0.21321209
49	0xbe4b27b2	-0.19839361
50	0xbd73f011	-0.059555117
51	0xbd6169d3	-0.055032562
52	0x3b1853e6	0.0023243367
53	0xbe4e5b78	-0.2015208
54	0xbe823d4e	-0.25437397
55	0xbe2f7b8f	-0.17136978
56	0xbb90dc76	-0.0044208122
57	0xbe5efd8a	-0.21776405
58	0xbe7fbb41	-0.24973775
59	0xbf4486e3	-0.7676832
60	0xbe4085c8	-0.18801033
61	0xbe8917c8	-0.26775956
62	0x3ce4fbe6	0.027952146
63	0xbe2ac06b	-0.16674964
64	0xb9099cf9	-0.00013123815
65	0xbc852c3d	-0.016256446
66	0xbe8a616c	-0.27027452
67	0xc00d5edd	-2.208915
68	0xbf34215e	-0.70363414
69	0xbd309260	-0.043108344
70	0x3cf8fd0f	0.030394105
71	0xbb5ed991	-0.0034004191
72	0x3ce61cf7	0.028089983
73	0xbd9174ce	-0.07102357
74	0xbe6aa8d9	-0.22915973
75	0xbe4acc50	-0.19804502
76	0xbb4fde1a	-0.0031718076
77	0xbe92c3db	-0.2866505
78	0xbe575149	-0.21027102
79	0xbe753e32	-0.23949507
80	0xbdae20bf	-0.085023396
81	0xc03a9a8e	-2.9156833
82	0x3caca320	0.021073878
83	0xbdcf7fd4	-0.10131803
84	0xbe476aad	-0.19474287
85	0xbc8dcf34	-0.017310716
86	0xbe233f6f	-0.15942167
87	0xbccbd650	-0.024882466
88	0xbd27bc02	-0.040950783
89	0xbe2e088d	-0.1699545
90	0xbe34a2fe	-0.17640302
91	0xbfd71847	-1.6804284
92	0xbcc84055	-0.024444738
93	0xbce5ea2e	-0.028065767
94	0x3cc3c7ca	0.023898978
95	0xbcf3d4ba	-0.029764522
96	0x3bc8637e	0.006115376
97	0xbb23c846	-0.0024991198
98	0xbe85d3f3	-0.26138267
99	0xbe8cedad	-0.27525082
100	0xbe416d44	-0.18889338
101	0xbbc99817	-0.0061521637
102	0xbcfbdf59	-0.030746149
103	0xbcd86533	-0.026415443
104	0xbe4a3e09	-0.19750227
105	0xbe2b10f2	-0.16705683
106	0xbe3ef605	-0.18648537
107	0x3cba6d3a	0.022757161
108	0xbe2d51a2	-0.16925672
109	0xc01a9129	-2.4151099
110	0x3c774f5d	0.015094605
111	0xbca994ac	-0.020700775
112	0xbc60b181	-0.013714195
113	0xbe2c0f10	-0.16802621
114	0xbe53ecf8	-0.20695865
115	0x3fa50948	1.2893457
116	0xbe39ecc8	-0.18156731
117	0xbecceed5	-0.40025964
118	0xbe2f9766	-0.17147598
119	0xbdbde00c	-0.09271249
120	0xbe1e0444	-0.15431315
121	0xbceedf2e	-0.029159155
122	0xbcacd89e	-0.021099385
123	0xbea53b00	-0.32271576
124	0xbe20b9e8	-0.15695918
125	0xbd1491b1	-0.036271755
126	0xbe44886b	-0.19192664
127	0xbf47fbd8	-0.7811866
