Actor-Critic/PyTorch-ActorCriticRL/Models/300_actor.pt (torch_old, 170218 bytes, 7 tensors)

fc1.weight f4 [256, 3]
-0.266983 0.5059205 0.35876423 -0.30016485 -0.69847673 -0.14355615 -0.18410313 0.49105793
0.33415467 -0.08040739 -0.469224 0.096619375 -0.19812027 0.14557396 -0.21018562 -0.042883746
0.32265297 -0.10407066 -0.33863175 -0.90621734 -0.17586918 0.023170032 -0.06001126 -0.018731527
0.71692437 -0.3180008 -0.17625059 -0.48020694 -0.6783747 -0.047571298 -0.31694108 -0.4822085
-0.19874004 0.100903094 -0.49976918 0.25456327 -0.116889395 0.6392782 0.067733884 0.55299276
0.26981485 -0.18290749 -0.0010221526 -0.049710542 0.025349565 0.101597495 -0.26366943 -0.42989358
-0.054373443 0.062371477 -0.00616543 -0.44136268 -0.6881912 -0.03762827 0.3604726 -0.7096402
-0.2083958 -0.046088155 -0.8420069 0.007428245 0.55289745 -0.10691109 0.22929272 -0.03369736
-0.7939069 0.0740752 -0.045149483 0.03376088 0.0035370216 0.58345723 -0.01931215 -0.21784817
-0.38380355 0.37391356 0.33988327 -0.051970333 -0.026484363 0.052880213 0.06163623 0.009609759
-0.022328869 0.4701902 -0.6986655 0.096057236 -0.43682444 0.31767505 -0.02736317 0.51062953
-0.14021204 0.1658313 -0.20845348 -0.66017956 0.1761947 -0.11702461 0.545402 -0.2743945
0.4949922 -0.54484624 0.10820387 0.21372393 -0.59412193 -0.085599974 -0.007617575 -1.2892964
-0.2348383 0.020383827 0.058108583 -0.052551664 0.05750991 -0.004742831 -0.02233097 -0.02876613
0.039911408 0.006357522 -0.044371482 -0.4645402 0.08488329 -0.44914684 -0.8501553 -0.048897557
-0.3263327 -0.5531102 -0.1755801 0.38680565 0.6483728 0.16483308 0.027528694 0.047863536
0.4009933 0.47342443 -0.18584543 -0.10444205 0.44670895 -0.6460509 -0.19550082 0.04516008
-1.2519084 -0.22763807 0.60834926 0.14277807 -0.2500068 0.6119531 -0.3440774 -0.15896967
0.35084182 -0.737098 -0.2185083 -0.18104914 0.5902134 -0.29270375 0.55707103 0.02793457
-0.242142 -0.028907694 0.066352 0.020829296 -0.43389973 -0.65451825 -0.044070434 -0.5701002
0.39593926 0.026246803 -0.02318766 0.0006474231 0.010830201 0.8093575 -0.024480168 -0.1392098
-0.01841562 0.30319735 -0.10893199 0.059836067 -0.037963063 0.018106103 0.11505583 1.3787788
0.30289608 0.2229827 -0.24144524 0.10271757 0.80872077 -0.088966504 -0.22978668 -0.05480256
0.027111247 -0.02514556 -0.18296103 -0.044438764 0.37643546 0.6328737 0.5117924 -0.21312614
-0.30572867 0.3487953 -0.049776606 0.013149046 -0.014555363 0.006035281 -0.18074071 0.6390813
-0.04292396 0.41712838 -0.656068 -0.19768119 -0.021628382 0.026793564 -0.036733694 -0.0015886821
-0.005693481 -0.012674067 -0.0680491 0.20820534 -0.034666806 -0.16842556 -0.952743 -0.018766109
0.049364313 0.019737775 -0.010423645 0.050190583 0.0055379486 0.010356907 0.010937128 0.04279482
-0.00014922454 -0.14854844 0.35294393 -0.21267992 0.38882187 -0.39730126 -0.12285582 -0.022745755
0.29762647 -0.12883599 0.025170766 0.017891586 -0.007935479 0.29948935 -0.9660363 -0.23950852
-0.041439176 0.057409327 -0.021597013 0.038663425 -0.056877755 0.00962913 0.1825119 0.86984247
-0.11509393 -0.47161272 -0.2951794 -0.076963276 -0.0023216382 0.014073863 0.0003876537 0.9193496
00000000: ffb1 88be 0284 013f f2af b73e 35af 99be
00000010: 5fcf 32bf 6200 13be 8885 3cbe f26b fb3e
00000020: 5216 ab3e a1ac a4bd 213e f0be 61e0 c53d
00000030: 0ae0 4abe 5711 153e e63a 57be dea6 2fbd
00000040: c532 a53e 0023 d5bd 2461 adbe dcfd 67bf
00000050: 0d17 34be 14cf bd3c 5ece 75bd dc72 99bc
00000060: 5b88 373f 00d1 a2be 097b 34be afdd f5be
00000070: f7a9 2dbf 1fda 42bd 1a46 a2be 08e4 f6be
00000080: 8282 4bbe 48a6 ce3d bfe1 ffbe 1e56 823e
00000090: b563 efbd bca7 233f 10b8 8a3d ef90 0d3f
000000a0: 2c25 8a3e 1a4c 3bbe c0f9 85ba 489d 4bbd
000000b0: e4a9 cf3c 5912 d03d aeff 86be 031b dcbe
000000c0: b0b6 5ebd 3c79 7f3d 6007 cabb 4afa e1be
000000d0: 4c2d 30bf 1a20 1abd dd8f b83e fbaa 35bf
000000e0: b565 55be efc6 3cbd c48d 57bf a368 f33b
000000f0: b08a 0d3f 34f4 dabd b6cb 6a3e 3e06 0abd
00000100: 7c3d 4bbf bdb4 973d aaee 38bd d948 0a3d
00000110: 60cd 673b 745d 153f 8434 9ebc 9713 5fbe
00000120: e681 c4be 9971 bf3e 2e05 ae3e d8de 54bd
00000130: bcf5 d8bc ec98 583d 4676 7c3d 4072 1d3c
00000140: 08eb b6bc c5bc f03e bedb 32bf a8b9 c43d
00000150: 74a7 dfbe 4ea6 a23e ba28 e0bc 9eb8 023f
00000160: bf93 0fbe aecf 293e d474 55be 8701 29bf
00000170: 626c 343e 99aa efbd 779f 0b3f 707d 8cbe
00000180: 9e6f fd3e 0b7b 0bbf fe99 dd3d 72da 5a3e
00000190: 6018 18bf 0a4f afbd da9c f9bb aa07 a5bf
000001a0: 7479 70be fcfb a63c 4403 6e3d 6a40 57bd
000001b0: 838f 6b3d c069 9bbb 70ef b6bc f2a6 ebbc
000001c0: 257a 233d c352 d03b dfbe 35bd 37d8 edbe
000001d0: 4ad7 ad3d 93f6 e5be c7a3 59bf ce48 48bd
000001e0: 1415 a7be a198 0dbf 45cb 33be 640b c63e
000001f0: c3fb 253f 01ca 283e db83 e13c 8e0c 443d
00000200: fe4e cd3e b064 f23e 444e 3ebe b7e5 d5bd
00000210: 09b7 e43e 9763 25bf 5e31 48be c7f9 383d
00000220: 893e a0bf f419 69be c7bc 1b3f 6a34 123e
00000230: e400 80be f5a8 1c3f ea2a b0be f2c8 22be
00000240: 8aa1 b33e 74b2 3cbf a4c0 5fbe f264 39be
00000250: 3a18 173f 44dd 95be 359c 0e3f 0ad7 e43c
00000260: 13f4 77be d4cf ecbc 8fe3 873d 33a2 aa3c
00000270: 1b28 debe 828e 27bf 3383 34bd 16f2 11bf
00000280: 8db8 ca3e 8903 d73c 0cf4 bdbc d4b7 293a
00000290: 2871 313c 0e32 4f3f a28a c8bc 048d 0ebe
000002a0: 5bdc 96bc af3c 9b3e bc17 dfbd aa16 753d
000002b0: 287f 1bbd 4053 943c 64a2 eb3d d37b b03f
000002c0: 3215 9b3e 9455 643e 6c3d 77be 975d d23d
000002d0: 5308 4f3f 1234 b6bd 334d 6bbe a678 60bd
000002e0: 6818 de3c 10fe cdbc 235a 3bbe 6c05 36bd
000002f0: 26bc c03e 0304 223f d404 033f bd3d 5abe
00000300: 7888 9cbe 4c95 b23e 8ee2 4bbd 196f 573c
00000310: 9e79 6ebc 9bc3 c53b 1814 39be d59a 233f
00000320: 09d1 2fbd da91 d53e 13f4 27bf f06c 4abe
00000330: 012e b1bc 2d7e db3c 1276 16bd 533b d0ba
00000340: 6190 babb e4a6 4fbc 545d 8bbd c833 553e
00000350: c8fe 0dbd c077 2cbe f7e6 73bf 62bb 99bc
00000360: 3c32 4a3d 1db1 a13c f0c7 2abc a494 4d3d
00000370: ae77 b53b 04b0 293c a431 333c 9f49 2f3d
00000380: 2879 1cb9 151d 18be 11b5 b43e c4c8 59be
00000390: a913 c73e 126b cbbe d59b fbbd 4e55 babc
000003a0: 7f62 983e 95ed 03be ec32 ce3c 6091 923c
000003b0: d003 02bc ab56 993e 284e 77bf b941 75be
000003c0: 20bc 29bd 0b26 6b3d 38ec b0bc 8a5d 1e3d
000003d0: a6f8 68bd 80c3 1d3c 66e4 3a3e ffad 5e3f
000003e0: 5eb6 ebbd 3977 f1be c121 97be ec9e 9dbd
000003f0: a026 18bb 0f96 663c 003e cb39 7f5a 6b3f

fc1.bias f4 [256]
0.05985611 0.25532287 -0.018013561 -0.43118864 -0.1909835 -0.16279109 0.33372527 -0.27531493
-0.1823843 0.25747776 0.21569535 0.07878025 -0.013662906 -0.21672477 -0.32045504 0.2200955
-0.28019893 0.23099793 -0.29956305 0.07164824 -0.19091582 -0.18117669 -0.56676966 -0.609886
0.08919044 -0.5293517 -0.2854837 -0.38432696 0.24597214 -0.2617028 -0.06083184 0.0087810885
-0.38885948 -0.23977251 0.11158802 -0.5737742 -0.37881377 -0.18849467 -0.43636256 0.3849629
0.13196833 -0.11348603 0.1795263 -0.0038820764 -0.31495002 0.099997655 -0.24544376 -0.08176381
-0.32330498 0.07738569 -0.7650307 -0.2551261 0.234609 0.31412488 -0.45091337 0.095824294
-0.4537053 -0.4137525 0.16682586 -0.8455375 -0.14639339 -0.38329333 0.17557359 -0.17580642
0.3634819 -0.084099516 0.24839513 -0.33355853 -0.3919801 -0.1590049 -0.20444264 0.04224981
-0.22591424 -0.2353366 -0.112076804 -0.14148165 -0.24296115 -0.49537465 -0.47771204 -0.21743277
-0.48562658 -0.20431991 -0.01601614 0.33173057 -0.5203649 0.04583951 0.10672934 -0.12508683
-0.29893652 -0.054808345 -0.2929457 0.15309882 0.16987091 -0.53525245 0.31248465 -0.12816405
-0.38593015 -0.49826816 -0.073476955 -0.5815216 -0.6636406 -0.014405728 0.35299638 -0.019729843
-0.4033271 -2.1126252e-05 0.03962207 0.2069215 -0.24070047 0.19534133 -0.1413468 -0.3865262
-0.36968768 0.09369771 -0.5553893 0.18064521 -0.5306128 -0.20670497 0.28274858 0.024866257
-0.12075637 -0.16516279 -0.5605785 -0.31056955 -0.41036397 -0.35091197 0.14573245 0.17401342
-0.1707232 0.132118 0.2578028 0.39049152 0.34644818 -0.01466242 -0.3622434 -0.46236333
0.2483511 0.21561868 -0.17798366 -0.5120319 -0.4612714 -0.36949527 -0.07617704 -0.34097397
-0.02565526 -0.17067935 -0.082703345 -0.5241692 -0.55077547 0.04771109 0.04662272 -0.35252133
-0.48017842 -0.7704733 0.12766454 -0.4626125 -0.37500814 -0.22259721 0.28114712 0.13521174
-0.03444537 -0.14966252 -0.2107424 -0.5152806 0.040733006 -0.55860007 0.11177131 0.25845742
-0.08977749 -0.11610431 -0.7649485 -0.46207607 0.23115164 -0.14855883 -0.22620165 -0.28032002
0.06462601 0.15523635 0.1709672 -0.22692527 0.18332678 0.11756433 -0.24382842 0.014156904
0.23837414 0.18246338 -0.15052415 -0.51208913 -0.329007 -0.10369713 0.008155958 -0.40500233
-0.16998719 -0.41106513 -0.12087046 0.2301672 -0.25454277 0.15219313 0.39380673 -0.20672245
0.19506262 0.19615495 -0.34089828 -0.28743222 -0.467679 -0.11225079 -0.032141607 -0.4521535
-0.08623041 0.3745578 0.019598197 -0.15092061 -0.5346775 0.08694223 -0.2843191 -0.18552878
-0.66481346 0.055710826 -0.0060501406 -0.5916321 -0.33569688 0.23963876 -0.40276867 0.06871222
0.068366036 -0.12160622 -0.44057745 -0.7888026 0.10579785 -0.38759303 -0.14775437 0.20467685
-0.57159233 -0.10226582 0.2960665 -0.3098789 -0.26705393 0.0009822242 0.11369314 -0.2898805
-0.44464839 0.25248292 -0.32130542 -0.25992656 -0.09480226 -0.14984754 -0.08915108 -0.20674348
-0.8337395 -0.3600018 0.061696567 -0.61092407 0.22598127 0.19193685 -0.40649682 0.033879317
00000000: ae2b 753d aeb9 823e 2d91 93bc c2c4 dcbe
00000010: 2e91 43be b5b2 26be 0ade aa3e 14f6 8cbe
00000020: f3c2 3abe 20d4 833e 3edf 5c3e 8a57 a13d
00000030: 62da 5fbc 19ed 5dbe af12 a4be b760 613e
00000040: 3c76 8fbe b98a 6c3e 5460 99be 50bc 923d
00000050: 707f 43be 6286 39be d117 11bf 7d21 1cbf
00000060: 7aa9 b63d 9883 07bf eb2a 92be 81c6 c4be
00000070: 1fe0 7b3e e9fd 85be cf2a 79bd 8ede 0f3c
00000080: 9718 c7be ed86 75be 4388 e43d dee2 12bf
00000090: e1f3 c1be bf04 41be ea6a dfbe db19 c53e
000000a0: b522 073e 5d6b e8bd bed5 373e 6f6a 7ebb
000000b0: 2141 a1be 92cb cc3d 9c55 7bbe c973 a7bd
000000c0: 3b88 a5be 637c 9e3d 0dd9 43bf e39f 82be
000000d0: 573d 703e fad4 a03e 1ede e6be 873f c43d
000000e0: 104c e8be 5ed7 d3be 66d4 2a3e 2575 58bf
000000f0: 26e8 15be 063f c4be 90c9 333e 9906 34be
00000100: 4d1a ba3e 5e3c acbd 4b5b 7e3e 2fc8 aabe
00000110: 9eb1 c8be 2ed2 22be 6959 51be 230e 2d3d
00000120: 1056 67be 14fc 70be 8688 e5bd 91e0 10be
00000130: cfca 78be bfa1 fdbe ac96 f4be b2a6 5ebe
00000140: 0ca4 f8be 3d39 51be 4834 83bc 97d8 a93e
00000150: a236 05bf 36c2 3b3d ea94 da3d c316 00be
00000160: 350e 99be b77e 60bd fbfc 95be f0c5 1c3e
00000170: a4f2 2d3e 4e06 09bf fdfd 9f3e 703d 03be
00000180: a398 c5be 011d ffbe 167b 96bd 99de 14bf
00000190: 5ae4 29bf 0106 6cbc f1bb b43e 7ba0 a1bc
000001a0: e480 cebe 4838 b1b7 c04a 223d 3be3 533e
000001b0: 2f7a 76be 8f07 483e 37bd 10be c3e6 c5be
000001c0: b447 bdbe 96e4 bf3d fe2d 0ebf 0ffb 383e
000001d0: 3ed6 07bf 78aa 53be 6cc4 903e 52b4 cb3c
000001e0: 1e4f f7bd 6f20 29be 1382 0fbf f902 9fbe
000001f0: 3a1b d2be bcaa b3be e33a 153e 9330 323e
00000200: 10d2 2ebe f149 073e bbfe 833e 81ee c73e
00000210: a861 b13e a63a 70bc f877 b9be e3ba ecbe
00000220: c04f 7e3e 25cb 5c3e 5941 36be 8614 03bf
00000230: c42b ecbe 7c2e bdbe b502 9cbd 2494 aebe
00000240: fb2a d2bc 91c6 2ebe 5f60 a9bd f42f 06bf
00000250: 9fff 0cbf b46c 433d 77f7 3e3d ad7d b4be
00000260: f2d9 f5be bd3d 45bf 7eba 023e 8cdb ecbe
00000270: 1101 c0be 86f0 63be 84f2 8f3e f274 0a3e
00000280: 9716 0dbd 2241 19be dbcc 57be 6ee9 03bf
00000290: a7d7 263d 6a00 0fbf 5be8 e43d 8854 843e
000002a0: 43dd b7bd 19c8 edbd aad3 43bf 3c95 ecbe
000002b0: 04b3 6c3e ce1f 18be 68a1 67be 1b86 8fbe
000002c0: a45a 843d 47f6 1e3e 0712 2f3e 195f 68be
000002d0: 04ba 3b3e 91c5 f03d 28ae 79be 5cf2 673c
000002e0: 5a18 743e aed7 3a3e 0123 1abe 4618 03bf
000002f0: 9b73 a8be 295f d4bd 91a0 053c 775c cfbe
00000300: 1f11 2ebe 2177 d2be ef8a f7bd f3b0 6b3e
00000310: 6e53 82be 84d8 1b3e 09a1 c93e 0daf 53be
00000320: 7fbe 473e d8dc 483e 388a aebe 512a 93be
00000330: 9f73 efbe bee3 e5bd eba6 03bd aa80 e7be
00000340: 9299 b0bd 0ac6 bf3e 668c a03c ef8a 1abe
00000350: a0e0 08bf c50e b23d 4692 91be 42fb 3dbe
00000360: 3731 2abf 0931 643d 4240 c6bb 3475 17bf
00000370: 76e0 abbe dd63 753e b237 cebe feb8 8c3d
00000380: 7e03 8c3d af0c f9bd 5e93 e1be f8ee 49bf
00000390: 8bac d83d 9872 c6be ec4c 17be cf96 513e
000003a0: e053 12bf be70 d1bd 0796 973e 72a8 9ebe
000003b0: 4bbb 88be fabd 803a f3d7 e83d 386b 94be
000003c0: f4a8 e3be 7145 813e 2582 a4be 1815 85be
000003d0: b027 c2bd a271 19be d794 b6bd 90b4 53be
000003e0: f46f 55bf 2852 b8be 8ab5 7c3d 8565 1cbf
000003f0: a267 673e 188b 443e 5a20 d0be 0ac5 0a3d

fc2.weight f4 [128, 256]
-0.07096397 -0.042906586 -0.026353976 0.0047076633 -0.080254965 -0.10735308 0.033522453 0.020688146
-0.05178779 0.04413967 -0.14642815 0.012164626 -0.21226233 0.06711941 0.0062187538 0.036860358
-0.059037723 -0.07205177 0.03185723 -0.091155306 -0.10716681 0.04362557 -0.024865702 -0.09647509
-0.05338596 0.041323684 -0.019489236 -0.07153022 0.03331011 -0.096020594 -0.00998903 -0.059096906
0.022129439 -0.0026695542 -0.10577353 -0.052141983 0.04758561 0.0905071 0.04901241 -0.0048659905
-0.22978632 0.0067649814 -0.05450729 0.04465749 -0.05480904 -0.027795682 -0.013315757 -0.059000045
0.09636332 -0.06347604 0.0017641223 -0.0038097405 0.007389907 -0.14984056 0.01929446 0.04668035
0.01435885 0.05667054 0.01765531 -0.19533439 -0.011611414 0.03185471 0.100073755 0.17106007
-0.040716086 0.016500454 0.017245522 0.038216382 0.024996089 0.09708604 -0.1557713 -0.03683056
-0.049634546 0.05884731 -0.03702055 -0.1524185 0.020855375 -0.05615389 0.013208653 0.027890675
0.03691887 -0.08769682 -0.012185116 -0.25697386 0.07278206 0.071947455 0.0362196 -0.09001535
-0.0016083566 -0.06201012 0.085559845 -0.102607 -0.056884054 -0.035403755 -0.15291025 -0.13526703
0.09043259 -0.04298124 0.039963566 -0.18996991 0.018085586 -0.036659192 -0.17547089 0.021730829
-0.0036434974 0.025070595 -0.12559606 -0.065957114 0.013431241 -0.08375678 0.035895497 -0.103814006
-0.02743246 0.039106738 0.021124907 -0.049798463 0.22771502 0.025092946 -0.08985889 -0.01415582
-0.0010610812 -0.029926574 0.08055159 0.0669441 0.004771925 -0.059740007 0.0017500358 -0.020123348
0.018188033 0.045044925 -0.06922051 -0.19810605 -0.023530168 -0.08918833 -0.058282506 0.008256747
-0.1208984 -0.10847068 0.01677054 0.016337685 -0.028114196 0.07975157 -0.00020752026 -0.0367599
0.014933484 0.21366304 0.026797289 0.0353546 0.052514233 -0.015513706 0.12425865 -0.02165446
-0.027738001 -0.22263367 -0.12159132 -0.019613646 -0.077423885 0.031092605 -0.25682482 0.027810581
-0.015350723 0.0076325196 -0.046125274 -0.056499146 -0.0074453214 0.053970836 0.030142643 0.021475643
0.03667409 -0.017752169 -0.0039784284 -0.005757743 -0.11030354 0.068803266 -0.11559352 0.02175318
0.0582289 -0.027961459 -0.07961421 0.024128085 0.11031844 0.020469802 -0.0032863305 -0.024541598
0.001348165 -0.097697 -0.055099618 -0.05416501 -0.095469244 -0.018808303 0.049794734 -0.2085966
0.039870434 0.08737035 -0.0026593097 -0.3576772 0.022576481 -0.06322272 -0.09166195 -0.094970055
-0.04717955 -0.13416433 0.07086564 -0.057234555 -0.06070625 0.016394282 -0.07651473 -0.063495986
0.010530135 0.10917848 -0.11389477 -0.061008003 0.03191211 -0.03654371 -0.010748416 -0.06308861
-0.30620793 -0.04518277 -0.036260583 0.052756377 -0.08502801 -0.0994181 -0.033200916 0.084300674
-0.03663684 0.03476672 0.0054330453 -0.25804675 0.03742661 -0.03282504 -0.009000883 -0.2708321
-0.24458337 -0.14587681 0.01913613 -0.023541935 -0.0861857 -0.033589516 -0.109387115 0.01623223
-0.047481302 -0.08922558 -0.048833597 0.030477922 0.021165356 0.06629094 -0.040954504 -0.092787005
-0.24798088 0.0126228435 0.015921164 -0.25134113 -0.15478781 -0.07723744 0.24377868 -0.095655516
00000000: 8f55 91bd d1be 2fbd 4be4 d7bc be42 9a3b
00000010: b75c a4bd eedb dbbd d74e 093d 307a a93c
00000020: 6f1f 54bd cccb 343d 43f1 15be 244e 473c
00000030: 4c5b 59be e775 893d b0c6 cb3b e3fa 163d
00000040: 8ad1 71bd e18f 93bd ba7c 023d a2af babd
00000050: 467a dbbd bab0 323d 28b3 cbbc bb94 c5bd
00000060: 3dab 5abd 0643 293d e4a7 9fbc 707e 92bd
00000070: 2f70 083d 72a6 c4bd 07a9 23bc 990f 72bd
00000080: cc48 b53c b0f3 2ebb cb9f d8bd d592 55bd
00000090: 21e9 423d c95b b93d 3dc1 483d e372 9fbb
000000a0: 1b4d 6bbe c7ac dd3b 0943 5fbd c6ea 363d
000000b0: 727f 60bd c5b3 e3bc 552a 5abc 08aa 71bd
000000c0: 225a c53d baff 81bd 1f3a e73a d7ac 79bb
000000d0: 0827 f23b ce6f 19be 6a0f 9e3c e533 3f3d
000000e0: 6241 6b3c 5e1f 683d dea1 903c bd05 48be
000000f0: cd3d 3ebc 167a 023d 78f3 cc3d 5f2a 2f3e
00000100: e9c5 26bd f62b 873c 7b46 8d3c c888 1c3d
00000110: 99c4 cc3c 0cd5 c63d 8382 1fbe a4db 16bd
00000120: 984d 4bbd e009 713d dca2 17bd 9813 1cbe
00000130: e4d8 aa3c 9f01 66bd 1b69 583c fc7a e43c
00000140: 3e38 173d 649a b3bd 15a4 47bc 1492 83be
00000150: c30e 953d 3059 933d 015b 143d f859 b8bd
00000160: 7ecf d2ba 53fe 7dbd 003a af3d 9e23 d2bd
00000170: 41ff 68bd 8703 11bd 8194 1cbe 7183 0abe
00000180: b934 b93d 190d 30bd d6b0 233d 7987 42be
00000190: 3928 943c f327 16bd a4ae 33be da04 b23c
000001a0: bec7 6ebb d960 cd3c 419c 00be 8614 87bd
000001b0: b50e 5c3c ad88 abbd 2807 133d 709c d4bd
000001c0: 0aba e0bc 632e 203d 240e ad3c 79f9 4bbd
000001d0: 202e 693e b98f cd3c f007 b8bd d0ed 67bc
000001e0: fa13 8bba 9328 f5bc 3bf8 a43d fd19 893d
000001f0: cf5d 9c3b f0b1 74bd 7561 e53a b8d9 a4bc
00000200: 12ff 943c 0781 383d 7cc3 8dbd 50dc 4abe
00000210: 57c2 c0bc 5fa8 b6bd a3b9 6ebd 4f47 073c
00000220: 9599 f7bd e025 debd 5f62 893c 9cd6 853c
00000230: be4f e6bc cb54 a33d cc99 59b9 8d91 16bd
00000240: 92ab 743c 7cca 5a3e fd85 db3c fccf 103d
00000250: 2a19 573d 332d 7ebc 527b fe3d b264 b1bc
00000260: ce3a e3bc 15fa 63be df04 f9bd ccac a0bc
00000270: 6a90 9ebd ebb5 fe3c 8b7e 83be 04d3 e33c
00000280: 9981 7bbc 371a fa3b dbed 3cbd a66b 67bd
00000290: e2f7 f3bb 8610 5d3d b4ed f63c b0ed af3c
000002a0: 9237 163d ff6c 91bc 7a5d 82bb 73ab bcbb
000002b0: d3e6 e1bd bae8 8c3d 4cbc ecbd ba33 b23c
000002c0: 6d81 6e3d 6e0f e5bc c60c a3bd 43a8 c53c
000002d0: a2ee e13d 49b0 a73c 7a5f 57bb 760b c9bc
000002e0: e9b4 b03a 5d15 c8bd 23b0 61bd 21dc 5dbd
000002f0: 6185 c3bd df13 9abc 90f5 4b3d 599a 55be
00000300: 2e4f 233d 3aef b23d d047 2ebb 7721 b7be
00000310: 50f2 b83c ea7a 81bd 43b9 bbbd a97f c2bd
00000320: 583f 41bd 6062 09be 0122 913d c86e 6abd
00000330: 1ea7 78bd 4d4d 863c c1b3 9cbd 2f0a 82bd
00000340: 9686 2c3c f898 df3d a941 e9bd 87e3 79bd
00000350: 46b6 023d dbae 15bd 201a 30bc 9a34 81bd
00000360: 49c7 9cbe 9111 39bd fa85 14bd 1217 583d
00000370: 2a23 aebd b89b cbbd affd 07bd d5a5 ac3d
00000380: 8310 16bd 8c67 0e3d b007 b23b b41e 84be
00000390: a54c 193d 8d73 06bd 7178 13bc 81aa 8abe
000003a0: 1074 7abe bb60 15be 60c3 9c3c 04db c0bc
000003b0: 2182 b0bd 2995 09bd 5a06 e0bd 74f9 843c
000003c0: c17b 42bd e7bb b6bd bd05 48bd d6ac f93c
000003d0: f862 ad3c 8bc3 873d e9bf 27bd 1d07 bebd
000003e0: b3ee 7dbe 0bd0 4e3c 1a6d 823c c9af 80be
000003f0: b280 1ebe aa2e 9ebd 1ea1 793e 0ae7 c3bd

fc2.bias f4 [128]
-0.11210661 -0.0033330764 -0.1180597 -0.14349592 0.17144231 0.046531335 -0.06196169 -0.0013393174
-0.17339095 -0.20458111 -0.12182686 -0.09007496 -0.1447443 0.051679753 -0.18764816 0.08179394
-0.3507984 -0.10101255 -0.18719825 -0.06565164 -0.036911003 -0.1861664 -0.102845415 -0.14697751
-0.16431974 -0.06720138 -0.15191185 -0.049969826 -0.065975256 -0.011698959 -0.33220255 -0.061972868
-0.08024006 -0.046665452 -0.08044124 -0.00318621 -0.04643448 -0.05644819 -0.047734622 -0.30024737
0.008198072 -0.2574507 -0.12384142 -0.037560724 -0.054939426 -0.032669354 0.13876772 -0.09648999
-0.13255031 0.009472308 -0.07095054 -4.9177015e-05 -0.038901847 0.012762543 -0.03957613 -0.084472045
0.030604584 -0.037136186 -0.17157578 -0.07664884 -0.11839399 -0.100894615 -0.050599407 0.04531387
-0.006707239 -0.08297446 -0.16806383 -0.00460382 0.024835898 0.025055693 -0.09860598 -0.031087583
-0.025607044 -0.007018305 -0.043674003 0.022097774 0.025210295 -0.11718797 -0.055636067 0.025404105
-0.12381336 -0.058776528 -0.06603908 -0.014763051 -0.062028747 -0.05826243 -0.36094666 0.007909736
-0.050312556 -0.009512417 -0.010114759 -0.060326267 -0.012385338 -0.07585162 0.12153252 0.044806503
-0.0339993 -0.0047132517 -0.0019019599 -0.02165446 -0.11489917 -0.05862006 -0.049947474 0.026994731
-0.0568468 -0.15597992 -0.17279996 -0.029799912 -0.041997604 -0.028678587 -0.21512981 -0.062850185
-0.37494576 0.034058902 0.11274149 -0.051370326 -0.15994368 -0.012484978 0.023913877 -0.040060427
-0.20082584 -0.06866916 0.034178115 -0.18746647 -0.050033156 -0.055908017 -0.12884456 0.015313468
00000000: 2698 e5bd be6f 5abb 49c9 f1bd 98f0 12be
00000010: 938e 2f3e a497 3e3d 8bcb 7dbd 098c afba
00000020: 668d 31be b67d 51be 5c80 f9bd 3879 b8bd
00000030: da37 14be 26ae 533d d726 40be 9583 a73d
00000040: d99b b3be abdf cebd e6b0 3fbe 5e74 86bd
00000050: fe2f 17bd 68a2 3ebe 9ea0 d2bd 4681 16be
00000060: 6f43 28be e1a0 89bd c88e 1bbe 29ad 4cbd
00000070: 091e 87bd feac 3fbc 7416 aabe 43d7 7dbd
00000080: e754 a4bd 4624 3fbd 60be a4bd bccf 50bb
00000090: 1532 3ebd 3836 67bd 6185 43bd 06ba 99be
000000a0: 3551 063c 94d0 83be 92a0 fdbd 46d9 19bd
000000b0: 2a08 61bd 4dd0 05bd 2019 0e3e 8b9c c5bd
000000c0: 45bb 07be bd31 1b3c 844e 91bd 6b43 4eb8
000000d0: 8b57 1fbd fc19 513c 951a 22bd aeff acbd
000000e0: 77b6 fa3c 1d1c 18bd 90b1 2fbe 11fa 9cbd
000000f0: 8c78 f2bd d6a1 cebd 5341 4fbd 099b 393d
00000100: 66c8 dbbb 84ee a9bd ed18 2cbe a4db 96bb
00000110: a774 cb3c 9941 cd3c eff1 c9bd 63ab febc
00000120: ddc5 d1bc cff9 e5bb 83e3 32bd 6406 b53c
00000130: d285 ce3c 3f00 f0bd a5e2 63bd 451c d03c
00000140: dc91 fdbd a8bf 70bd 7f3f 87bd b9e0 71bc
00000150: db11 7ebd 96a4 6ebd 00ce b8be d697 013c
00000160: 8a14 4ebd f8d9 1bbc 60b8 25bc ad18 77bd
00000170: dfeb 4abc 1858 9bbd 0be6 f83d 0687 373d
00000180: da42 0bbd 9f71 9abb 2f4b f9ba b264 b1bc
00000190: 4250 ebbd 971b 70bd b995 4cbd 0e24 dd3c
000001a0: 31d8 68bd 33b9 1fbe 79f2 30be f21e f4bc
000001b0: ae05 2cbd 5bef eabc fd4a 5cbe 99b7 80bd
000001c0: e4f8 bfbe 5981 0b3d 03e5 e63d b169 52bd
000001d0: 47c8 23be cb8d 4cbc 09e7 c33c 6716 24bd
000001e0: 4aa5 4dbe 6ba2 8cbd 5afe 0b3d 36f7 3fbe
000001f0: 91ef 4cbd ceff 64bd d4ef 03be 57e5 7a3c

fc3.weight f4 [64, 128]
-0.0011921665 -0.06097075 -0.109908655 -0.1469795 -0.029136803 0.06561439 -0.024267785 -0.08132041
-0.01179023 -0.11068353 -0.034658685 0.0661089 -0.12523843 -0.051646605 -0.03484868 -0.020521957
0.04831577 0.0030774176 0.08436607 -0.111413695 0.056522693 -0.11462494 0.034193017 -0.1744874
-0.17953897 -0.082230225 0.042571303 -0.120317295 0.12212031 -0.03955576 -0.10172781 0.009996479
-0.08150668 0.059772357 -0.0105225 0.08439753 0.06469794 0.037555397 -0.03242721 0.042049754
0.08492896 -0.15106247 0.0129957795 0.00550442 0.051743083 0.11389476 -0.0789958 -0.069123656
-0.008378752 -0.018877221 0.035020042 0.011473577 0.00035575524 -0.11220528 0.11736739 -0.01855498
-0.05471666 0.043647923 0.01518215 0.010292128 -0.10292737 -0.00482734 -0.03288223 -0.049124174
-0.067797646 0.014746286 0.051046446 0.060538612 0.044672392 0.038783416 -0.08167804 -0.16939114
-0.0013066042 -0.10033454 0.098732635 -0.03662939 0.05336003 -0.08810798 0.02035618 0.09770444
0.09400146 0.09657194 0.09487319 -0.07337296 -0.06450793 -0.060617253 -0.23522532 -0.04160358
-0.031183876 0.043301467 0.03757935 -0.122568354 -0.18047774 0.00016151369 -0.15067504 0.023710845
-0.0057952255 0.07895109 0.009565272 -0.036137644 0.002669554 -0.057445377 0.11903381 0.13249539
0.10338588 -0.029932162 0.020331964 0.05518157 -0.088972256 0.009555028 -0.124057494 0.07108317
0.053389683 -0.04905712 -0.06890759 -0.022196498 -0.23583627 -0.16328159 0.012968368 -0.10194987
-0.16660458 -0.12151781 -0.007423901 0.092198394 -0.11003134 0.10736053 -0.10781502 -0.10251759
0.034889653 -0.16767627 0.20358972 -0.2307111 -0.0051071607 0.09937339 -0.08374933 0.009840015
-0.15386836 -0.41318646 0.26299396 -0.07588631 0.022453545 0.12493667 0.41200748 0.33270058
-0.500538 0.07363132 -0.027411971 0.06679904 -0.3261564 -0.18901622 0.0027356788 0.16411604
-0.1525675 0.012102023 0.07052438 0.08131296 -0.098534 -0.032844447 -0.056921303 0.0406155
-0.072089024 0.10677937 0.06569634 -0.041625068 0.014504138 0.091259606 0.038831063 -0.045875676
0.012546271 -0.078220926 0.08357052 -0.056947384 -0.036819384 0.07654453 -0.16082628 0.14545955
-0.08471792 0.14473984 -0.20713136 0.10049845 -0.16869077 -0.015609633 -0.07169846 0.12354339
-0.09175317 -0.18792851 -0.091267064 -0.09690723 -0.06957069 -0.16290632 -0.022332475 -0.57452977
0.019076988 0.006341224 -0.5939454 0.03700192 -0.053833004 -0.025951639 0.08219959 -0.3739316
-0.042921487 -0.011250055 0.08368842 0.030278618 -0.043576404 -0.019624151 0.10658565 -0.13777047
-0.18247452 -0.058698293 -0.12663916 0.11744129 -0.04531688 0.022894999 -0.043524988 -0.052313063
0.093017966 0.15118164 0.045181707 0.008843487 -0.061972864 0.035560213 0.049659163 -0.10841107
0.01355353 0.02220581 -0.0008019507 -0.041349392 0.039170068 -0.06590399 -0.019326821 0.09295091
-0.11234082 0.05795695 -0.26350063 -0.028166352 -0.053214595 -0.019737773 0.23154597 0.088525206
-0.25421852 0.05666053 0.03792776 -0.041461155 0.21945967 -0.05942354 -0.126058 0.12626663
-0.19198157 -0.041818127 -0.034725744 -0.15012367 0.09296581 0.012661029 -0.016219193 -0.1203545
00000000: 7842 9cba 77bc 79bd ca17 e1bd cb81 16be
00000010: 4eb0 eebc d660 863d 3ccd c6bc 518b a6bd
00000020: cf2b 41bc 0cae e2bd 44f6 0dbd 1a64 873d
00000030: 813e 00be 648b 53bd 7dbd 0ebd aa1d a8bc
00000040: c2e6 453d 80ae 493b 1ec8 ac3d dd2c e4bd
00000050: 5784 673d 7bc0 eabd fa0d 0c3d d3ac 32be
00000060: 10d9 37be 5268 a8bd 3f5f 2e3d ea68 f6bd
00000070: 371a fa3d 3805 22bd ac56 d0bd 46c8 233c
00000080: f9ec a6bd dcd3 743d 9066 2cbc 9dd8 ac3d
00000090: 5b80 843d b0d3 193d 65d2 04bd 5d3c 2c3d
000000a0: 3cef ad3d 1fb0 1abe 40ec 543c 6c5e b43b
000000b0: 8ef0 533d a841 e93d 8dc8 a1bd b490 8dbd
000000c0: 0847 09bc 67a4 9abc 2d71 0f3d abfb 3b3c
000000d0: a984 ba39 e2cb e5bd 505e f03d 9d00 98bc
000000e0: 941e 60bd 2ac8 323d 8dbe 783c 50a0 283c
000000f0: 96cb d2bd aa2e 9ebb 84af 06bd 6e36 49bd
00000100: 7ed9 8abd 689a 713c 1416 513d 56f7 773d
00000110: 66fa 363d 5cdb 1e3d d146 a7bd df74 2dbe
00000120: 5d42 abba 327c cdbd 5634 ca3d b308 16bd
00000130: 0c90 5a3d f571 b4bd 01c2 a63c 4419 c83d
00000140: d683 c03d 82c7 c53d e04c c23d 9044 96bd
00000150: bc1c 84bd cc49 78bd e8de 70be 8468 2abd
00000160: 5475 ffbc e15c 313d ceec 193d 1e05 fbbd
00000170: 28cf 38be 005c 2939 8f4a 1abe 3f3d c23c
00000180: e0e5 bdbb 1cb1 a13d a9b7 1c3c 1105 14bd
00000190: aff3 2e3b d84b 6bbd 00c8 f33d dfac 073e
000001a0: fabb d33d 4b34 f5bc 388f a63c 1206 623d
000001b0: 1637 b6bd b18c 1c3c db11 febd 0e94 913d
000001c0: 24af 5a3d 1ef0 48bd 6c1f 8dbd 6ed5 b5bc
000001d0: 107f 71be 4a33 27be 4779 543c 18cb d0bd
000001e0: 649a 2abe 54de f8bd 3244 f3bb 83d2 bc3d
000001f0: 1c58 e1bd d6df db3d 1fce dcbd bef4 d1bd
00000200: 74e8 0e3d 54b3 2bbe d379 503e 883f 6cbe
00000210: f859 a7bb 4784 cb3d c584 abbd 0438 213c
00000220: ab8f 1dbe 2d8d d3be 25a7 863e 486a 9bbd
00000230: 7ff0 b73c ccde ff3d a5f2 d23e bb57 aa3e
00000240: 4223 00bf 04cc 963d 128f e0bc efcd 883d
00000250: f9fd a6be 788d 41be 1349 333b 090e 283e
00000260: a83a 1cbe 9047 463c 166f 903d 6987 a63d
00000270: 32cc c9bd e687 06bd 5026 69bd 705c 263d
00000280: 69a3 93bd 24af da3d cd8b 863d 0c7f 2abd
00000290: c4a2 6d3c 51e6 ba3d 520d 1f3d 22e8 3bbd
000002a0: e08e 4d3c 4b32 a0bd 0527 ab3d a941 69bd
000002b0: eccf 16bd 61c3 9c3d a5af 24be 59f3 143e
000002c0: 9780 adbd ae36 143e 3e1a 54be 22d2 cd3d
000002d0: 46bd 2cbe 8cbf 7fbc a4d6 92bd 5104 fd3d
000002e0: 16e9 bbbd 5570 40be 3aea babd 4c77 c6bd
000002f0: 147b 8ebd ead0 26be 98f2 b6bc 6214 13bf
00000300: 5847 9c3c 0bca cf3b ce0c 18bf 538f 173d
00000310: ff7f 5cbd 8898 d4bc 4258 a83d f673 bfbe
00000320: 71ce 2fbd 2752 38bc d664 ab3d dd0a f83c
00000330: 2c7d 32bd d4c2 a0bc 9449 da3d b413 0dbe
00000340: 9ada 3abe 9f6d 70bd b2ad 01be 0f85 f03d
00000350: 319e 39bd 4b8e bb3c 4247 32bd 3946 56bd
00000360: 3480 be3d 5ccf 1a3e 7410 393d 46e4 103c
00000370: 42d7 7dbd 96a7 113d 6867 4b3d a006 debd
00000380: a00f 5e3c f5e8 b53c 003a 52ba fb5d 29bd
00000390: cb70 203d acf8 86bd 4853 9ebc 0c5d be3d
000003a0: f212 e6bd 4464 6d3d 8ee9 86be 1fbd e6bc
000003b0: 8cf7 59bd 1cb1 a1bc 631a 6d3e b44c b53d
000003c0: ee28 82be df14 683d 245a 1b3d 2cd3 29bd
000003d0: 09ba 603e 1966 73bd 5915 01be 0a4c 013e
000003e0: d196 44be 7c49 2bbd 953c 0ebd 05ba 19be
000003f0: dc64 be3d 3470 4f3c 1dde 84bc 6c7c f6bd

fc3.bias f4 [64]
-0.13756184 0.21564066 -0.20363815 0.011980003 -0.04719445 0.015696801 -0.01839317 -0.07897345
-0.11157761 -0.04874 -0.005739731 -0.022380555 0.03349013 -0.11154456 -0.12152864 -0.012839672
-0.042170197 -0.21770331 -0.17078272 -0.077691935 -0.15496662 -0.2439555 -0.13292752 -0.019780062
-0.25777024 0.14430921 -0.26825097 -0.24129964 -0.347608 -0.28701496 0.080040514 -0.09783673
0.37188074 0.085349426 -0.110616475 0.08457221 -0.12360913 -0.37524566 -0.44089612 -0.025331156
-0.1089362 -0.040082484 -0.07097142 0.102419816 -0.1504369 -0.06469475 -0.24396668 -0.14614914
-0.19117428 -0.16869318 0.043725897 0.010668904 -0.09159677 -0.048844773 0.033639178 0.08597682
0.024411105 0.10769251 -0.1660738 -0.10019667 -0.18511206 -0.14548482 -0.1341761 -0.10630149
00000000: 03dd 0cbe e8d0 5c3e 8586 50be c647 443c
00000010: f84e 41bd 9496 803c 46ad 96bc d5bc a1bd
00000020: cd82 e4bd 98a3 47bd 5a14 bcbb 6d57 b7bc
00000030: f22c 093d 7971 e4bd 02e4 f8bd 7d5d 52bc
00000040: a8ba 2cbd 9eed 5ebe aae1 2ebe f31c 9fbd
00000050: 92af 1ebe 78cf 79be 271e 08be cc09 a2bc
00000060: 76fa 83be cbc5 133e 3158 89be 4117 77be
00000070: adf9 b1be a0f3 92be 48ec a33d a05e c8bd
00000080: 2767 be3e aecb ae3d e48a e2bd 3234 ad3d
00000090: c926 fdbd 3320 c0be 23bd e1be 4983 cfbc
000000a0: f119 dfbd 882d 24bd 7759 91bd 7bc1 d13d
000000b0: 210c 1abe ae7e 84bd 67d2 79be 1fa8 15be
000000c0: 31c3 43be e8bd 2cbe ed19 333d a0cc 2e3c
000000d0: 1697 bbbd 7511 48bd 3cc9 093d 9d14 b03d
000000e0: ccf9 c73c e48d dc3d 400f 2abe e933 cdbd
000000f0: 048e 3dbe f9f9 14be 7665 09be 98b4 d9bd

fc4.weight f4 [1, 64]
0.0036937895 -0.47728232 -1.5081238 1.9318614 0.0030441836 -1.7781199 -0.22656067 0.025091086
0.006265786 1.1988437 0.98544925 -2.368559 1.6563859 0.24183495 0.6851477 1.3502758
0.057683717 -0.14280201 0.21993357 0.015947241 -0.00011130539 -0.062009048 -0.013233799 0.7299735
-0.6425868 -0.28603706 0.01751666 0.9711019 -0.2163079 -0.0037007742 -1.9379829 1.1495837
-0.1912019 -0.17956288 -0.027512554 0.07253062 1.01359 0.01615172 -1.5476419 1.7970582
0.5007098 0.045795206 -0.0097710965 2.0770743 0.5264395 0.8149236 1.8096709 1.5047354
0.037083283 0.14035454 -2.5977912 1.2801455 1.4151087 0.020525683 -0.7386847 1.9335858
1.4342366 -0.92121446 -0.041086305 -0.2139025 -0.0011546803 0.13877913 1.1560512 2.3122807
00000000: 8113 723b 595e f4be 330a c1bf 3c47 f73f
00000010: ed80 473b 6f99 e3bf 85ff 67be d28b cd3c
00000020: 3951 cd3b b673 993f 6746 7c3f 7896 17c0
00000030: 7404 d43f 95a3 773e d765 2f3f d6d5 ac3f
00000040: c345 6c3d b13a 12be 4436 613e caa3 823c
00000050: a06c e9b8 33fd 7dbd 93d2 58bc 8bdf 3a3f
00000060: 9280 24bf 7373 92be 197f 8f3c 229a 783f
00000070: d17f 5dbe b088 72bb d30f f8bf 8f25 933f
00000080: 6eca 43be 55df 37be 0262 e1bc ef8a 943d
00000090: 51bd 813f 9d50 843c 2119 c6bf 0106 e63f
000000a0: 842e 003f c193 3b3d f316 20bc c9ee 0440
000000b0: bdc4 063f d59e 503f 4ca3 e73f 2b9b c03f
000000c0: a4e4 173d 1ab9 0f3e 3642 26c0 cfdb a33f
000000d0: 4822 b53f 7a25 a83c 711a 3dbf bd7f f73f
000000e0: 1195 b73f b6d4 6bbf 1d4a 28bd 4209 5bbe
000000f0: a458 97ba 1e1c 0e3e 7cf9 933f 68fc 1340
